latent_ode/experiments/experiment_68310.ckpt (torch, 226283 bytes, 29 tensors)

encoder_z0.GRU_update.update_gate.0.weight f4 [100, 42]
0	0x3ca03b5e	0.019559558
1	0xbc9346b4	-0.01797805
2	0xbe0d6d9f	-0.13811348
3	0x3d5dc482	0.054142483
4	0xbe253cea	-0.16136518
5	0x3e9a97a2	0.30193812
6	0x3d81a0f0	0.063295245
7	0xbda7fadf	-0.08202147
8	0x3d4c1905	0.049828548
9	0x3d6c67c8	0.05771616
10	0xbe1774ae	-0.14790604
11	0x3e505ddf	0.20348309
12	0x3e888944	0.26667225
13	0x3d3fcc63	0.046825778
14	0xbda82953	-0.08211007
15	0xbe52f1e9	-0.20600094
16	0x3cad0568	0.021120742
17	0xbd5a3bfa	-0.053279854
18	0xbd9784a4	-0.07398346
19	0x3e485ead	0.19567366
20	0xbd7bb2f3	-0.061449956
21	0xbc533245	-0.012890403
22	0xbdb84990	-0.08998406
23	0xbe337983	-0.17526822
24	0xbda750de	-0.08169721
25	0x3de800a3	0.113282464
26	0xbbeedafa	-0.0072892876
27	0xbe0ab2fd	-0.13544841
28	0x3cb59789	0.022166984
29	0x3dd87f5a	0.105711654
30	0x3d3bb2b3	0.045824718
31	0xbd8c0e61	-0.0683868
32	0x3cd538fc	0.026028149
33	0x3e101c77	0.14073358
34	0xbdbe9710	-0.09306157
35	0xbcb2c7f6	-0.021823864
36	0xbe011584	-0.12605864
37	0x3d51fa57	0.051264133
38	0x3d6c3211	0.057664935
39	0xbeb5f09e	-0.3553514
40	0x3d868bd8	0.06569642
41	0xbd29e4e9	-0.04147807
42	0x3e85ed9d	0.26157847
43	0x3d8abf89	0.06774814
44	0x3c4d2a39	0.012522274
45	0xbda6a05b	-0.08136054
46	0xbd01db2d	-0.031703163
47	0x3e361dca	0.17784801
48	0xbda11764	-0.078657895
49	0x3b52efe1	0.0032186436
50	0x3d306bfd	0.043071736
51	0xbe52f6b0	-0.20601916
52	0x3e7d7140	0.24750233
53	0xbd53166a	-0.051535048
54	0xbd19d1ef	-0.037553724
55	0x3c5db93f	0.013532936
56	0x3bbebf67	0.005821157
57	0xbdec109c	-0.115266055
58	0xbdfd9687	-0.123822264
59	0x3e0c50ff	0.13702773
60	0x3dbf334c	0.09335956
61	0xbcdb5559	-0.026774095
62	0x3da59851	0.08085693
63	0x3b676ef8	0.0035313945
64	0xbdb7575d	-0.0895221
65	0x3de1a736	0.11018221
66	0x3dbd31e7	0.09238034
67	0xbcf22c9d	-0.029562289
68	0x3ceb306d	0.028709615
69	0x3e052f55	0.13006337
70	0x3d67eaa0	0.05662024
71	0x3d20bd0c	0.03924279
72	0xbd91820a	-0.07104881
73	0xbdfe15d9	-0.12406511
74	0xbcf7b845	-0.030239234
75	0xbc65f062	-0.0140343625
76	0x3d312350	0.043246567
77	0xbca67f7c	-0.020324461
78	0x3d13c0f8	0.0360727
79	0xbe355b2a	-0.17710558
80	0xbd5fa559	-0.054601047
81	0xbb196002	-0.0023403172
82	0x3e09ed1f	0.13469361
83	0xbd9e8597	-0.07740324
84	0x3e0057de	0.12533519
85	0x3d172dfb	0.036909085
86	0xbd8ad1ab	-0.06778272
87	0xbd49ec7b	-0.04929779
88	0x3c084cf4	0.008319128
89	0x3dfb6a5b	0.12276145
90	0x3e93e8aa	0.28888446
91	0x3e16f72a	0.14742723
92	0x3e40e9d6	0.18839201
93	0xbd43749f	-0.04771864
94	0x3db36a8e	0.08760558
95	0x3c87fc32	0.016599748
96	0x3cf13617	0.029444737
97	0xbe0a4bac	-0.13505429
98	0xbc4308bc	-0.011903938
99	0xbc783ea3	-0.0151516525
100	0xbdd92203	-0.1060219
101	0x3d813c69	0.063103504
102	0xbd38f682	-0.045156963
103	0x3bbadad4	0.005702356
104	0x3d8dc0b7	0.06921523
105	0xbe49c983	-0.19705777
106	0xbd782ef1	-0.06059164
107	0xbd38b48a	-0.04509405
108	0xbd05de2c	-0.032682583
109	0xbdec3c4b	-0.115349375
110	0xba4ce06f	-0.00078154256
111	0xbdf29fa0	-0.11846852
112	0x3e0e7618	0.13912237
113	0xbde72fb7	-0.11288398
114	0x3d85c6c0	0.06532049
115	0xbc0b7b24	-0.008513246
116	0x3c9900ca	0.018677134
117	0x3ea96a61	0.33088973
118	0x3da209c5	0.0791202
119	0x3da9e557	0.08295696
120	0xbd04001c	-0.032226667
121	0x3d37e0c8	0.044892102
122	0xbdb74cd6	-0.08950202
123	0x3c385dc5	0.011252825
124	0xbced68e4	-0.02898068
125	0xbd601601	-0.054708485
126	0xbe306073	-0.17224292
127	0x3deddaea	0.1161402
128	0xbda82760	-0.08210635
129	0xbd861a75	-0.06548015
130	0x3db17493	0.08664813
131	0x3d80f576	0.06296818
132	0x3d82c9bc	0.06386134
133	0xbe310ee1	-0.17290832
134	0x3dcce187	0.100039534
135	0xbd0ccab4	-0.034373
136	0xbe34061c	-0.17580456
137	0x3dda5053	0.10659852
138	0x3d97c1e5	0.07410029
139	0xbd3a389f	-0.045464154
140	0x3dcf7c46	0.10131125
141	0x3d808675	0.06275646
142	0xbd2c98d1	-0.042137925
143	0x3dd98a2b	0.106220566
144	0xbe0c18a7	-0.13681279
145	0x3a8446f6	0.0010091949
146	0xbd92000d	-0.07128916
147	0xbd92a145	-0.07159666
148	0xbe1f374d	-0.1554844
149	0xbb040b51	-0.0020148347
150	0xbde9f441	-0.11423541
151	0xbdf0e2e7	-0.11762028
152	0xbddb61df	-0.10712027
153	0xbbbaac5d	-0.005696817
154	0x3c3e0500	0.011597872
155	0x3d866092	0.06561388
156	0x3ca3ad5a	0.019980121
157	0x3dd85e48	0.10564858
158	0x3e130551	0.14357497
159	0x3c9cbff7	0.019134505
160	0xbdbe6da2	-0.092982545
161	0x3c98856d	0.01861831
162	0xbd22dbff	-0.039760586
163	0x3cc18979	0.023625122
164	0xbddc5d79	-0.10760016
165	0xbd781ebc	-0.060576186
166	0x3e739eca	0.23791042
167	0xbcb4f8d0	-0.0220913
168	0xbe0dc7f9	-0.13845815
169	0x3e568737	0.20950018
170	0x3d518b83	0.05115844
171	0x3d3c23bd	0.04593252
172	0x3d8b43ad	0.068000175
173	0xbe613b0c	-0.21995181
174	0x3db2f780	0.08738613
175	0xbe32c4c5	-0.17457874
176	0xbb93acc2	-0.0045066783
177	0x3e87c4c3	0.26517305
178	0xbe6efcd3	-0.23338632
179	0x3dae99e9	0.0852545
180	0xbcfb223a	-0.030655969
181	0x3d5aa423	0.05337919
182	0xbd1a556c	-0.03767912
183	0xbdc801d7	-0.09765976
184	0x3d4150cf	0.047196206
185	0x3cf0efa1	0.029411139
186	0xbdd01761	-0.10160709
187	0xbd22a94d	-0.03971224
188	0x3d225e33	0.039640617
189	0xbc5e10f3	-0.013553846
190	0x3e2b959c	0.1675629
191	0xbdd33077	-0.10311978
192	0x3e1e6e08	0.15471661
193	0x3ac962be	0.001536451
194	0x3dfe6022	0.1242068
195	0xbda7775e	-0.08177064
196	0x3d0d204e	0.034454636
197	0xbc4b556a	-0.012410501
198	0x3c88c7ac	0.016696773
199	0xbce5a59b	-0.028033068
200	0xbe0810aa	-0.13287607
201	0x3db20018	0.08691424
202	0x3af0d1bd	0.0018373054
203	0xbe41914e	-0.18903086
204	0x3e26a076	0.16272148
205	0x3d766ead	0.060164142
206	0x3dd1c413	0.10242476
207	0xbe1cee6f	-0.1532533
208	0xbd422b5b	-0.04740463
209	0x3e0f2c10	0.13981652
210	0xbdc83b46	-0.097769305
211	0xbe0bc59c	-0.136496
212	0x3d330196	0.043702684
213	0xbe0e957a	-0.13924208
214	0xbb777f05	-0.0037764919
215	0xbda257d4	-0.07926908
216	0x3d9d0875	0.07667629
217	0x3dcd0b2e	0.10011898
218	0x3e1f1e12	0.15538815
219	0xbcddc9bb	-0.027073732
220	0x3d8b3f8b	0.06799229
221	0xbcfc2eb5	-0.03078399
222	0x3b158745	0.0022816223
223	0xbc9c4206	-0.019074451
224	0xbd8fca14	-0.07020965
225	0x3dc97617	0.09836977
226	0x3d8e2739	0.06941075
227	0xbe4a4337	-0.19752203
228	0xbc91a4f6	-0.017778855
229	0x3ce73c88	0.028227106
230	0xbcf68dc6	-0.0300969
231	0x3e12e666	0.14345703
232	0xbbb8818f	-0.005630679
233	0xbd9ecfd8	-0.07754487
234	0xbdebfec4	-0.11523202
235	0x3d97520b	0.07388695
236	0xbdadcbe1	-0.084861524
237	0x3c0f9052	0.008762436
238	0x3d5219e9	0.05129424
239	0xbe16795d	-0.14694734
240	0x3d029894	0.03188379
241	0xbe003d5d	-0.12523408
242	0xbe12a954	-0.14322406
243	0x3da04455	0.07825533
244	0x3cb413db	0.021982124
245	0xbcca0eb0	-0.024665207
246	0x3c7395b2	0.014867233
247	0x3c7e178d	0.015508545
248	0x3be11b49	0.0068697077
249	0x3daa7fa7	0.08325129
250	0x3e18fd56	0.1494039
251	0xbd9f0d7f	-0.07766246
252	0xbcffa8b0	-0.031208366
253	0xbdf6efa6	-0.12057428
254	0xbb8ced16	-0.004300724
255	0x3db22277	0.0869798

encoder_z0.GRU_update.update_gate.0.bias f4 [100]
0	0x3c6dff69	0.014526227
1	0xbc12f9fc	-0.008970734
2	0xbcb800bf	-0.022461293
3	0xbc508a3e	-0.012728272
4	0x3bb76f57	0.0055979895
5	0xbc62bcf3	-0.013838994
6	0xbcdfb3e4	-0.027307458
7	0xbc95913f	-0.018257735
8	0xbcf07f9d	-0.029357726
9	0xbb934bda	-0.004495126
10	0x3b38a6b8	0.0028175544
11	0x3b14654f	0.0022643392
12	0xbd18a345	-0.03726508
13	0xbb162bfa	-0.0022914396
14	0xbd1b159e	-0.037862413
15	0x3d494a9a	0.04914341
16	0x3ca9edfd	0.020743364
17	0xbccca0a6	-0.024978947
18	0x3c467fb8	0.012115411
19	0x3c9785a0	0.018496335
20	0xbc884274	-0.01663325
21	0x3d8e0374	0.069342524
22	0xbcdb38c1	-0.02676046
23	0x3c767b0a	0.015043983
24	0x3c3ebf30	0.011642262
25	0xbd0f0456	-0.034916244
26	0x3ccad0a5	0.024757693
27	0xbd0206b0	-0.03174466
28	0x3b4229e9	0.0029627031
29	0xbcc0f39f	-0.023553668
30	0x3cf6fb4c	0.030149125
31	0x3c750abb	0.014956172
32	0x3cb1878c	0.02167108
33	0xbc2c1bfe	-0.010504721
34	0x3c1540f3	0.009109723
35	0xbd1c73fa	-0.03819654
36	0xbd02f849	-0.031975064
37	0x3b29d273	0.002591279
38	0x3c872338	0.016496286
39	0xbd3e1aa4	-0.046412125
40	0x3cf86fe8	0.030326799
41	0x3c495154	0.012287457
42	0xbd06b674	-0.032888845
43	0x3c802e78	0.015647158
44	0xbc20b249	-0.0098081315
45	0xbbd6a9b8	-0.006550994
46	0xbc813018	-0.015770003
47	0xbb804c15	-0.0039153197
48	0xbbde911d	-0.006792201
49	0xbc6eea28	-0.014582194
50	0xbc2fae1e	-0.010722665
51	0x3c9ecdef	0.019385306
52	0x3cea3e4c	0.028594159
53	0x3d2fdd1d	0.04293548
54	0x3c9f25ed	0.019427264
55	0xbc6f68cd	-0.014612389
56	0x3ceb1068	0.028694347
57	0xbc85106e	-0.016243186
58	0xbc3bdaae	-0.0114657115
59	0xbbc95b65	-0.0061449283
60	0xb9c2dd07	-0.00037167242
61	0xbc494231	-0.012283848
62	0x3c8d797b	0.01726984
63	0xbd081655	-0.033224422
64	0x3c8d2d2f	0.01723346
65	0xbcf2b517	-0.029627366
66	0x3baf6f4d	0.0053538443
67	0xbc141054	-0.009037096
68	0xbc8aaeed	-0.016929114
69	0xbc6a05af	-0.014283582
70	0xbd12a4a7	-0.035801556
71	0xbb0f051c	-0.0021823114
72	0x3d128f9f	0.0357815
73	0x3c485164	0.012226436
74	0xbc562632	-0.01307063
75	0x3a2178c4	0.0006159658
76	0x3c22a2e9	0.009926536
77	0x3ceaba27	0.028653217
78	0xbc98eeed	-0.018668616
79	0xbbde88eb	-0.0067912242
80	0x3b0bfd22	0.0021360596
81	0xbd10bf5f	-0.035338756
82	0xbadafca4	-0.0016707373
83	0xbbf1a2ea	-0.007374157
84	0x3b403c61	0.0029332864
85	0x3bfff348	0.007810984
86	0xbb37734d	-0.0027992309
87	0x3bcee5c5	0.0063140118
88	0x3c944407	0.018098844
89	0xbbf01a80	-0.007327378
90	0xbbb1ba45	-0.0054238164
91	0x3c01db0c	0.00792576
92	0x3b7ada44	0.003827707
93	0x3d5ad774	0.05342813
94	0xbc4630f3	-0.012096631
95	0xbbca54da	-0.006174666
96	0xbbbd46d1	-0.0057762642
97	0xbc974768	-0.018466666
98	0x3d04a655	0.03238519
99	0x3d3cea44	0.04612185

encoder_z0.GRU_update.update_gate.2.weight f4 [20, 100]
0	0xbe1756ee	-0.14779255
1	0x3a742772	0.0009313739
2	0x3caebcd6	0.021330278
3	0xbcd34e6d	-0.025794232
4	0xbd170685	-0.036871452
5	0xbe2c51be	-0.16828057
6	0xbe28ef95	-0.16497643
7	0x3dc6d93b	0.09709402
8	0x3e6613bf	0.2246847
9	0x3d5ae01e	0.05343639
10	0xbe219aae	-0.15781662
11	0x3c48eb57	0.012263141
12	0xbe0a36b4	-0.1349743
13	0xbe034441	-0.12819006
14	0xbe434d2d	-0.19072409
15	0x3d72b07d	0.059250344
16	0x3e0b51f1	0.13605477
17	0xbdfe6d05	-0.124231376
18	0xbd348940	-0.044076204
19	0x3e6b0187	0.22949801
20	0x3d72c9f3	0.059274625
21	0x3e10f6e9	0.14156689
22	0xbe24210f	-0.16028236
23	0xbcc88201	-0.024476053
24	0xbd75a716	-0.0599738
25	0xbddb11e7	-0.10696774
26	0xbe142cc9	-0.14470209
27	0xbdf144cc	-0.117807
28	0xbdd32bb0	-0.10311067
29	0x3e0b5367	0.13606034
30	0xbd7aa78c	-0.06119494
31	0x3db84229	0.08996994
32	0x3daa7fe5	0.08325175
33	0x3dead618	0.114666164
34	0x3e419e46	0.18908033
35	0xbd5ed26f	-0.054399904
36	0x3d3f8703	0.046759617
37	0x3caa5ed5	0.020797173
38	0xbe42ffac	-0.19042844
39	0x3dfcdb40	0.12346506
40	0xbdf9135e	-0.12161897
41	0x3de3e41d	0.111274935
42	0x3e8940bd	0.26807204
43	0x3dd1c6ba	0.10242982
44	0x3c169aca	0.009192178
45	0x3a4cb6cc	0.0007809221
46	0xbdcd2a40	-0.10017824
47	0x3d23a152	0.03994877
48	0x3de44263	0.11145475
49	0xbd424de8	-0.04743758
50	0x3bd10c5d	0.0063796476
51	0x3d46cb16	0.04853352
52	0x3e9d99a9	0.30781296
53	0x3de8ffb3	0.11376896
54	0xbd320278	-0.043459386
55	0xbdcedb29	-0.10100395
56	0x3da2b51b	0.079446994
57	0xbe0fa743	-0.14028649
58	0x3a92439f	0.0011159069
59	0x3d01db2a	0.03170315
60	0x3d44707e	0.047958843
61	0x3d0c5c99	0.034267996
62	0x3e14838b	0.14503305
63	0xbc4b1461	-0.012394995
64	0x3dc15b76	0.09441273
65	0xbe44ee73	-0.19231586
66	0x3d4be6c5	0.049780626
67	0x3d0c93b5	0.034320552
68	0x3d61f5b5	0.055165965
69	0xbda518c1	-0.08061362
70	0x3dba0553	0.09083047
71	0xbd395a6b	-0.045252245
72	0x3bdee864	0.0068026055
73	0x3e07433d	0.13209243
74	0x3dd2ac5a	0.1028678
75	0xbbef6eaa	-0.0073068934
76	0x3e01f0b8	0.12689483
77	0x3d9e8e57	0.07741993
78	0x3ccbed08	0.024893299
79	0xbd9aac2e	-0.07552372
80	0xbddbc36f	-0.107306354
81	0xbe15ed25	-0.14641245
82	0xbbdb1157	-0.0066854167
83	0x3dd4af8c	0.103850454
84	0x3c592884	0.013254289
85	0xbd77509d	-0.060379613
86	0xbd391bf6	-0.04519268
87	0xbc84fb8e	-0.016233232
88	0xbd551b6b	-0.0520281
89	0xbd54020e	-0.051759772
90	0x3c648295	0.013947149
91	0x3d88ab6a	0.0667332
92	0xbe81ad1e	-0.2532739
93	0x3d275115	0.04084881
94	0xbc870dc9	-0.016486065
95	0x3d1cab41	0.038249258
96	0xbde75a2d	-0.112964965
97	0x3cce7cfd	0.025206083
98	0xbd7e58e2	-0.062096484
99	0x3cb2e92d	0.021839703
100	0x3d708406	0.058719657
101	0x3e673e43	0.22582345
102	0xbe3eb09a	-0.18622056
103	0xbe1c19f6	-0.15244278
104	0x3e1afaa4	0.15134674
105	0xbde6f159	-0.11276502
106	0xbca2592c	-0.019817911
107	0x3e63bbb9	0.2223958
108	0x3e27cf7e	0.16387746
109	0x39ba07bd	0.0003548245
110	0xbb36da75	-0.0027901207
111	0xbde3e158	-0.11126965
112	0xbde979b7	-0.114001684
113	0x3dda2209	0.10651023
114	0xbcb899fd	-0.022534365
115	0x3bcc0254	0.0062258635
116	0xbde28f6f	-0.11062514
117	0xbd0786f0	-0.03308767
118	0xbcffb87c	-0.031215899
119	0x3e092fb5	0.13397105
120	0x3da6f26a	0.081517056
121	0xbe38dc98	-0.180529
122	0xbcba86c5	-0.022769341
123	0xbda418b2	-0.08012523
124	0xbbab7d08	-0.0052334107
125	0x3daef6ff	0.085432045
126	0xbd01a541	-0.03165174
127	0x3d794932	0.06086082
128	0xbde3b216	-0.111179516
129	0xbe04744b	-0.12934987
130	0x3df48ca5	0.11940888
131	0x3dc8f9fb	0.09813305
132	0xbb4707f2	-0.0030369726
133	0x3e011808	0.12606823
134	0xbdb8f0bd	-0.09030292
135	0x3bafcbb4	0.0053648595
136	0x3c10eda5	0.008845721
137	0xbdb7e6ee	-0.08979593
138	0x3e51aaa5	0.20475252
139	0xbd0578e2	-0.032585986
140	0x3d2d890e	0.042367034
141	0x3d9bf9fc	0.0761604
142	0x3bc07b87	0.0058741006
143	0xbd8a9997	-0.06767576
144	0xbdbc3beb	-0.09191116
145	0x3c056590	0.00814189
146	0xbd288a86	-0.04114773
147	0xbe0c6c22	-0.13713124
148	0xbd789907	-0.060692813
149	0x3d40dbd1	0.047084633
150	0x3c5655fb	0.013082023
151	0xbdb943fe	-0.090461716
152	0xbe0eda9e	-0.13950583
153	0xbe1d12b6	-0.15339169
154	0x3db0c9ee	0.08632265
155	0xbda0e1b5	-0.0785555
156	0xbe5a4b18	-0.21317708
157	0xbd3f9240	-0.046770334
158	0xbbbe57b2	-0.005808794
159	0xbd19f983	-0.03759147
160	0xbe26372c	-0.16231984
161	0xbcec0b62	-0.028814021
162	0x3d586eae	0.052839927
163	0xbd8d9ea2	-0.069150224
164	0xbde5d0d2	-0.1122147
165	0x3dc8c32f	0.09802853
166	0xbd13ace4	-0.036053553
167	0x3d094f8a	0.03352312
168	0x3b8f2074	0.0043678824
169	0xbe51aef6	-0.20476899
170	0x3c623b4d	0.013808084
171	0x3dd02448	0.1016317
172	0xbc82c37f	-0.01596236
173	0xbcddfe9f	-0.027098952
174	0x3e10fda8	0.14159262
175	0x3cf6759b	0.030085376
176	0xbe420a7d	-0.18949313
177	0xbd76eade	-0.06028258
178	0xbda03012	-0.07821669
179	0x3d11f775	0.035636384
180	0xbdfa82f3	-0.12232008
181	0x3e0767f4	0.13223249
182	0xbe166b8b	-0.14689462
183	0x3da6e947	0.08149963
184	0x3df86ac8	0.12129742
185	0xbc870d4d	-0.016485834
186	0xbdf3b0b7	-0.1189894
187	0xbdd077b5	-0.10179082
188	0xbc942bb2	-0.018087242
189	0x3d69883c	0.05701469
190	0x3cbc436c	0.022981368
191	0xbc59308f	-0.013256206
192	0xbcabc960	-0.020970047
193	0xbbfeb7df	-0.007773384
194	0x3cd0b3f2	0.02547643
195	0xbda53cfc	-0.080682725
196	0xbda4f6f2	-0.080549136
197	0x3e44c38d	0.19215222
198	0x3d86f11d	0.065889575
199	0xbdef00ce	-0.11670075
200	0x3dd19b45	0.102346934
201	0x3e0bcfb2	0.13653448
202	0x3c6d57ff	0.014486312
203	0x3d064a75	0.03278585
204	0xbcfcf574	-0.03087876
205	0x3e0d69b6	0.13809857
206	0xbe02dcde	-0.12779567
207	0xbb62d300	-0.003461063
208	0xbe31eebd	-0.17376228
209	0xbd673eec	-0.05645649
210	0xbd1eefaf	-0.0388028
211	0x3d3120c4	0.04324414
212	0x3d53dcd7	0.05172428
213	0x3d3ad24e	0.04561072
214	0x3d8b3fb8	0.06799263
215	0x3e22be97	0.15893017
216	0xbceff55c	-0.029291801
217	0xbdeb3f2b	-0.11486658
218	0x3e715c91	0.23570468
219	0x3d838024	0.06420925
220	0xbd3cb655	-0.046072323
221	0x3c59cc35	0.013293316
222	0xbe1b7beb	-0.1518399
223	0xbdb30d01	-0.08742715
224	0x3e00fd71	0.1259668
225	0xbd9fc56d	-0.07801328
226	0x3d49e2e1	0.049288634
227	0x3d67eab6	0.056620322
228	0xbca43987	-0.020046962
229	0xbcc1d7b9	-0.023662435
230	0x3dc8e288	0.098088324
231	0x3dbb0865	0.091324605
232	0xbe6f1bce	-0.2335045
233	0xbc571bb6	-0.013129165
234	0xbd792f4f	-0.060836133
235	0xbca39c59	-0.019972013
236	0x3d5f73f6	0.05455395
237	0xbcecdf65	-0.028915117
238	0x3c982169	0.018570619
239	0xbe0e6d5b	-0.13908903
240	0x3d601ec6	0.054716848
241	0xbd139840	-0.03603387
242	0x3de987f4	0.11402884
243	0x3db23b44	0.0870271
244	0xbdd0f2e7	-0.1020258
245	0xbd789cbb	-0.060696345
246	0x3ca2bac5	0.01986445
247	0xbe04603d	-0.12927337
248	0x3c1c1f3b	0.00952893
249	0x3df7c89f	0.12098812
250	0xbe51b84b	-0.20480458
251	0x3de0c333	0.10974731
252	0x3d899ad9	0.06718988
253	0x3ca1662d	0.019702042
254	0xbd9c3a72	-0.07628335
255	0xbd83f760	-0.064436674

encoder_z0.GRU_update.update_gate.2.bias f4 [20]
0	0x3d0b123d	0.03395294
1	0x3b7489e4	0.0037313635
2	0x3d821880	0.06352329
3	0xbca53048	-0.020164624
4	0x3c1b0156	0.009460768
5	0x3c7dc981	0.015489937
6	0x3cc37249	0.023858206
7	0x3bb6e551	0.005581536
8	0x3cd1761b	0.025569012
9	0xbd94f46a	-0.07273181
10	0xbc0edd3b	-0.008719738
11	0x3c44da60	0.012014955
12	0x3c3678c7	0.011137194
13	0xbc5080a8	-0.012725987
14	0xbc2034cf	-0.009778216
15	0x3c4b035d	0.012390939
16	0xbcb7337e	-0.02236342
17	0x3c03216d	0.008003575
18	0xbc05027a	-0.008118266
19	0xbd8cd30b	-0.06876191

encoder_z0.GRU_update.reset_gate.0.weight f4 [100, 42]
0	0x3d9a4a5c	0.07533714
1	0x3da7abdc	0.081870764
2	0xbdab48ff	-0.08363532
3	0xbe1af658	-0.15133035
4	0xbd0a3b1d	-0.03374778
5	0xbd1f784c	-0.038933083
6	0x3d914d90	0.07094872
7	0x3d6d764b	0.05797414
8	0xbcdcd4c0	-0.026956916
9	0xbc4198c2	-0.011816205
10	0x3e0f390a	0.13986602
11	0xbe21514f	-0.15753673
12	0x3d582659	0.052770946
13	0xbd557acf	-0.052119073
14	0x3e1188a6	0.14212283
15	0xbd9d72f3	-0.076879404
16	0xbb189ccf	-0.0023286825
17	0x3ce12e10	0.027487785
18	0x3dd7440b	0.10511025
19	0xbd87e7c7	-0.06636005
20	0x3e634940	0.22195911
21	0xbd3ce1d2	-0.046113797
22	0x3d0e4624	0.03473486
23	0xbe82356a	-0.25431377
24	0x3d27524a	0.04084996
25	0x3d427e59	0.047483776
26	0x3dae640a	0.08515175
27	0xbcd56365	-0.026048372
28	0xbd991c68	-0.07476121
29	0x3dd8e9de	0.105914816
30	0xbdc7a01c	-0.09747335
31	0xbdb27fe3	-0.08715799
32	0x3e36814d	0.17822762
33	0xbe1e9ffa	-0.15490714
34	0x3d9e265a	0.07722159
35	0x3abffee2	0.0014648105
36	0x3d1835be	0.037160628
37	0x3d8671b5	0.06564657
38	0xbcd3dae1	-0.025861206
39	0xbcb7815c	-0.02240055
40	0x3c372bfc	0.01117992
41	0x3d8410fc	0.06448552
42	0xbd129a99	-0.035791967
43	0xbbebb3d9	-0.0071930704
44	0xbd30c991	-0.04316098
45	0xbe3747b9	-0.17898454
46	0xbdcd372e	-0.1002029
47	0xbe445930	-0.19174647
48	0xbe5b8d7a	-0.21440688
49	0xbcab5218	-0.020913169
50	0xbd685ead	-0.056730915
51	0x3d9e0e6f	0.07717597
52	0xbc2442cc	-0.010025691
53	0xbde9063c	-0.11378142
54	0xbe3b2040	-0.18274021
55	0x3e37142a	0.17878786
56	0x3e8a4193	0.27003154
57	0x3ba63ef9	0.005073425
58	0xbc770a83	-0.01507819
59	0xbcd625cb	-0.026141068
60	0x3de5ae44	0.11214879
61	0x3db1024a	0.08643015
62	0xbd0457ec	-0.03231041
63	0xbe490c85	-0.19633682
64	0x3df2894f	0.11842596
65	0xbd721ef3	-0.059111547
66	0xbd73c820	-0.059517026
67	0xbc8a5c83	-0.016889816
68	0xbd95b4a2	-0.073098436
69	0x3c1fb644	0.009748045
70	0x3d892721	0.06696916
71	0xbd056179	-0.03256366
72	0xbd8dcda2	-0.06923987
73	0xbd997bf3	-0.074943446
74	0xbe20f6c4	-0.15719134
75	0x3ca0d4f3	0.019632792
76	0xbde36482	-0.11103155
77	0x3c5fa441	0.013650001
78	0xbd45a7a4	-0.048255578
79	0xbe7382f8	-0.2378043
80	0x3df54c6f	0.11977469
81	0xbdea1bdd	-0.11431096
82	0x3d76df11	0.060271326
83	0x3d856955	0.06514231
84	0xbd3aae5c	-0.04557644
85	0x3e167139	0.14691629
86	0x3daef5b2	0.085429564
87	0xbd804c6a	-0.06264575
88	0xbdd7cf66	-0.10537605
89	0xbd2ebdf8	-0.042661637
90	0x3d34a118	0.044098943
91	0xbda20fd5	-0.07913176
92	0x3cd98323	0.026551789
93	0xbccd3c9e	-0.025053319
94	0x3dda6847	0.106644206
95	0x3d35cdd4	0.044385746
96	0x3d329186	0.043595813
97	0x3c50ef26	0.01275233
98	0xbe45a60c	-0.19301623
99	0xbcc164f9	-0.023607718
100	0xbdb644b8	-0.08899826
101	0xbe05ea9a	-0.13077775
102	0xbe39a702	-0.18130115
103	0xbbcb63c3	-0.006206961
104	0x3d46f4a7	0.048573162
105	0xbd86aa06	-0.06575398
106	0x3d83d450	0.0643698
107	0xbe118b5b	-0.14213316
108	0x3d299e46	0.041410707
109	0x3d82f615	0.06394593
110	0x3ddc1441	0.107460506
111	0x3dfa0e05	0.12209705
112	0xbd6e4e20	-0.058179975
113	0x3d05443c	0.032535776
114	0xbd789b6c	-0.060695097
115	0x3e3fd75b	0.18734495
116	0xbdcb953a	-0.09940572
117	0x3e02210a	0.12707916
118	0xbddb0b86	-0.10695557
119	0x3db48ac5	0.08815531
120	0x3d46fcd7	0.04858097
121	0x3d2caa10	0.04215437
122	0xbc95b5f7	-0.018275244
123	0x3d7883df	0.060672637
124	0x3c9a3257	0.018822832
125	0xbe2247fb	-0.15847771
126	0xbe42d816	-0.19027743
127	0xbd0b8340	-0.034060717
128	0x3dfbbc9f	0.12291836
129	0xbda6f250	-0.08151686
130	0x3e4da89d	0.20083852
131	0xbde07b22	-0.10960986
132	0x3d0ce64f	0.034399327
133	0xbda4168d	-0.08012114
134	0xbd5ecbb3	-0.05439348
135	0x3c91eeea	0.017814118
136	0xbcd9dde5	-0.026595065
137	0x3d4f7075	0.050644357
138	0xbd1dabd8	-0.03849396
139	0xbe27194f	-0.16318248
140	0xbc25554b	-0.010091136
141	0xbe146d1c	-0.14494747
142	0x3d9fd57f	0.07804393
143	0x3dc99b77	0.09844106
144	0xbd56bd70	-0.052426755
145	0xbe1e17a6	-0.15438709
146	0xbd4ff6c2	-0.050772436
147	0x3be52305	0.0069927
148	0x3e471ba2	0.19444135
149	0x3e472af8	0.19449985
150	0xbdc6268b	-0.0967532
151	0x3c0a3756	0.008436045
152	0x3dd2fe05	0.10302357
153	0x3ca0b903	0.01961947
154	0x3d52c201	0.051454548
155	0x3e991b9a	0.2990387
156	0x3dfdb249	0.12387521
157	0x3da37635	0.079815306
158	0xbd044799	-0.032294843
159	0x3d397b16	0.0452834
160	0xbd1add4d	-0.037808705
161	0xbe392873	-0.18081836
162	0x3e326af5	0.17423613
163	0xbd6ac8ee	-0.057320528
164	0xbd414ff5	-0.047195394
165	0xbd9f3736	-0.077742025
166	0x3d21f00f	0.03953558
167	0x3cbd2ae7	0.023091746
168	0xbdfd4c07	-0.12368017
169	0x3e27f562	0.164022
170	0xbe4ace15	-0.19805177
171	0x3d557a90	0.052118838
172	0xbbb7b8a6	-0.0056067286
173	0xbd17f1fc	-0.03709601
174	0x3c2e9e2e	0.01065783
175	0xbd039326	-0.032122754
176	0x3e1d7da0	0.15379953
177	0x3de1a092	0.110169545
178	0x3d0e94e2	0.034809954
179	0x3cd04270	0.025422305
180	0x3dd49b82	0.10381223
181	0xbd5ee208	-0.05441478
182	0x3e215075	0.15753348
183	0x3ce9854a	0.02850594
184	0x3e7794c7	0.24177848
185	0xbe128000	-0.1430664
186	0xbdd395fa	-0.1033134
187	0x3d6d5e8d	0.0579515
188	0xbc917a5b	-0.017758539
189	0xbdb0fa70	-0.08641517
190	0x3d77cd9b	0.060498815
191	0xbe96542f	-0.29361102
192	0xbd94ea2d	-0.07271228
193	0xbd0a8266	-0.033815764
194	0x3beb2671	0.0071762134
195	0xbcdc95b9	-0.026926862
196	0x3d885475	0.06656734
197	0x3d4d3f00	0.05010891
198	0xbe04ea01	-0.1297989
199	0x3d30d993	0.043176245
200	0x3c8996d8	0.01679556
201	0xbe1336c9	-0.14376368
202	0x3e22f43f	0.15913485
203	0xbdeba34d	-0.115057565
204	0x3e2b7572	0.1674402
205	0x3d6fa2a6	0.058504723
206	0xbc22463d	-0.009904441
207	0x3e2ba0bf	0.16760539
208	0x3e026863	0.12735133
209	0xbd89ff8d	-0.067381956
210	0x3d831494	0.06400409
211	0x3dfc1b6b	0.12309917
212	0xbdc6b1ef	-0.09701907
213	0x3dc010cb	0.09378203
214	0xbd8670d8	-0.06564492
215	0x3dca975b	0.0989215
216	0x3dd26ee2	0.102750555
217	0x3d0f4bf1	0.034984533
218	0xbbba7383	-0.0056900396
219	0x3db0d1d2	0.0863377
220	0x3d3aca32	0.045602985
221	0xbc098f36	-0.008395961
222	0x3d6b7950	0.05748874
223	0xbd91dc28	-0.071220696
224	0xbdd36e6b	-0.10323795
225	0xbce4e537	-0.02794133
226	0xbd46f75f	-0.048575755
227	0x3da7c056	0.08190982
228	0x3dafb342	0.085791126
229	0xbbaf0c2c	-0.005342027
230	0xbd033247	-0.03203037
231	0x3d4bba3b	0.04973815
232	0x3d65904c	0.056045815
233	0xbe091bf8	-0.13389575
234	0x3da7a66d	0.0818604
235	0xbe133c19	-0.14378394
236	0x3dc15747	0.09440475
237	0xbe1c5607	-0.15267192
238	0x3d3c91b2	0.046037383
239	0x3d99f4f4	0.07517424
240	0x3c07f67e	0.008298514
241	0xbdaf1155	-0.08548228
242	0xbc1f85bb	-0.009736474
243	0xbe8bd73a	-0.27312642
244	0x3e737df3	0.23778515
245	0x3d15ab67	0.036540415
246	0xbd8f28f2	-0.069902316
247	0x3e2f23f5	0.1710356
248	0xbdb8505d	-0.08999703
249	0xbd782f7f	-0.06059217
250	0xbd702c63	-0.05863608
251	0x3cc27b58	0.023740456
252	0xbdd47be8	-0.10375196
253	0xbdcf3a1c	-0.10118505
254	0x3d59f7c1	0.053214792
255	0xbd2373cd	-0.039905358

encoder_z0.GRU_update.reset_gate.0.bias f4 [100]
0	0xbc900d80	-0.017584562
1	0xbd3d1abc	-0.046168074
2	0x3ce3fdf3	0.027831053
3	0x3ca3df1a	0.020003844
4	0x396faa66	0.00022856295
5	0x3aeffe42	0.0018310028
6	0xbcfc468d	-0.03079536
7	0xbd0321d1	-0.03201467
8	0x3d4365e2	0.047704585
9	0xbcaf9ab3	-0.021436071
10	0x3c632669	0.013864138
11	0x3d32e102	0.043671615
12	0xbcc9e75b	-0.024646452
13	0x3d8117aa	0.06303342
14	0xbd3380c0	-0.043823957
15	0x3bc14790	0.0058984235
16	0xbb1bdf26	-0.002378413
17	0x3d1716f3	0.03688712
18	0x3d1d0dbc	0.038343176
19	0x3cbf4449	0.02334799
20	0xbca111a5	-0.019661734
21	0x3c635cc5	0.013877098
22	0xbd3738ae	-0.04473179
23	0xbb4432e7	-0.0029937567
24	0x3c3b6a71	0.011438952
25	0x3ca4966a	0.020091254
26	0x3cb487f3	0.022037482
27	0x3bee1d9a	0.0072667124
28	0xbd270db3	-0.04078455
29	0xbafc4780	-0.0019247383
30	0xbbf00b8e	-0.007325596
31	0x3d818873	0.06324854
32	0x3d1e2c31	0.038616363
33	0xbc001db0	-0.007819578
34	0x3d56b738	0.052420825
35	0xbd30c092	-0.0431524
36	0xbcbaadb0	-0.022787899
37	0xbbed6410	-0.0072445944
38	0x3c789873	0.0151730655
39	0xbc556ad0	-0.013025954
40	0xbd06378b	-0.032767814
41	0xbc411859	-0.01178559
42	0x3c753074	0.014965165
43	0x3d2aa026	0.041656636
44	0x3d1800b0	0.03711003
45	0x3d3779fd	0.04479407
46	0x3cf417d5	0.02979652
47	0xbb466feb	-0.003027911
48	0x3d542961	0.051797275
49	0x3d0c8095	0.034302313
50	0x3bd51716	0.006502996
51	0x3bd0473e	0.006356149
52	0x3b584ea4	0.0033005858
53	0x3d22e393	0.039767813
54	0xbc8adb21	-0.016950192
55	0x3d2eda70	0.042688787
56	0xbd0e7a6f	-0.03478473
57	0xbce270e9	-0.02764173
58	0x3c665db3	0.014060426
59	0xbc6c9400	-0.014439583
60	0xbc509025	-0.012729679
61	0x3cafaf45	0.02144588
62	0xbc669be6	-0.014075255
63	0x3cb96796	0.022632401
64	0x3b66adc1	0.003519878
65	0x3cf7c928	0.030247286
66	0x3cd93b5c	0.026517563
67	0x3c35bd12	0.011092441
68	0x3cd53eb5	0.026030878
69	0xbce2b166	-0.02767248
70	0xbc95f156	-0.018303555
71	0x3db47f33	0.08813324
72	0x3d51fbba	0.051265456
73	0xbcea9e23	-0.028639859
74	0x3d5311a5	0.0515305
75	0x3cc65e66	0.024214935
76	0x3c8f0636	0.017459016
77	0xbb2523bc	-0.0025198301
78	0xbae28c02	-0.0017284157
79	0xbce068c3	-0.027393704
80	0xbd20b773	-0.03923745
81	0x3b7ece16	0.003888016
82	0x3c541e4b	0.0129466755
83	0x3cc31da7	0.02381785
84	0xbd0413c5	-0.032245416
85	0x3c9514cd	0.018198395
86	0xbc86e214	-0.016465224
87	0xbcb513b2	-0.022104118
88	0x3d25f214	0.040514067
89	0xbd754789	-0.059882674
90	0xbcd1af52	-0.025596295
91	0x3be2031f	0.0068973447
92	0x3cf3b3ba	0.029748786
93	0x3c8e27d6	0.01735298
94	0x3ba40a20	0.00500609
95	0xbc70cd2d	-0.014697355
96	0x3d1e2cdb	0.038616996
97	0xbcd6478e	-0.026157167
98	0xbc71562c	-0.014730018
99	0xbc4202b3	-0.011841464

encoder_z0.GRU_update.reset_gate.2.weight f4 [20, 100]
0	0x3e070bb1	0.13188054
1	0xbe0913ac	-0.1338641
2	0x3d5ee8e8	0.054421335
3	0xbc9b86cd	-0.018985176
4	0x3da79626	0.081829354
5	0xbe7fd5a8	-0.24983847
6	0xbdde9dc7	-0.108699374
7	0x3bac1dc9	0.005252574
8	0x3cb99102	0.022652153
9	0xbd05d870	-0.032677114
10	0x3cea8b61	0.028630914
11	0x3d1f8a53	0.038950276
12	0xbbe22289	-0.0069010896
13	0x3e5767ab	0.2103564
14	0xbe10bc28	-0.14134276
15	0xbdb11b2b	-0.0864776
16	0xbd3f54df	-0.0467118
17	0x3d80da62	0.06291653
18	0xbe33f6a8	-0.1757456
19	0x3e294306	0.16529474
20	0x3ca831ff	0.020531652
21	0x3d2702d5	0.040774185
22	0x3d5d382e	0.054008655
23	0xbca2e72b	-0.01988562
24	0x3de90f20	0.11379838
25	0x3d83719e	0.06418155
26	0x3dd9609e	0.106141314
27	0xbcb184c8	-0.02166976
28	0xbe0f22a2	-0.13978055
29	0x3e00853d	0.12550826
30	0xbcd00ec4	-0.025397666
31	0x3c3846ae	0.01124732
32	0x3e0f9bd0	0.14024282
33	0xbd898764	-0.06715277
34	0xbbcb63ca	-0.006206964
35	0x3caf9443	0.021433001
36	0x3d9798fa	0.07402225
37	0xbe4697b8	-0.19393814
38	0x3d599238	0.05311796
39	0x3da7f3b3	0.08200779
40	0x3d92eeb4	0.07174435
41	0xbe371853	-0.17880373
42	0x3e8312ce	0.25600284
43	0x3dc50e09	0.096218176
44	0xbcb1fc4d	-0.021726752
45	0x3d37399f	0.044732686
46	0x3d5a3799	0.05327568
47	0xbda400b3	-0.08007946
48	0x3dd8b784	0.10581878
49	0x3e240a7a	0.16019621
50	0x3deb7b7f	0.114981644
51	0xbccb6298	-0.024827287
52	0xbe05a2e7	-0.13050424
53	0x3e8a1b90	0.26974154
54	0xbe55867a	-0.2085208
55	0xbe098c57	-0.13432442
56	0x3c9ff123	0.019524163
57	0xbca1b6f1	-0.019740554
58	0xbcb76c68	-0.02239056
59	0xbcbcac2a	-0.023031313
60	0x3bf898f0	0.007586591
61	0x3d994d3d	0.07485435
62	0xbd873390	-0.06601632
63	0xbd1d7814	-0.038444594
64	0x3dbc76f3	0.09202375
65	0xbd80a17c	-0.06280801
66	0x3d89cf16	0.06728952
67	0x3e4a454c	0.19752997
68	0xbd5116f5	-0.051047284
69	0x3e3585ea	0.17726865
70	0xbd881fef	-0.06646716
71	0x3dd8f5dd	0.1059377
72	0xbdac847e	-0.084237084
73	0x3dfbe883	0.123002075
74	0x3e5bbe30	0.2145927
75	0x3e9a9324	0.30190384
76	0x3daf17da	0.08549471
77	0x3df1a482	0.117989555
78	0x3b4de876	0.0031419075
79	0xbdfc430a	-0.12317474
80	0xbd07cfed	-0.033157278
81	0xbd7a74a9	-0.061146412
82	0x3dd6307b	0.10458466
83	0xbace20a9	-0.0015726286
84	0x3c8fa4a4	0.017534561
85	0xbb76d215	-0.003766184
86	0xbe33a392	-0.17542866
87	0xbd6bce16	-0.057569586
88	0xbc5da742	-0.013528647
89	0xbdc29de5	-0.09502772
90	0xbdad2be0	-0.08455634
91	0x3ada99d4	0.0016677924
92	0x3d599534	0.053120807
93	0xbd828aa9	-0.063741036
94	0xbdc33cd7	-0.09533089
95	0x3da81bde	0.0820844
96	0x3b8c45a9	0.004280765
97	0x3d5a0158	0.053223938
98	0xbde323f3	-0.11090841
99	0x3d029c0d	0.031887103
100	0x3dc1bff7	0.094604425
101	0x3d7bbb6f	0.061458047
102	0xbdfe8cb5	-0.124291815
103	0xbdd9798d	-0.10618887
104	0x3d82c161	0.0638454
105	0x3d82dd9e	0.063899264
106	0x3e6f6bc5	0.23380955
107	0x3d49a9d2	0.04923422
108	0xbcbff356	-0.023431461
109	0x3d361d94	0.0444618
110	0xbb6a23b5	-0.003572685
111	0x3d7ff6dc	0.062491283
112	0x3d5d7abf	0.054072138
113	0xbe075ca9	-0.13218941
114	0xbe34422e	-0.1760337
115	0xbcb53745	-0.022121081
116	0x3d949d74	0.07256594
117	0xbda19ea4	-0.078915864
118	0x3c8aa21f	0.016923008
119	0x3d2ab35c	0.041674957
120	0x3dd55276	0.10416119
121	0xbdafd36a	-0.08585246
122	0x3d25cacf	0.040476616
123	0xbc9a7bc2	-0.01885784
124	0xbdc229a4	-0.094805986
125	0x3d362eaf	0.044478115
126	0xbd4fe534	-0.050755695
127	0x3e023728	0.12716353
128	0xbd85be70	-0.06530464
129	0xbca487a9	-0.020084219
130	0xbe93dfc5	-0.2888166
131	0xbd4c739a	-0.049914934
132	0xbe03e052	-0.1287854
133	0xbe119f92	-0.14221027
134	0xbd0c8bbe	-0.034312956
135	0xbe297171	-0.1654718
136	0x3cc09975	0.023510674
137	0xbd01169b	-0.0315157
138	0x3c622f02	0.013805153
139	0x3df188f1	0.117936976
140	0xbdebe5be	-0.11518429
141	0x3b73bed3	0.0037192598
142	0xbe4496fd	-0.19198222
143	0x3e1274ee	0.14302418
144	0x3bd6b983	0.0065528764
145	0xbcff49d0	-0.031163126
146	0xbe0c6885	-0.13711746
147	0x3cc73e4f	0.024321703
148	0x3db358b3	0.087571524
149	0xbe070026	-0.1318365
150	0xbcdd803d	-0.027038688
151	0xbd79e67c	-0.061010823
152	0x3d2478ac	0.040154144
153	0xbbcfe0ff	-0.0063439603
154	0xbe41f1ef	-0.18939947
155	0xbd369329	-0.044573937
156	0xbd74f796	-0.05980643
157	0xbd42330a	-0.047411956
158	0xbe3b44f2	-0.1828802
159	0xbd933544	-0.07187894
160	0x3db6767a	0.08909316
161	0x3e01fdc3	0.12694459
162	0xbdc53e9c	-0.096310824
163	0x3e1f3adc	0.15549797
164	0x3e0dc290	0.13843751
165	0xbe3aeff7	-0.18255602
166	0xbd7b7b13	-0.06139667
167	0xbd96391f	-0.07335114
168	0xbca6c05c	-0.020355396
169	0xbc4d8601	-0.012544156
170	0xbda19551	-0.07889808
171	0xbc920f2a	-0.017829496
172	0x3d89c4d4	0.06726995
173	0x3c321409	0.010869035
174	0x3c71a7e2	0.014749499
175	0xbdfdbfc8	-0.12390095
176	0xbd1e3407	-0.038623836
177	0x3e1aa2d9	0.15101184
178	0x3d145abe	0.03621935
179	0x3da70497	0.08155172
180	0x3e023852	0.12716797
181	0x3d3b6369	0.0457491
182	0xbc14d115	-0.009083052
183	0x3d267409	0.040638003
184	0x3d61b50b	0.055104297
185	0xbc900a74	-0.01758311
186	0x3e581ba5	0.21104296
187	0xbd9e28cc	-0.07722625
188	0x3da72444	0.08161214
189	0x3d422dc1	0.047406916
190	0xbcb4f19c	-0.022087865
191	0xbcb1948d	-0.02167728
192	0xbe09bdb0	-0.13451266
193	0x3d803c7d	0.06261537
194	0xbd30b9eb	-0.043146055
195	0xbd744041	-0.05963159
196	0x3d877e9c	0.06615946
197	0xbe21cfe6	-0.15801963
198	0xbdb08daa	-0.0862077
199	0xbd2f70a1	-0.04283202
200	0x3c4c39f6	0.012464991
201	0x3d8f3753	0.06992974
202	0x3dd53249	0.10409982
203	0x3db7158a	0.08939655
204	0xbdd774b1	-0.10520304
205	0x3d825b36	0.06365053
206	0x3e4761a2	0.19470838
207	0xbdc6a03f	-0.09698533
208	0xbdc24ba2	-0.09487082
209	0x3d4a43d5	0.049381096
210	0xba5a86c5	-0.0008336122
211	0xbd23e0fd	-0.040009487
212	0x3d1ee05b	0.03878818
213	0x3d538c23	0.051647317
214	0x3dfde2eb	0.12396797
215	0xbdfc2979	-0.12312598
216	0xbc3b6d7b	-0.011439676
217	0xbde95ba0	-0.11394429
218	0xbcbaa927	-0.022785736
219	0x3cafbe8e	0.021453168
220	0xbe04896d	-0.12943049
221	0x3d07de50	0.033170998
222	0x3e0510d7	0.12994705
223	0xbe12a93a	-0.14322367
224	0x3d828976	0.06373875
225	0xbe0a11b3	-0.13483314
226	0xbdd723b0	-0.10504854
227	0xbd0f720c	-0.035020873
228	0x3e5eeec8	0.21770775
229	0xbdbe1958	-0.09282178
230	0x3dd08c26	0.10182981
231	0xbe2d0348	-0.16895783
232	0xbe32d1a5	-0.17462786
233	0x3b84dc40	0.004054576
234	0xbe4622b4	-0.19349176
235	0xbd0a17ae	-0.03371399
236	0xbc246996	-0.010034939
237	0xbce707bf	-0.028201936
238	0x3d92197b	0.07133766
239	0x3d63ffa9	0.05566374
240	0xbe403220	-0.18769121
241	0x3be3e4d7	0.00695477
242	0xbe43d763	-0.19125132
243	0x3cba6b83	0.022756344
244	0x3e23ca2c	0.15995091
245	0xbcab6974	-0.020924307
246	0x3c93caec	0.018041097
247	0x3df9414c	0.121706575
248	0xbd9fc051	-0.07800353
249	0xbdb91337	-0.09036868
250	0x3db22580	0.08698559
251	0xbd140863	-0.03614081
252	0x3d5851a2	0.052812226
253	0xbe15a356	-0.14613089
254	0xbd21d05a	-0.03950534
255	0x3c545ac6	0.012961095

encoder_z0.GRU_update.reset_gate.2.bias f4 [20]
0	0x3d10bab8	0.03533432
1	0xbc0fdaa2	-0.0087801535
2	0xbcd493af	-0.025949327
3	0xbc9da4d9	-0.019243645
4	0x39836cbe	0.00025067286
5	0xbd148197	-0.0362564
6	0xbd4dd1dd	-0.05024897
7	0x3cf99c24	0.030469961
8	0x3cbd49a7	0.02310641
9	0x3d4ccac0	0.049998045
10	0xbd59a208	-0.05313304
11	0xbcfd27c6	-0.030902755
12	0x3cbd32d0	0.023095518
13	0xbd68f4b0	-0.056873977
14	0xbc00d8dc	-0.007864203
15	0x3d49395c	0.049126968
16	0x3d1f096a	0.038827337
17	0xbcaff726	-0.021480154
18	0xbb09c578	-0.0021022242
19	0xbc96053b	-0.018313041

encoder_z0.GRU_update.new_state_net.0.weight f4 [100, 42]
0	0x3dd51c3c	0.10405776
1	0xbcf94bd7	-0.030431671
2	0xbd5bd835	-0.053672988
3	0x3e503a44	0.20334727
4	0xbceeaa6f	-0.029134003
5	0x3dcca1a2	0.099917665
6	0x3d580c10	0.05274588
7	0xbc6a2d38	-0.014293008
8	0x3d76db79	0.0602679
9	0x3e01463a	0.12624446
10	0xbd96d5fd	-0.07365034
11	0xbd404b58	-0.046946853
12	0xbdf8d269	-0.121495076
13	0xbdd79685	-0.10526756
14	0xbe11d646	-0.14241895
15	0xbdef751a	-0.11692257
16	0xbcba0a11	-0.022709878
17	0x3c8b71af	0.017021982
18	0xbd92d048	-0.07168633
19	0xbbb248c5	-0.0054408037
20	0x3e0baba3	0.13639693
21	0xbd9d9db6	-0.076960966
22	0xbd3b11ca	-0.04567126
23	0xbe44dd7f	-0.19225119
24	0xbe95c02f	-0.29248187
25	0x3dd1e675	0.10249034
26	0x3dcd5da5	0.10027627
27	0x3e0e88e6	0.1391941
28	0x3bc19b9d	0.005908443
29	0x3ca4b961	0.020107927
30	0xbd831b7a	-0.06401725
31	0x3dd7b6de	0.10532926
32	0x3c9aafb8	0.018882617
33	0xbe71d9d3	-0.2361825
34	0x3d2d2896	0.042275034
35	0x3d08ce25	0.03339972
36	0x3dd63c4e	0.10460721
37	0x3e300a69	0.17191471
38	0x3dc8f6c9	0.098126955
39	0x3ded7c0b	0.11595925
40	0xbe82b4cb	-0.2552856
41	0x3e0a903c	0.13531584
42	0x3d75fe0e	0.06005674
43	0xbdeefd42	-0.11669399
44	0xbd9df859	-0.07713384
45	0xbc0bd790	-0.008535281
46	0x3e15b321	0.14619114
47	0xbe0dcf7b	-0.13848679
48	0xbe268e55	-0.16265233
49	0x3c8873b2	0.01665673
50	0x3da695d9	0.0813405
51	0x3c14e4f4	0.00908779
52	0x3d3861e0	0.045015216
53	0x3d8e3c88	0.06945139
54	0xbda7aebd	-0.081876256
55	0xbdc855d2	-0.09781994
56	0x3c05e68c	0.008172642
57	0xbd179322	-0.03700555
58	0xbd84e58b	-0.06489094
59	0x3e21d31f	0.15803193
60	0x3c332aef	0.010935529
61	0xbd5622e2	-0.05227936
62	0xbdb3dd28	-0.087824166
63	0x3d33ec36	0.04392644
64	0xbbdfae19	-0.006826174
65	0x3d2d7cdc	0.042355403
66	0x3c42de8a	0.011893878
67	0xbd07eab0	-0.0331828
68	0x3de70614	0.11280456
69	0x3e926dfe	0.28599542
70	0xbd9df828	-0.07713348
71	0x3d96f705	0.07371334
72	0x3d91407c	0.070923775
73	0x3dea9f90	0.114562154
74	0x3c86d16d	0.016457284
75	0xbda34b5c	-0.07973358
76	0x3e2e9b51	0.17051436
77	0x3e274520	0.16334963
78	0x3d8a973a	0.067671254
79	0xbc8232cc	-0.015893362
80	0x3e16cfca	0.14727703
81	0x3dc1df8b	0.094664656
82	0x3ddacc15	0.10683457
83	0x3dc495b9	0.0959887
84	0xbda8a7f9	-0.08235163
85	0x3ce59b3b	0.028028121
86	0xbae01507	-0.001709611
87	0xbd40b96c	-0.047051832
88	0xbca1ef4b	-0.019767424
89	0x3e01513e	0.12628648
90	0xbe0da48e	-0.13832304
91	0x3e2e5e41	0.17028143
92	0xbda3453c	-0.0797219
93	0xbe015bd2	-0.12632683
94	0x3d318859	0.043342922
95	0x3e3c3c14	0.18382293
96	0xbd986336	-0.07440798
97	0x3cf0e61c	0.0294066
98	0xbdcdc531	-0.10047377
99	0xbe426443	-0.1898356
100	0x3d67ae46	0.056562684
101	0xbdc8fce6	-0.098138615
102	0x3d6a1bfd	0.057155598
103	0x3df394b7	0.118935995
104	0x3e6fc8e3	0.23416476
105	0x3df56388	0.11981875
106	0x3ca87621	0.02056414
107	0xbc014937	-0.007890991
108	0x3e266d72	0.16252688
109	0xbdc2a9e5	-0.09505061
110	0x3e14b458	0.1452192
111	0x3e34b300	0.17646408
112	0x3d6f4642	0.058416612
113	0x3e058059	0.13037242
114	0x3d46ab17	0.048503008
115	0xbc0c3c58	-0.008559309
116	0x3dc2efd0	0.09518397
117	0x3e5b1dba	0.21398059
118	0xbd88cbe2	-0.066795126
119	0xbced4870	-0.028965205
120	0x3bc686f3	0.0060585677
121	0xbc7b9b82	-0.0153569
122	0xbd2b7da6	-0.041867875
123	0x3e07a5c1	0.13246824
124	0xbde03099	-0.10946769
125	0xbe845e67	-0.25853273
126	0xbdf0a321	-0.11749864
127	0x3d2a03e4	0.041507617
128	0xbe0a5293	-0.13508062
129	0xbd7eed96	-0.0622383
130	0xbcc9d3fd	-0.024637217
131	0xbe1ac9a4	-0.15115982
132	0x3db66cb2	0.08907451
133	0x3c663283	0.014050129
134	0x3d33de28	0.043913037
135	0x391cc3b7	0.00014950229
136	0xbd5496c8	-0.05190161
137	0x3e2d292e	0.1691024
138	0x3d86ad44	0.065760165
139	0x3da59879	0.080857225
140	0xbcb40250	-0.021973759
141	0x3df17995	0.11790768
142	0x3e261bb3	0.16221504
143	0x3b9d83a6	0.0048069535
144	0xbb34df7e	-0.0027599032
145	0xbcc3a705	-0.023883352
146	0x3c138698	0.009004258
147	0xbe4a7134	-0.19769746
148	0xbd517fa8	-0.051147133
149	0x3d117717	0.035513964
150	0x3d8d09a4	0.068866044
151	0x3d3c3adf	0.04595458
152	0xbe213122	-0.15741399
153	0x3d016d7b	0.03159855
154	0xbe015960	-0.1263175
155	0x3d051ad0	0.032496274
156	0xbdab9805	-0.08378605
157	0x3d017aba	0.03161118
158	0xbe6f20b7	-0.23352323
159	0x3dae1ce3	0.085016035
160	0xbcddbb5c	-0.027066879
161	0xbe9a976a	-0.30193645
162	0x3e8975c7	0.2684767
163	0x3d76f559	0.060292576
164	0xbdf3ac62	-0.11898114
165	0xbb8f3119	-0.0043698666
166	0x3cac28bd	0.02101552
167	0x3de64d55	0.11245219
168	0xb9c62173	-0.00037790425
169	0xbe22135d	-0.15827699
170	0xbe00677c	-0.12539476
171	0xbe204966	-0.15653
172	0x3da43a11	0.08018888
173	0xbd870f45	-0.06594709
174	0x3e2bd673	0.16781025
175	0xbe82d500	-0.2555313
176	0x3df1c040	0.11804247
177	0x3dd1493c	0.102190465
178	0xbdd7ab4b	-0.105307184
179	0xbdce882e	-0.10084568
180	0x3e255cac	0.16148633
181	0xbbd22d8a	-0.00641412
182	0x3da1bac7	0.07896953
183	0x3d09ea07	0.03367045
184	0x3e6cf22d	0.23139258
185	0x3e27f006	0.16400155
186	0xbcc94fb1	-0.024574133
187	0xbd398c8d	-0.045300055
188	0xbd12d48c	-0.03584723
189	0xbdf03c8f	-0.11730301
190	0xbe0d3916	-0.13791308
191	0x3c5f1a3e	0.0136170965
192	0xbd324aa1	-0.043528203
193	0xbde9f398	-0.11423415
194	0xbd52f5c0	-0.051503897
195	0xbc46fdc2	-0.0121454615
196	0x3cf95d86	0.030440103
197	0xbde6fe49	-0.1127897
198	0xbd8823a2	-0.066474214
199	0x3dc594c7	0.09647518
200	0x3d33afc5	0.0438688
201	0x3d367378	0.044543713
202	0xbd7c57f0	-0.0616073
203	0xbccd78bb	-0.025081983
204	0xbdc883f4	-0.09790793
205	0xbdb51f8b	-0.08843907
206	0xbd858962	-0.06520344
207	0x3c878d42	0.01654685
208	0xbd1c6895	-0.038185675
209	0x3cb9f5d0	0.02270022
210	0xbdb3c0e1	-0.08777023
211	0xbca9f47f	-0.020746468
212	0x3d70470c	0.058661506
213	0xbe0c8fe3	-0.13726763
214	0xbdf33122	-0.11874606
215	0x3d69541b	0.056964975
216	0x3d8ee395	0.069770016
217	0xbe10f0d3	-0.14154367
218	0xbc8008af	-0.01562914
219	0x3cd6f529	0.026239948
220	0xbd8b6c6b	-0.068077885
221	0xbe03804d	-0.12841912
222	0xbdf73767	-0.12071114
223	0x3dde2291	0.10846437
224	0xbbaaa67c	-0.0052078348
225	0xbd10659d	-0.035253156
226	0xbe1c5ac6	-0.15269002
227	0xbda483b1	-0.08032931
228	0xbdce33db	-0.100684844
229	0xbe75b4f5	-0.23994811
230	0xbd31454c	-0.043278977
231	0x3dc8b7d5	0.09800688
232	0x3d267600	0.040639877
233	0x3d2c20da	0.042023517
234	0xbe36e260	-0.17859793
235	0xbe35b795	-0.17745812
236	0xbd7f9428	-0.062397152
237	0xbdb99a81	-0.090626724
238	0x3e073b16	0.13206133
239	0x3d7dfa9f	0.06200659
240	0xbe5088c0	-0.20364666
241	0x3e182627	0.14858304
242	0xbe7daa90	-0.24772096
243	0xbcab7b19	-0.020932721
244	0xbd79baf1	-0.060969297
245	0xbd954381	-0.07288266
246	0x3dd7d7d3	0.10539212
247	0x3cc12b89	0.02358033
248	0xbd33066a	-0.04370729
249	0xbe4bf323	-0.19916968
250	0xbdb375b8	-0.087626874
251	0x3581b57c	9.664068e-07
252	0xbd142852	-0.036171265
253	0x3e26497f	0.16238974
254	0x3e10a838	0.1412667
255	0xbdac4af6	-0.08412735

encoder_z0.GRU_update.new_state_net.0.bias f4 [100]
0	0xbaf3bdd6	-0.0018596004
1	0x3da2c59e	0.07947849
2	0x3d03dc9a	0.032192804
3	0xbc40d3a9	-0.011769214
4	0xbd18712e	-0.03721731
5	0xbc673482	-0.01411164
6	0xbc3e8412	-0.011628168
7	0xbcf7fe26	-0.030272555
8	0xbc8eee30	-0.017447561
9	0xbc2feaa7	-0.010737098
10	0xbd7d3d84	-0.061826244
11	0x3d660f86	0.056167148
12	0xbd55376b	-0.052054804
13	0x3b58db4e	0.00330897
14	0x3d576570	0.052586973
15	0x3cee47a1	0.02908689
16	0xba98cfb0	-0.0011658575
17	0xbc6c4865	-0.014421557
18	0xbcbf6e0f	-0.02336791
19	0xbd5071b4	-0.050889686
20	0x3ca023ff	0.019548414
21	0xbd635a97	-0.055506315
22	0x3d24a393	0.04019506
23	0xbd9aa9a8	-0.075518906
24	0xbb5abf57	-0.0033378208
25	0xbc18cab2	-0.00932567
26	0xbd12d2f0	-0.035845697
27	0xbc96f376	-0.018426638
28	0x3d1c4522	0.038151868
29	0x3ba04f38	0.004892256
30	0x3cab8bc5	0.02094067
31	0x3ca3e745	0.020007739
32	0xbcb13760	-0.02163285
33	0x3d6e7e0a	0.05822567
34	0x3d9e3348	0.07724625
35	0xbbb57a4b	-0.00553826
36	0xbc7f1200	-0.015568256
37	0xbc4eb59b	-0.01261654
38	0x3bb382c8	0.005478237
39	0x3d30bf19	0.043150995
40	0xbc81bee7	-0.0158381
41	0xbc18a744	-0.009317223
42	0xbb8f3768	-0.0043706186
43	0x3c52b1d8	0.012859784
44	0x3c70f0ec	0.014705878
45	0x3c90037d	0.017579788
46	0xbcc8bb6f	-0.024503438
47	0xbd003578	-0.03130099
48	0x3c356951	0.011072473
49	0x3ca43883	0.020046478
50	0xbcf05a61	-0.029339971
51	0xbc55a551	-0.013039903
52	0x3d2d2079	0.042267296
53	0x3d1d0ee5	0.038344283
54	0xbd622986	-0.05521538
55	0xbd47b188	-0.04875329
56	0x3ca893bd	0.02057826
57	0xbc434153	-0.01191743
58	0x3c46161c	0.012090232
59	0x3be03afd	0.0068429695
60	0xbccef6a2	-0.025264088
61	0x3c26c76b	0.010179381
62	0xbc9d4401	-0.019197466
63	0xbd4d9534	-0.05019112
64	0xbd4fe12e	-0.050751857
65	0x3cf64cca	0.030065913
66	0xbd829d64	-0.06377676
67	0x3b2416ba	0.002503796
68	0xbbc6edfd	-0.006070851
69	0xbd0b0cbc	-0.03394769
70	0xbcd89de7	-0.026442481
71	0xbcd59563	-0.02607221
72	0xbd1d7924	-0.038445607
73	0x3cc5f379	0.024163948
74	0x3b6378be	0.003470942
75	0xbcbefb89	-0.0233133
76	0xbbbc379a	-0.005743933
77	0x3c549f26	0.012977397
78	0x3ce0cbbf	0.027440904
79	0x3d75c6e1	0.06000412
80	0xbd8d24b4	-0.06891766
81	0xbb096a1b	-0.0020967785
82	0xbb196284	-0.0023404667
83	0x3d8c5ecf	0.06854021
84	0x3c518905	0.012789016
85	0x3d86ea2d	0.06587634
86	0x3c7b1b9a	0.015326405
87	0xbc48b604	-0.012250427
88	0xbc32be67	-0.010909653
89	0x3bf39f64	0.0074347723
90	0x3d6e0f42	0.05812002
91	0xbcb2c072	-0.02182028
92	0x3d8cf697	0.06882971
93	0x3d4531cf	0.048143204
94	0x3d41645b	0.047214847
95	0x3ca7fa5c	0.020505123
96	0x3d886372	0.06659593
97	0xbc9ffa94	-0.019528665
98	0xbc037df9	-0.00802564
99	0x3d33cd2b	0.043896835

encoder_z0.GRU_update.new_state_net.2.weight f4 [40, 100]
0	0xbe64ed3e	-0.22356126
1	0x3e554354	0.20826465
2	0xbda7e4f9	-0.0819797
3	0xbd4120d8	-0.047150463
4	0xbdeec090	-0.11657822
5	0xbd6f4fa7	-0.05842557
6	0xbd33590e	-0.0437861
7	0x3ad1881f	0.0015986002
8	0x3dd6bde2	0.10485436
9	0x3c742dbe	0.014903484
10	0xbe2c472d	-0.16824026
11	0x3e361238	0.17780387
12	0x3c98f077	0.01866935
13	0xbe462328	-0.19349349
14	0x3e3a927f	0.18219946
15	0x3e8081a2	0.25098902
16	0xbcaed81e	-0.021343287
17	0x3e0ddff7	0.13854967
18	0xbd814999	-0.06312866
19	0xbe7a03b0	-0.24415469
20	0x3cdd3699	0.027003573
21	0xbe2ea029	-0.17053284
22	0xbbcb13a3	-0.0061974092
23	0xbb549693	-0.0032438382
24	0xbd13ea78	-0.03611228
25	0x3decbe34	0.11559716
26	0xbd303b4d	-0.043025304
27	0xbdfae1cd	-0.12250099
28	0x3df98e86	0.12185387
29	0x3d2dafa3	0.04240383
30	0x3c2ed336	0.010670474
31	0xbd311515	-0.043232996
32	0xbc092762	-0.008371206
33	0xbd9693a5	-0.0735238
34	0xbe229ffb	-0.1588134
35	0x3d2b676d	0.04184668
36	0xbd555cb4	-0.05209036
37	0xbd3ab3a0	-0.04558146
38	0x3e17835c	0.14796203
39	0x3d2f6d68	0.042828947
40	0xbbc96b65	-0.0061468356
41	0x3e670d18	0.22563589
42	0x3bf5f641	0.0075061624
43	0x3c844918	0.016148135
44	0xbd3e9153	-0.04652531
45	0x3de2cbb0	0.110740066
46	0x3d0b8127	0.034058716
47	0xbe00c993	-0.12576894
48	0x3e0a893f	0.13528918
49	0xbd6fb5e3	-0.05852307
50	0xbd42cbfe	-0.047557823
51	0x3b2a6e50	0.0026005693
52	0x3d147e35	0.036253173
53	0x3dd0083a	0.10157819
54	0xbd2507b9	-0.040290568
55	0xbb1d3535	-0.0023988013
56	0x3d36859d	0.044561017
57	0x3b081275	0.0020762954
58	0xbd26dedc	-0.04073988
59	0x3cb03c7b	0.021513214
60	0xbda4f286	-0.0805407
61	0x3d347c25	0.044063706
62	0x3dcd5d19	0.100275226
63	0xbd0a86e7	-0.03382006
64	0x3cb2b802	0.021816257
65	0x3dc3dd1e	0.09563659
66	0xbdf0a2f3	-0.1174983
67	0x3d8ba361	0.068182714
68	0x3d070426	0.03296294
69	0xbe128918	-0.1431011
70	0x3d9ac716	0.07557504
71	0xbe2e996f	-0.17050718
72	0xbd084ba9	-0.03327528
73	0x399dde9f	0.0003011124
74	0x3d188fef	0.03724664
75	0xbeb37bbf	-0.35055348
76	0xbc937513	-0.018000161
77	0x3dd404e7	0.103524975
78	0x3d99de74	0.07513133
79	0x3dfbdde4	0.12298182
80	0xbe28e164	-0.1649223
81	0x3b5f70fb	0.0034094441
82	0xbd949ec7	-0.07256847
83	0x3d013b1c	0.03155051
84	0xbe0031f6	-0.12519059
85	0xbc517606	-0.012784487
86	0x3de4d85f	0.11174082
87	0xbda9e3f7	-0.08295434
88	0x3e172ec1	0.14763929
89	0x3c137363	0.008999678
90	0xbc0b512d	-0.0085032405
91	0x3c23b688	0.009992249
92	0x3dcfd16e	0.101473674
93	0x3dca5b15	0.09880654
94	0x3d8bdc98	0.06829184
95	0xbdb9114b	-0.090365015
96	0x3c925c48	0.017866269
97	0x3df635e6	0.12021999
98	0x3daf253b	0.08552023
99	0x3e04d7f1	0.12973
100	0x3d000b5b	0.03126083
101	0x3d9c0b73	0.07619371
102	0x3a1be3c5	0.0005946721
103	0xbd9ceb4c	-0.07662067
104	0x3d87086c	0.06593403
105	0x3d25a0d9	0.0404366
106	0xbca22523	-0.019793099
107	0x3b490847	0.00306751
108	0xbd0d33f6	-0.034473382
109	0xbda08a57	-0.07838886
110	0x3b1b2ce3	0.0023677878
111	0xbd589c93	-0.052883696
112	0x3d1d0509	0.03833488
113	0x3c6ebafb	0.014570947
114	0xbe7e7340	-0.24848652
115	0xbe2a308e	-0.16620085
116	0xbd1da287	-0.038485076
117	0x3deff5d6	0.11716811
118	0xbdefd9e9	-0.11711485
119	0x3dc9bd4e	0.0985056
120	0xbcfaea04	-0.030629165
121	0x3d653896	0.055962168
122	0x3d7c72f2	0.061633058
123	0x3e020048	0.1269542
124	0x3c80119f	0.015633402
125	0x3d18ad29	0.037274513
126	0xbd5ad470	-0.053425252
127	0x3c404d7f	0.0117372265
128	0xbd8ba714	-0.06818977
129	0xbcd60d60	-0.026129425
130	0xbbb16606	-0.0054137735
131	0xbc8fe7ad	-0.017566526
132	0x3d6bf130	0.05760306
133	0x3e02cd53	0.12773637
134	0x3c581989	0.013189682
135	0xbd08643a	-0.03329871
136	0x3e13c6be	0.14431283
137	0xbc45ac61	-0.012065024
138	0xbdbf7085	-0.09347633
139	0x3d2d4feb	0.042312544
140	0xbd054bac	-0.03254287
141	0xbc1f0e6f	-0.009708031
142	0x3e1cd550	0.15315747
143	0xbc90efaf	-0.017692415
144	0x3da13b8f	0.07872688
145	0xbce7ca3f	-0.02829468
146	0x3cfd1d2b	0.030897697
147	0x3e0acd9b	0.13554995
148	0x3d13161d	0.03590976
149	0xbd3f7244	-0.04673983
150	0x3e475812	0.1946719
151	0xbe481bb8	-0.19541824
152	0xbd45105a	-0.048111297
153	0x3e051f4c	0.1300022
154	0xbc2b25a9	-0.010445991
155	0x3dc0b288	0.09409052
156	0xbdcc1746	-0.099653766
157	0xbdab3a8c	-0.08360776
158	0x3c3d992a	0.011572162
159	0x3d04c383	0.032413017
160	0x3cffac66	0.031210136
161	0x3c88fd50	0.016722351
162	0x3e4c761c	0.1996693
163	0xbd938dc4	-0.07204774
164	0xbdbd008a	-0.092286184
165	0x3aa3502d	0.0012459807
166	0x3d1feaac	0.03904216
167	0xbc7bcbf6	-0.015368452
168	0x3e216448	0.1576091
169	0x3d25bf73	0.040465783
170	0xbdba4a35	-0.09096185
171	0xbe008b1a	-0.12553063
172	0xbd6ad964	-0.057336226
173	0xbdd85bff	-0.10564422
174	0xbdc0e06f	-0.09417807
175	0x3d23fe6a	0.04003755
176	0x3e725b10	0.2366755
177	0xbccb428c	-0.024812005
178	0xbdbaca6f	-0.091206424
179	0xbd74d2b7	-0.059771266
180	0x3e0e928e	0.13923094
181	0x3cea82d5	0.028626839
182	0x3df264f4	0.118356615
183	0x3dcffcff	0.10155677
184	0x3e041c47	0.12901412
185	0x3d8fb9a2	0.070178285
186	0x3cd5550d	0.026041532
187	0x3c73b321	0.014874251
188	0xbd2a3ccb	-0.041561883
189	0xbd190b6a	-0.0373644
190	0xbd951f9b	-0.07281419
191	0x3dbb4219	0.091434665
192	0x3cb7181a	0.02235036
193	0x39bebb8c	0.00036379357
194	0xbdcedf3d	-0.10101173
195	0xbde1b01d	-0.11019919
196	0x3ddcf019	0.107879825
197	0xbdf03547	-0.11728912
198	0x3d5a02af	0.053225216
199	0xbd19579b	-0.037437063
200	0x3cd031a9	0.025414305
201	0xbc5c5295	-0.013447423
202	0x395c2f24	0.00020998396
203	0x3d02f0ad	0.031967808
204	0xbdab6902	-0.08369638
205	0x3da0a51e	0.078439936
206	0x3d46860f	0.048467692
207	0xbd7af7eb	-0.06127159
208	0x3e2d294a	0.16910282
209	0x3d5be46b	0.053684633
210	0x3d22ba9f	0.039728757
211	0xbb90b191	-0.004415699
212	0x3d9bb6e1	0.07603241
213	0x3db5d587	0.08878618
214	0x3d2f6903	0.042824756
215	0xbdfc3769	-0.12315256
216	0xbdd2233e	-0.10260628
217	0xbbbfe9cc	-0.005856728
218	0xbb1eb72a	-0.002421806
219	0x3e6d5f34	0.23180848
220	0x3e0f0a55	0.13968785
221	0xbd144f0c	-0.036208197
222	0xbe1b2ea5	-0.15154512
223	0xbe053b78	-0.13010967
224	0x3ca59b84	0.020215757
225	0x3d21e9ea	0.03952972
226	0x3d4d5ebb	0.05013917
227	0x3df565f4	0.11982337
228	0x3e091abd	0.13389106
229	0xbce1ff08	-0.027587429
230	0xbe2953b7	-0.16535841
231	0x3e0f1c80	0.13975716
232	0xbd9cca03	-0.07655718
233	0xbe2fadf4	-0.17156202
234	0xbd825d5b	-0.063654624
235	0x3e057838	0.13034141
236	0xbcea4f32	-0.028602216
237	0xbd22fbdb	-0.03979097
238	0x3d925dfd	0.07146833
239	0x3e0b0d87	0.13579379
240	0xbda5a2ce	-0.08087693
241	0x3d0528e9	0.032509718
242	0x3da01b6b	0.078177296
243	0xbd56d64c	-0.052450463
244	0xbda8a319	-0.082342334
245	0x3e1b82fe	0.15186688
246	0x3e001799	0.12509002
247	0x3d17151e	0.036885373
248	0xbdb5ce92	-0.08877291
249	0xbcd48455	-0.025942007
250	0x3d93d25e	0.07217859
251	0x3d5fe1e4	0.054658785
252	0xbbf15cbd	-0.0073657916
253	0xbc87f7b9	-0.016597616
254	0x3c17093f	0.009218513
255	0x3df77a0f	0.12083828
