latent_ode/experiments/experiment_33239.ckpt (torch, 226283 bytes, 29 tensors)

encoder_z0.GRU_update.update_gate.0.weight f4 [100, 42]
0	0x3c55b53d	0.013043699
1	0x3c2316bb	0.00995415
2	0xbdb2d8d2	-0.087327614
3	0x3d78cd5b	0.060742717
4	0xbe21b8e9	-0.15793194
5	0x3e59fae7	0.21287118
6	0x3d944977	0.07240575
7	0xbe102474	-0.14076406
8	0x3e048f1d	0.12945218
9	0x3c4aef11	0.012386099
10	0xbdffbe5f	-0.12487482
11	0x3e3797dd	0.17929025
12	0x3e822cb2	0.25424725
13	0x3d788025	0.060669083
14	0xbd281491	-0.04103524
15	0xbe72f84b	-0.23727529
16	0x3d92fa18	0.07176608
17	0xbdc6c1e4	-0.097049505
18	0xbdf9b24d	-0.12192211
19	0x3e62cade	0.221477
20	0xbdea7840	-0.11448717
21	0xbd4c449b	-0.049870115
22	0xbdbf7693	-0.09348788
23	0xbe3264b2	-0.17421225
24	0xbdd1adbe	-0.10238217
25	0x3dbe89a7	0.09303599
26	0xbcf86499	-0.030321406
27	0xbe3b4f75	-0.18292029
28	0x3cfc405b	0.030792406
29	0x3d88a0cd	0.06671295
30	0xbc469223	-0.012119803
31	0xbdd5c394	-0.10437694
32	0xbbac005f	-0.0052490677
33	0x3e20f132	0.15717009
34	0xbe03a353	-0.12855272
35	0xbd188609	-0.0372372
36	0xbdfcd925	-0.123461045
37	0x3cc63c44	0.024198659
38	0x3cab9706	0.020946037
39	0xbec8d2ba	-0.39223272
40	0x3d4f203f	0.05056786
41	0xbdbd2146	-0.09234862
42	0x3e8b199e	0.27167982
43	0x3e05c765	0.13064344
44	0x3ca29e8e	0.019850995
45	0xbe0809a9	-0.13284935
46	0xba9f80c0	-0.0012169108
47	0x3e898dfa	0.26866132
48	0xbdfe7fa4	-0.12426689
49	0xbccb66cd	-0.024829293
50	0x3dfdf650	0.12400496
51	0xbe7393d2	-0.23786858
52	0x3ea65baa	0.3249181
53	0xbc899349	-0.016793864
54	0xbd37090a	-0.044686355
55	0xbd1e72aa	-0.03868357
56	0xbc02df13	-0.007987755
57	0xbe48551c	-0.19563717
58	0xbe23cb6e	-0.15995571
59	0x3dda4af8	0.106588304
60	0x3d20fd03	0.03930379
61	0x36547653	3.1659335e-06
62	0x3dbcce56	0.09219043
63	0x3ca8c8c0	0.020603538
64	0xbd5fc4fc	-0.05463122
65	0x3df01d26	0.117243096
66	0x3dd3afe6	0.10336284
67	0x3c707727	0.014676846
68	0x3d28f136	0.04124566
69	0x3df89375	0.121375
70	0x3e33812f	0.17529748
71	0x3da4a701	0.08039666
72	0xbd9aa056	-0.07550113
73	0xbdeb899f	-0.115008585
74	0xbb8d2937	-0.0043078917
75	0x3db11b5c	0.086477965
76	0x3dc20ee3	0.09475496
77	0x3c9ccb03	0.019139772
78	0x3d7fce6c	0.06245272
79	0xbe150829	-0.14553894
80	0xbd12f751	-0.03588039
81	0xbd387b6d	-0.045039583
82	0x3e7c88cf	0.24661563
83	0xbd806239	-0.062687345
84	0x3e45a863	0.19302516
85	0x3dc48765	0.09596137
86	0xbd8d44c5	-0.06897882
87	0xbe13791d	-0.1440167
88	0x3db4dcf7	0.08831208
89	0x3e2e7452	0.1703656
90	0x3e4e5550	0.20149732
91	0x3ddcf857	0.107895546
92	0x3ea1d822	0.3161021
93	0xbdb46824	-0.08808926
94	0x3e27c08c	0.16382045
95	0x3d70a748	0.05875328
96	0x3d6cbf54	0.057799652
97	0xbdf4fdd9	-0.1196248
98	0x3d37af3d	0.044844855
99	0xbe19ce19	-0.15020026
100	0xbdb2173d	-0.086958386
101	0x3ceb91cd	0.028756047
102	0xbe436d88	-0.19084752
103	0xbb3c2675	-0.0028709446
104	0x3d667eb5	0.05627318
105	0xbe569bbe	-0.20957848
106	0xbce2fb92	-0.027707849
107	0xbcf57a75	-0.029965619
108	0xbccf5df0	-0.025313348
109	0xbd8374b2	-0.06418742
110	0xbb05fe32	-0.0020445702
111	0xbe29f3b2	-0.16596869
112	0x3e832f1d	0.25621882
113	0xbda66c73	-0.08126154
114	0x3c6c44dd	0.014420715
115	0x3b08303d	0.0020780705
116	0x3d8660cd	0.06561432
117	0x3edeb915	0.4350058
118	0x3dbe7795	0.09300152
119	0x3e153a13	0.14572935
120	0x3cee7393	0.029107844
121	0x3d99d0e8	0.07510549
122	0xbdc2bc60	-0.09508586
123	0xbcb61583	-0.022227054
124	0xbbdc9ff1	-0.0067329337
125	0xbd91ede3	-0.071254514
126	0xbe3673ca	-0.17817608
127	0x3e53e001	0.2069092
128	0xbce3f1e4	-0.027825303
129	0xbd39468e	-0.0452333
130	0x3dc3f240	0.0956769
131	0x3da64954	0.08119455
132	0x3d9c2181	0.07623578
133	0xbe28d3c4	-0.16487032
134	0x3e1dc7ab	0.15408199
135	0xbd981efc	-0.07427785
136	0xbd3eeb07	-0.04661086
137	0x3de6d31e	0.11270736
138	0x3cd38e97	0.025824828
139	0xbdf7fb05	-0.12108425
140	0x3db07005	0.08615116
141	0xbb897e04	-0.0041959304
142	0xbd1d7e60	-0.0384506
143	0x3d2017b0	0.03908509
144	0xbe860004	-0.26171887
145	0x3d51e062	0.05123938
146	0xbdc0b011	-0.09408582
147	0xbd912469	-0.07087023
148	0xbe0b7a58	-0.13620889
149	0x3c127963	0.008940074
150	0xbdd79b2b	-0.10527643
151	0xbdb6ca82	-0.08925344
152	0xbde93cb0	-0.11388528
153	0xbd2eeac4	-0.04270436
154	0x3dc34de9	0.095363446
155	0x3d9d9fd1	0.07696498
156	0xbc945e3c	-0.01811134
157	0x3dc67475	0.09690181
158	0x3e1ebffd	0.15502925
159	0x3debc085	0.115113296
160	0xbd61eed9	-0.055159424
161	0x3d47802b	0.048706215
162	0xbcbbb038	-0.022911176
163	0x3d369345	0.04457404
164	0xbde0966c	-0.10966191
165	0xbdf53d99	-0.119746394
166	0x3ec2b847	0.38031217
167	0xbd60d652	-0.05489189
168	0xbdca9c95	-0.09893147
169	0x3e9a8726	0.30181235
170	0x3cc62a5f	0.024190126
171	0x3de55e95	0.11199681
172	0x3da30c3c	0.07961318
173	0xbe3a4f2b	-0.18194263
174	0x3e2f6ab4	0.17130548
175	0xbe7c7289	-0.24653067
176	0xbcbd1ba1	-0.023084464
177	0x3e85ec64	0.26156914
178	0xbe4039cd	-0.18772049
179	0x3d900195	0.07031552
180	0xbd654e1c	-0.055982694
181	0x3ce89506	0.028391372
182	0xbd64ea6b	-0.05588762
183	0xbd2e08f2	-0.042489
184	0x3d02539a	0.03181801
185	0x3cae7a18	0.021298453
186	0xbe7140bc	-0.2355985
187	0xbd8d3d64	-0.06896475
188	0x3d666c99	0.05625591
189	0xbc22611a	-0.009910846
190	0x3e15f3c7	0.14643775
191	0xbe1906e3	-0.14944033
192	0x3e02c801	0.12771608
193	0xbc2a68c1	-0.010400952
194	0x3e124f70	0.14288116
195	0xbda0ec41	-0.07857562
196	0xba970e28	-0.0011524605
197	0xbd2260c7	-0.039643075
198	0x3b8739be	0.0041267565
199	0xbd0a8cba	-0.033825614
200	0xbe0c0df8	-0.13677204
201	0x3dfa6caa	0.12227757
202	0xbca858ed	-0.020550216
203	0xbe43ed10	-0.19133401
204	0x3dea6725	0.114454545
205	0x3d551159	0.052018497
206	0x3dc96e6e	0.09835516
207	0xbe20500c	-0.15655535
208	0x3b8857b5	0.004160846
209	0x3dfa4dcf	0.12221872
210	0xbd982769	-0.07429392
211	0xbe129a12	-0.14316586
212	0x3d9c32ed	0.07626901
213	0xbe136380	-0.14393425
214	0x3ccec366	0.025239658
215	0xbe2d6b9e	-0.16935584
216	0x3ceeac8e	0.029135015
217	0x3d6e46b4	0.058172897
218	0x3e43269c	0.19057697
219	0xbdc16828	-0.09443694
220	0x3d7bf0e0	0.061509013
221	0xbd92212b	-0.071352325
222	0x3d0b3854	0.033989266
223	0x3d957789	0.0729819
224	0xbd08d6fd	-0.033408154
225	0x3d2932b5	0.041308124
226	0x3e0cfc97	0.1376823
227	0xbe5bd75f	-0.21468876
228	0xbd866ea9	-0.065640755
229	0x3ccd5a2b	0.02506741
230	0xbdd55f7c	-0.10418603
231	0x3daca638	0.08430141
232	0xbd4008f7	-0.04688355
233	0xbdde0b74	-0.10842028
234	0xbe1d4df0	-0.15361762
235	0x3ca74062	0.020416442
236	0xbe0303f5	-0.12794478
237	0xbd95abbe	-0.07308148
238	0x3b88ecbf	0.004178613
239	0xbe62595e	-0.22104403
240	0xbd4d9037	-0.050186362
241	0xbe39c7a5	-0.18142565
242	0xbe31cb9c	-0.17362827
243	0x3cf28b5a	0.029607464
244	0xbd36ba9e	-0.044611566
245	0xbd38f47f	-0.045155045
246	0x3a3a0b9e	0.0007097068
247	0xbd12b357	-0.035815563
248	0xbd41ef5f	-0.047347423
249	0x3db1c912	0.08680929
250	0x3d9eda60	0.077564955
251	0xbe0dea17	-0.1385883
252	0xbcbf1212	-0.023324046
253	0xbe113d02	-0.14183429
254	0x3cfacd0a	0.030615348
255	0x3e055aaa	0.13022867

encoder_z0.GRU_update.update_gate.0.bias f4 [100]
0	0xbd14ddc1	-0.036344294
1	0x3bbc42e2	0.0057452777
2	0xbd1fc66f	-0.0390076
3	0xbd3a7c79	-0.045528863
4	0xbc449ab2	-0.011999773
5	0xbd991e3e	-0.07476471
6	0xbdde11e2	-0.108432546
7	0x3c4fe5dd	0.012689081
8	0xbc16edf2	-0.009212004
9	0x3cb24231	0.021760078
10	0xbd0a3f37	-0.033751693
11	0x3d2a5c67	0.041592028
12	0xbda89009	-0.082305975
13	0x3bc87551	0.006117501
14	0xbdb70b49	-0.08937699
15	0x3d9956e6	0.07487278
16	0x3d8083f1	0.06275166
17	0xbd5902f6	-0.05298134
18	0x3d84c284	0.064824134
19	0x3d9cc313	0.07654395
20	0xbc692bee	-0.014231665
21	0x3da5221a	0.08063145
22	0xbdba6343	-0.09100964
23	0xbd0f7749	-0.03502587
24	0xbcc7340a	-0.024316806
25	0xbd7f7cbb	-0.06237481
26	0x3d44af14	0.04801853
27	0xbde00f61	-0.10940433
28	0x3b4b4803	0.0031018264
29	0xbd3a9184	-0.04554893
30	0x3d77a575	0.060460526
31	0x3d497cc4	0.04919125
32	0xbb3fce00	-0.0029267073
33	0x3cd9efbb	0.02660357
34	0x3d3d0f34	0.046157077
35	0xbc340356	-0.0109871235
36	0xbd4704fe	-0.048588745
37	0x3c3ee2b2	0.011650728
38	0xbbf409de	-0.0074474653
39	0xbd6ac4d9	-0.057316635
40	0xbc71f846	-0.014768666
41	0x3d2ac1fd	0.041688908
42	0x3cc8edba	0.02452742
43	0x3d9dfb27	0.07713919
44	0xbc2f3ba3	-0.010695371
45	0xbd0aacac	-0.03385608
46	0xbc27c4e8	-0.010239817
47	0x3ce58371	0.028016778
48	0x3c93ffcd	0.018066311
49	0x3bebd72a	0.0071972804
50	0xbd75a645	-0.05997302
51	0x3ddccdae	0.10781418
52	0x3d9c0015	0.07617203
53	0x3d7c89f0	0.061654985
54	0x3ca51bcc	0.020154856
55	0xbd74a3f8	-0.059726685
56	0x3d4f7697	0.050650205
57	0xbd69c1b6	-0.057069503
58	0xbc69bf56	-0.014266809
59	0xbd331d00	-0.04372883
60	0x3d129c9d	0.03579389
61	0xbd8d9dfc	-0.06914899
62	0x3cf615c6	0.03003968
63	0xbd564941	-0.052315954
64	0x3ccd75fe	0.025080677
65	0xbda7ccd4	-0.08193365
66	0x3cb7fd3a	0.022459615
67	0x3d02762d	0.031850982
68	0xbb2e815a	-0.0026627393
69	0xbd0e9699	-0.03481159
70	0xbd0e6d92	-0.034772463
71	0xbcda4d74	-0.02664826
72	0x3ceaf69e	0.02868205
73	0x3cd63044	0.026146062
74	0x3c5c5009	0.013446816
75	0xbc93c055	-0.018036047
76	0x3dd23860	0.10264659
77	0xbbb1aa45	-0.005421909
78	0x3b86ae13	0.0041101067
79	0xbd80580b	-0.06266793
80	0xbbae2da9	-0.0053155017
81	0xbd9310b0	-0.07180917
82	0xbccf2ae5	-0.025289008
83	0x3c15e533	0.009148884
84	0xbd36d94f	-0.044640835
85	0x3cbbcfc1	0.022926213
86	0xbca7385d	-0.020412618
87	0x3db7891a	0.08961697
88	0x3d92459c	0.07142183
89	0xbd137e45	-0.036009092
90	0xbd142895	-0.036171515
91	0x3cfdba11	0.030972512
92	0xbd8aaf0e	-0.0677167
93	0x3d6b6d1c	0.0574771
94	0xbcb24cca	-0.021765132
95	0x3d2569d5	0.040384132
96	0xbd94380c	-0.072372526
97	0xbce1a9d7	-0.027546806
98	0x3d43e453	0.04782517
99	0x3d39971c	0.045310125

encoder_z0.GRU_update.update_gate.2.weight f4 [20, 100]
0	0xbe472b96	-0.1945022
1	0x3d60f521	0.054921273
2	0x3cca071c	0.024661593
3	0xbc93798d	-0.018002296
4	0xbd0ba76c	-0.034095213
5	0xbe6d44b6	-0.23170742
6	0xbe4f8841	-0.2026682
7	0x3ddccc60	0.10781169
8	0x3e57287d	0.21011539
9	0xbcc275d9	-0.023737835
10	0xbe1648b0	-0.14676166
11	0x3d46fed8	0.04858288
12	0xbe124cfe	-0.14287183
13	0xbd87321f	-0.06601357
14	0xbe652b72	-0.22379854
15	0x3db0d967	0.08635216
16	0x3e88075b	0.26568112
17	0xbe3a0508	-0.18165982
18	0x3d35e571	0.044408266
19	0x3e837ada	0.25679666
20	0x3e04ca25	0.12967737
21	0x3e781113	0.24225263
22	0xbe3d97a8	-0.18514884
23	0xbd9bddc6	-0.07610659
24	0xbd20d474	-0.03926511
25	0xbe1f0715	-0.15530045
26	0xbdc1fc41	-0.09471942
27	0xbe247842	-0.160615
28	0xbdaa13e1	-0.08304573
29	0x3ddff20f	0.10934841
30	0xbb92dfc7	-0.0044822427
31	0x3e382671	0.17983414
32	0x3e01131b	0.12604944
33	0x3e143799	0.14474334
34	0x3e646cfa	0.22307196
35	0xbddacc87	-0.10683542
36	0x3d1e64ee	0.038670473
37	0xbd62b0a0	-0.055344224
38	0xbe03507b	-0.1282367
39	0x3daab964	0.08336142
40	0xbe0c9480	-0.13728523
41	0x3dda60ee	0.10663019
42	0x3e9794da	0.29605752
43	0x3e5a58be	0.21322915
44	0x3ced18a6	0.028942417
45	0xbca65e51	-0.020308645
46	0xbdb0cfe6	-0.086334035
47	0x3da2a220	0.07941079
48	0x3e2114fc	0.15730661
49	0x3cab6701	0.02092314
50	0xbcde0289	-0.027100818
51	0x3dcd761a	0.10032292
52	0x3ec87c98	0.39157557
53	0x3e77a2db	0.24183218
54	0xbc4c49e0	-0.012468785
55	0xbe11574a	-0.14193454
56	0x3dbd3dfd	0.09240339
57	0xbe45e26d	-0.19324656
58	0xba04a27e	-0.00050596136
59	0x3cec3a7f	0.028836487
60	0x3d4407da	0.04785905
61	0xbce74d9e	-0.028235253
62	0x3e4c01fb	0.1992263
63	0xbd713c30	-0.05889529
64	0x3e0ae942	0.13565543
65	0xbe6e072d	-0.23244925
66	0x3dbc975c	0.09208557
67	0x3dee1ae1	0.116262205
68	0x3d34626d	0.04403918
69	0xbdea38fd	-0.11436651
70	0x3d6cc6f0	0.05780691
71	0xbdad0dbf	-0.084498875
72	0x3bd5fba4	0.006530242
73	0x3e38030e	0.17969915
74	0x3d806ba8	0.06270534
75	0xbd8695db	-0.065715514
76	0x3e377ceb	0.17918746
77	0x3dc889f5	0.09791938
78	0x3d8bebfa	0.06832118
79	0xbe6532b7	-0.22382627
80	0xbd89a92c	-0.0672172
81	0xbe52e0cd	-0.20593567
82	0xbcf6c1ed	-0.030121768
83	0x3db3e4a8	0.08783847
84	0xbd00f0e6	-0.03147974
85	0x3a7ec5bc	0.0009718796
86	0xbd2d8848	-0.042366296
87	0xbb20ce00	-0.0024536848
88	0xbc0e2c8d	-0.008677614
89	0xbdd09159	-0.10183973
90	0xbd712123	-0.058869492
91	0x3cfad948	0.030621186
92	0xbe91ede8	-0.2850182
93	0x3dee79f9	0.11644358
94	0xbc14cc1c	-0.009081867
95	0x3e1e496b	0.15457694
96	0xbe130bbb	-0.14359944
97	0x3d95f560	0.07322192
98	0xbd7884b2	-0.060673423
99	0x3cce8fb3	0.025215006
100	0x3c6e0b94	0.014529128
101	0x3e4d1955	0.20029195
102	0xbe8a5cff	-0.27024075
103	0xbe4ae172	-0.19812563
104	0x3dea41ae	0.11438309
105	0xbd98d39f	-0.074622385
106	0xbb96065c	-0.004578395
107	0x3e7ba21a	0.24573556
108	0x3e57c6b0	0.21071887
109	0xbb91d434	-0.0044503454
110	0x3bdd212f	0.0067483406
111	0xbe6ab7a4	-0.22921616
112	0xbd312c73	-0.04325528
113	0x3e17db14	0.14829665
114	0xb83fe0cc	-4.5747307e-05
115	0xbc1a1e54	-0.009406645
116	0xbdc2b19e	-0.09506534
117	0xbd056888	-0.032570392
118	0xbd9c1caa	-0.07622655
119	0x3e029ec7	0.12755881
120	0x3dd378dc	0.103257865
121	0xbe45f293	-0.19330816
122	0xbd2f570a	-0.042807616
123	0xbc4c267d	-0.012460348
124	0xbd089ef0	-0.0333547
125	0x3dcca801	0.09992982
126	0xbba0de1c	-0.00490929
127	0x3dadeca0	0.08492398
128	0xbe57dccb	-0.2108032
129	0xbe0f51ee	-0.13996097
130	0x3d7a6994	0.061135843
131	0x3e00d497	0.12581097
132	0xbcc6772f	-0.024226753
133	0x3e124503	0.14284138
134	0xbdaa5673	-0.0831727
135	0x3be149a6	0.0068752347
136	0xbc24e15b	-0.010063495
137	0xbded4aa0	-0.11586499
138	0x3e3a43ec	0.18189973
139	0x3a970a1a	0.0011523396
140	0x3d5deb06	0.054179214
141	0x3d353cea	0.044247545
142	0xbcf231d1	-0.02956477
143	0xbd69c4e3	-0.05707253
144	0xbe2a2047	-0.16613875
145	0xbd168426	-0.03674712
146	0x3c53a3d2	0.012917476
147	0xbe36521e	-0.17804763
148	0xbcadaa46	-0.021199357
149	0xbcfb6591	-0.03068808
150	0x3cd7859d	0.026308829
151	0xbe03e9f1	-0.1288221
152	0xbdd36ac2	-0.10323097
153	0xbe0dd4d8	-0.13850725
154	0x3cbf8d5c	0.023382835
155	0xbd77e0d9	-0.060517166
156	0xbe8119eb	-0.25215086
157	0xbcb22bd0	-0.021749407
158	0xbd8d2181	-0.06891156
159	0xbd59a343	-0.053134214
160	0xbe529bbe	-0.20567223
161	0xbc6ce7af	-0.014459535
162	0x3d513809	0.05107883
163	0xbd26911e	-0.04066574
164	0xbe0a130e	-0.13483831
165	0x3ddf0591	0.108897336
166	0xbcc0abba	-0.023519386
167	0x3d4c24d7	0.04983982
168	0xbd216ee9	-0.039412413
169	0xbddb0af7	-0.10695451
170	0x3d8206bf	0.06348943
171	0x3df94f97	0.12173384
172	0xbd8d7a0a	-0.06908043
173	0xbcd9dffb	-0.02659606
174	0x3e00eba5	0.12589891
175	0x3dc40c96	0.09572713
176	0xbe640ce2	-0.2227054
177	0x3d01f61a	0.03172884
178	0xbdc4120e	-0.09573756
179	0x3cc7bcb7	0.024381978
180	0xbde053a2	-0.10953452
181	0x3e10d197	0.14142452
182	0xbe04a293	-0.12952642
183	0x3e0e9c85	0.13926895
184	0x3e32ad93	0.17449026
185	0x3d0ba924	0.034096852
186	0xbdfe1bc0	-0.12407637
187	0xbdeaf780	-0.11472988
188	0xbde4f1b6	-0.11178915
189	0x3d996199	0.074893184
190	0x3d2335e0	0.0398463
191	0x3d027d97	0.031858053
192	0xbc261a1a	-0.010138059
193	0xbd23bef6	-0.039977036
194	0x3d5775cb	0.05260257
195	0xbd315ec8	-0.04330328
196	0xbd99c990	-0.07509148
197	0x3e23ac71	0.1598375
198	0x3db75ad3	0.0895287
199	0xbe2ef4eb	-0.17085616
200	0x3d2cdc1c	0.0422021
201	0x3de3994b	0.11113223
202	0xbb27ecbe	-0.0025623287
203	0xbd18a5ac	-0.037267372
204	0x3bcebda9	0.0063092303
205	0x3d677d7a	0.05651615
206	0xbe586390	-0.2113173
207	0x3d824ca9	0.06362278
208	0xbe527487	-0.20552264
209	0xbdb0a51d	-0.08625243
210	0xbca4e16c	-0.02012702
211	0x3dae0e3a	0.08498807
212	0x3c72c2cc	0.014816951
213	0x3e00ff1b	0.12597315
214	0x3c039616	0.008031389
215	0x3e6bcde3	0.23027758
216	0x3d073ec1	0.03301883
217	0xbe21a905	-0.15787132
218	0x3e909063	0.28235158
219	0x3e0f1db5	0.13976176
220	0xbba367d9	-0.004986745
221	0x3db0db18	0.08635539
222	0xbe757217	-0.23969303
223	0xbe13d372	-0.14436129
224	0x3df3757d	0.118876435
225	0xbe1b0da5	-0.15141924
226	0x3db466b1	0.08808649
227	0xbcedf2ce	-0.029046442
228	0x3ce7226d	0.028214658
229	0xbdc80741	-0.097670086
230	0x3e29c7d3	0.16580133
231	0x3e155368	0.14582598
232	0xbe3cce21	-0.18438007
233	0x3d06b810	0.03289038
234	0xbd76745a	-0.060169555
235	0xbddcf268	-0.10788423
236	0x3d04f6be	0.032461874
237	0xbdf3a50e	-0.11896716
238	0x3d07f0f7	0.033188786
239	0xbe38ac88	-0.18034565
240	0xbc78a30b	-0.015175591
241	0xbc77d5a6	-0.015126621
242	0x3e1b85fd	0.15187831
243	0x3e3ea08c	0.18615931
244	0xbdfab86b	-0.12242206
245	0xbdf9c394	-0.12195507
246	0x3d956a45	0.0729566
247	0xbd74ca05	-0.059762973
248	0x3d396aa3	0.045267712
249	0x3dce1047	0.100616984
250	0xbe8e8a44	-0.27839863
251	0x3e4bb81d	0.19894452
252	0x3db7672c	0.08955225
253	0x3dec2bdf	0.11531805
254	0xbdfcd370	-0.12345016
255	0xbe164ac4	-0.14676958

encoder_z0.GRU_update.update_gate.2.bias f4 [20]
0	0x3dbb2b5d	0.0913913
1	0xba32907e	-0.0006811692
2	0x3e0c4ef7	0.13701998
3	0x3bd8ae84	0.0066126008
4	0x3ccdfc5a	0.025144745
5	0x3d1807bd	0.037116755
6	0x3d64df6d	0.055877138
7	0x3cebf89d	0.028805071
8	0x3d72ca84	0.059275165
9	0xbac2ec0b	-0.0014871372
10	0xb9ae78fe	-0.00033278012
11	0x3c84a6e5	0.016192863
12	0x3c062671	0.008187876
13	0xbd243335	-0.040087897
14	0xbd6a8281	-0.057253364
15	0x3d285072	0.041092344
16	0xbcac24fa	-0.021013726
17	0x3bf0b030	0.007345222
18	0xbdc8c1d2	-0.09802593
19	0xbd5c7174	-0.053819135

encoder_z0.GRU_update.reset_gate.0.weight f4 [100, 42]
0	0x3d9ce780	0.076613426
1	0x3d802773	0.06257524
2	0xbd97c49f	-0.07410549
3	0xbe13afbd	-0.14422508
4	0xbd403569	-0.046925936
5	0xbd760d5c	-0.060071334
6	0x3d83846c	0.06421742
7	0x3d3b1559	0.045674656
8	0xbca27ecb	-0.01983585
9	0xbcf163dd	-0.029466564
10	0x3e0f2071	0.13977219
11	0xbe2dd224	-0.16974694
12	0x3d3516f0	0.044211328
13	0xbd047c36	-0.03234502
14	0x3e186d2d	0.14885397
15	0xbd9733de	-0.0738294
16	0x3c84eb3f	0.016225455
17	0x3b503318	0.0031768735
18	0x3dbb7d8c	0.091548055
19	0xbd75a035	-0.05996724
20	0x3e3d8483	0.1850758
21	0xbd6102e6	-0.054934405
22	0x3d196e6f	0.037458833
23	0xbe8abf3b	-0.27099022
24	0x3d39160f	0.045187052
25	0x3d087f00	0.03332424
26	0x3d96dea6	0.073666856
27	0xbd1b40e7	-0.037903693
28	0xbdc29fcc	-0.09503135
29	0x3d958d3e	0.073023304
30	0xbdd8f23a	-0.10593076
31	0xbdc9dbeb	-0.09856399
32	0x3e0d662d	0.13808508
33	0xbe3408bb	-0.17581455
34	0x3dbe6aef	0.0929774
35	0xbc5dc55c	-0.013535824
36	0x3d2dc34a	0.04242257
37	0x3d69a3cb	0.05704097
38	0xbd1d1d52	-0.03835804
39	0xbc088dec	-0.008334618
40	0x3ce48d8e	0.02789953
41	0x3d57fcdb	0.052731376
42	0xbcaed509	-0.021341817
43	0xbd09297a	-0.03348682
44	0xbd303b02	-0.043025024
45	0xbe1bfdbe	-0.15233514
46	0xbdf6778b	-0.1203452
47	0xbe40d28d	-0.18830319
48	0xbe3ddda7	-0.18541585
49	0xbcde4b37	-0.027135475
50	0xbd7852d7	-0.060625877
51	0x3d98a037	0.074524336
52	0xbc7688d3	-0.01504727
53	0xbe2af956	-0.16696677
54	0xbe50c311	-0.20386912
55	0x3e456d7e	0.19280049
56	0x3e8dae69	0.27672127
57	0x3c7c0b67	0.015383578
58	0xbc279f51	-0.010230855
59	0xbce99e34	-0.02851782
60	0x3dee5350	0.11636984
61	0x3db31956	0.08745067
62	0xbd3598c0	-0.044335127
63	0xbe4c5050	-0.19952512
64	0x3de0c5a7	0.10975199
65	0xbda722ff	-0.08160972
66	0xbd870f59	-0.06594724
67	0xbd3cc29f	-0.046084043
68	0xbd9704f6	-0.07373993
69	0x3c64c8a3	0.013963851
70	0x3d379416	0.04481896
71	0xbd93f071	-0.07223595
72	0xbd9ff9c1	-0.07811309
73	0xbdc0a7cf	-0.09407007
74	0xbe39b2db	-0.18134634
75	0xbbf3ac5c	-0.0074363183
76	0xbded9d2f	-0.11602246
77	0x3bdd320f	0.006750352
78	0xbd74db13	-0.059779238
79	0xbe79fde7	-0.24413262
80	0x3de2f251	0.110813744
81	0xbdd20d4f	-0.10256445
82	0x3d558f63	0.052138697
83	0x3d89eaec	0.06734261
84	0xbd83bf1a	-0.06432934
85	0x3e27e421	0.16395618
86	0x3d8af07e	0.067841515
87	0xbdda6eb5	-0.10665647
88	0xbde9e2b6	-0.11420195
89	0xbde0c035	-0.109741606
90	0x3c8858af	0.01664385
91	0xbdd7e023	-0.105407976
92	0x3cd4f28c	0.025994562
93	0xbce1ec1a	-0.027578402
94	0x3db0f05f	0.08639597
95	0x3dba0485	0.09082893
96	0x3de92cec	0.11385521
97	0x3cfe0fa1	0.031013312
98	0xbe273dd6	-0.16332182
99	0xbd603282	-0.054735668
100	0xbda372ef	-0.07980906
101	0xbe150f13	-0.14556532
102	0xbe3855dc	-0.18001503
103	0xbb570dd0	-0.003281463
104	0x3d348ba2	0.044078477
105	0xbd9480eb	-0.07251152
106	0x3dc8aac8	0.09798199
107	0xbe017f69	-0.1264626
108	0x3d3610e5	0.044449706
109	0x3d9ec485	0.07752327
110	0x3dd91012	0.10598768
111	0x3ddaeb49	0.10689408
112	0xbd01fce2	-0.03173531
113	0x3d56b90b	0.052422564
114	0xbd86653b	-0.06562277
115	0x3e3c3de0	0.18382978
116	0xbdc40546	-0.09571318
117	0x3e0f6cc6	0.14006338
118	0xbdc067ee	-0.09394823
119	0x3dd2eb3e	0.10298775
120	0x3d7b488e	0.06134849
121	0x3d4d548e	0.050129466
122	0xbcb53d6c	-0.022124015
123	0x3da1f18a	0.07907398
124	0x3d0fd5d7	0.035116043
125	0xbe2afb31	-0.16697384
126	0xbe7255fa	-0.2366561
127	0xbd390364	-0.04516925
128	0x3e591e7c	0.21203035
129	0xbd9c77e2	-0.07640053
130	0x3e5377c9	0.20651163
131	0xbd57a37a	-0.052646138
132	0x3d028443	0.031864416
133	0xbd09ce49	-0.033643994
134	0xbd94609f	-0.072449915
135	0xbbe2dd5d	-0.006923361
136	0x3cf3cd8e	0.029761102
137	0x3db4c53c	0.08826682
138	0xbcfbc694	-0.030734338
139	0xbe5c7b61	-0.2153144
140	0xbd74527d	-0.05964898
141	0xbe1d0240	-0.1533289
142	0x3dbfdb2f	0.09367978
143	0x3e034cbd	0.12822242
144	0xbd0baeae	-0.034102134
145	0xbe0e232b	-0.13880603
146	0xbd8a7068	-0.06759721
147	0xbc1024e3	-0.008797857
148	0x3e21ade7	0.15788995
149	0x3e53dfa1	0.20690776
150	0xbe03da1d	-0.12876172
151	0x3c5c90bd	0.013462243
152	0x3d8f5c40	0.07000017
153	0xbcb81864	-0.022472568
154	0x3d93ec6b	0.072228275
155	0x3e97c113	0.2963949
156	0x3ddc498a	0.10756214
157	0x3d1944ab	0.037419003
158	0xbd4df4e3	-0.05028237
159	0x3d8aa619	0.06769962
160	0xbd245085	-0.040115852
161	0xbe417494	-0.18892127
162	0x3e054ac0	0.13016796
163	0xbda2784e	-0.079331025
164	0xbd6a4252	-0.057192154
165	0xbe6b003b	-0.22949307
166	0x3ceba5af	0.028765528
167	0xba85fc3d	-0.0010222268
168	0xbe0700d7	-0.13183914
169	0x3e42ef4f	0.19036601
170	0xbe3206b8	-0.17385375
171	0x3d5e8441	0.054325346
172	0xbca09f88	-0.01960732
173	0xbd2a3c18	-0.041561216
174	0xbc02e07f	-0.007988094
175	0xbd2fefde	-0.042953365
176	0x3e13779b	0.14401095
177	0x3ddf1df3	0.10894384
178	0x3bf7a484	0.0075574536
179	0xbbb02b73	-0.0053762733
180	0x3e0520d6	0.13000807
181	0xbc7a824c	-0.015289854
182	0x3e202856	0.15640387
183	0x3d065e0b	0.03280453
184	0x3e892909	0.2678912
185	0xbe1d00e1	-0.15332367
186	0xbdb26d42	-0.087122455
187	0x3d16268b	0.03665785
188	0xbce4b92c	-0.027920328
189	0xbdf8e8c6	-0.12153773
190	0x3d0a4932	0.03376121
191	0xbe980167	-0.2968857
192	0xbdd1ba52	-0.10240616
193	0xbd93bf6b	-0.072142445
194	0xbcc14a65	-0.023595044
195	0xbd32591d	-0.043542016
196	0x3d88c141	0.06677485
197	0x3cfcc57b	0.030855885
198	0xbe13d9c0	-0.14438534
199	0x3c840882	0.016117338
200	0xbc10b051	-0.0088311
201	0xbe34e49b	-0.17665331
202	0x3e1dc203	0.15406041
203	0xbe0aea1b	-0.13565867
204	0x3e125088	0.14288533
205	0x3cbd52fc	0.02311086
206	0xbd3c092c	-0.045907184
207	0x3c83cee8	0.016089872
208	0x3d62b870	0.055351675
209	0xbda3fce7	-0.08007222
210	0x3d9a9664	0.07548216
211	0x3dbb1531	0.09134901
212	0xbe014807	-0.12625133
213	0x3dca9bcc	0.09892997
214	0xbd8c193d	-0.06840751
215	0x3de848fb	0.11342045
216	0x3de9ccea	0.114160374
217	0x3d204964	0.03913249
218	0xbc2f4343	-0.010697189
219	0x3dcf2b25	0.10115651
220	0x3d5128fc	0.051064476
221	0xbd33f2c6	-0.0439327
222	0x3d032c7a	0.032024838
223	0xbddc1964	-0.107470304
224	0xbdb56a3e	-0.08858155
225	0xbc9a6c15	-0.018850366
226	0xbdc890dc	-0.09793255
227	0x3da96a0a	0.082721785
228	0x3da4780c	0.080307096
229	0xbc01d180	-0.007923484
230	0xbb9f1f1d	-0.004856004
231	0x3d8fc587	0.07020097
232	0x3db5b326	0.088720605
233	0xbe1a07c5	-0.15042026
234	0x3dc086a1	0.094006784
235	0xbe0102bd	-0.12598701
236	0x3e00b458	0.12568796
237	0xbdf2e344	-0.11859754
238	0x3d3d3dbe	0.04620146
239	0x3de1d0c8	0.1102615
240	0x3d0f3270	0.03496021
241	0xbd7b25a2	-0.061315186
242	0x3c3bad97	0.011454961
243	0xbe8c2d6d	-0.27378407
244	0x3e727a4a	0.23679462
245	0x3d7e43d7	0.062076416
246	0xbd88efe0	-0.066863775
247	0x3e44479f	0.19167946
248	0xbd9719a0	-0.073779345
249	0xbc1b7380	-0.009487987
250	0xbcd202e2	-0.02563614
251	0x3d3799ef	0.044824537
252	0xbdc9099e	-0.098162875
253	0xbe1b4979	-0.15164746
254	0x3d52e19c	0.05148469
255	0xbc98dc82	-0.018659834

encoder_z0.GRU_update.reset_gate.0.bias f4 [100]
0	0xbcf057d3	-0.029338753
1	0xbd34172e	-0.04396742
2	0x3c9e64c4	0.019335158
3	0xbb86ae79	-0.004110154
4	0xbc4c2a7a	-0.012461299
5	0x3cbbb864	0.022915073
6	0xbd68d9c5	-0.056848306
7	0xbd36e46e	-0.04465144
8	0x3da12560	0.07868457
9	0xbbcf78c0	-0.006331533
10	0x3c55fa61	0.013060183
11	0x3d6336bc	0.05547212
12	0xbcec4896	-0.028843205
13	0x3d2525a3	0.040319096
14	0xbd345370	-0.044024885
15	0xbd4d5c78	-0.050137013
16	0xbbc8a371	-0.0061229994
17	0x3b9998c9	0.004687403
18	0x3bcb5898	0.0062056296
19	0x3c4bcd5c	0.012439098
20	0x3ac49840	0.0014998987
21	0x3c5c0ac0	0.013430297
22	0xbd3742cf	-0.044741448
23	0xbbd93f74	-0.0066298787
24	0x3b1b915b	0.0023737762
25	0x3d5586c9	0.052130494
26	0x3c60ba0c	0.013716232
27	0x3c93641e	0.017992076
28	0xbd353d64	-0.044248
29	0x3d12af96	0.035811983
30	0xbb38b5e1	-0.002818458
31	0x3dbdccd1	0.09267581
32	0x3d3e3c24	0.046444073
33	0xbc68327d	-0.014172194
34	0x3d29bd97	0.041440573
35	0xbd440a4a	-0.047861375
36	0xbc88b55d	-0.016688043
37	0xbd442ca0	-0.04789412
38	0x3cdafb5f	0.026731191
39	0xbcbb1b9d	-0.022840315
40	0xbca1b476	-0.01973937
41	0xbc797632	-0.015225934
42	0x3d072cef	0.033001836
43	0x3d405caa	0.04696337
44	0xbc1d75f8	-0.0096106455
45	0x3d181b6e	0.037135534
46	0x3d0bd6ec	0.034140512
47	0xbc1bb630	-0.009503886
48	0x3d64c21f	0.05584919
49	0x3d0f160d	0.03493314
50	0x3cb7b5a2	0.022425476
51	0x3b0dc55b	0.0021632526
52	0xbd0010c0	-0.031265974
53	0x3d9d4688	0.076794684
54	0xbd2f2dc3	-0.04276825
55	0x3d6ae78e	0.057349734
56	0xbd8ee859	-0.069779105
57	0xbd25d130	-0.0404827
58	0xbbca22f5	-0.006168718
59	0xbd047fa0	-0.032348275
60	0xbc42e451	-0.011895255
61	0x3bfb30a2	0.0076657096
62	0xbb90bc5b	-0.004416985
63	0xbc24788a	-0.010038504
64	0xbb6caa69	-0.0036112315
65	0x3d54810c	0.05188088
66	0x3ca068b4	0.019581176
67	0x3b0f49de	0.0021864097
68	0x3ca49d46	0.020094525
69	0x3986c479	0.00025704855
70	0xbd6af9ec	-0.05736725
71	0x3d7a0b37	0.06104585
72	0x3dc5fd3b	0.096674405
73	0x3cf0a5e9	0.029375987
74	0x3d8360d3	0.06414952
75	0x3d04229e	0.032259576
76	0xbbf14ad1	-0.007363655
77	0x3d128e0f	0.03578001
78	0xbcdddb50	-0.027082115
79	0xbc186b33	-0.009302902
80	0xbdbd4197	-0.09241026
81	0xbcbfe4c1	-0.023424508
82	0xbb977ed4	-0.0046232734
83	0x3c4c0c79	0.012454146
84	0xbc055f60	-0.008140415
85	0x3cf2866f	0.029605119
86	0x3af76235	0.0018873872
87	0xbc9d3d06	-0.019194137
88	0x3d0818f7	0.033226933
89	0xbd191f3c	-0.037383303
90	0xbd428561	-0.04749048
91	0x3ca41a0b	0.02003195
92	0x3d491099	0.049088094
93	0xbb9b9f37	-0.0047492045
94	0x3c0412c0	0.008061111
95	0xbc9e8a48	-0.019353047
96	0x3d0143f5	0.03155895
97	0xbd8cb819	-0.06871051
98	0x3bd40e67	0.0064714435
99	0xbca10ddb	-0.019659927

encoder_z0.GRU_update.reset_gate.2.weight f4 [20, 100]
0	0x3dfde4e1	0.12397171
1	0xbdf9b3a0	-0.12192464
2	0x3c0d97a4	0.008642111
3	0x3c6f985f	0.01462373
4	0x3da21326	0.079138085
5	0xbe75e44f	-0.24012874
6	0xbddd66b7	-0.10810607
7	0xbd7f0c5a	-0.06226764
8	0x3d5d411c	0.05401717
9	0xbd609a0d	-0.054834414
10	0x3d4e228c	0.050325915
11	0x3d7a4517	0.061101045
12	0xbcc8f136	-0.02452908
13	0x3e5d3b67	0.21604691
14	0xbe4012e7	-0.1875721
15	0xbd915752	-0.07096733
16	0xbd475974	-0.048669294
17	0x3d79bd72	0.060971685
18	0xbe32d805	-0.17465217
19	0x3e2e60bb	0.17029087
20	0x3bc9a955	0.006154219
21	0xbad32ea2	-0.001611192
22	0x3c2e260e	0.01062919
23	0xbc716f4a	-0.014736006
24	0x3df044e2	0.11731888
25	0x3d549fd7	0.051910248
26	0x3ddb918a	0.10721119
27	0x3c6a171e	0.014287738
28	0xbe1913b4	-0.14948922
29	0x3e1c4891	0.15262057
30	0xbb3725c7	-0.00279461
31	0x3d5be253	0.053682636
32	0x3dc38ad5	0.095479645
33	0xbd9c3339	-0.076269574
34	0x3c93a858	0.018024608
35	0x3c442274	0.011971105
36	0x3d9f7168	0.077853024
37	0xbe3cf214	-0.1845172
38	0x3d34b94d	0.04412203
39	0x3dc5c387	0.096564345
40	0x3d997b22	0.07494189
41	0xbe565bf8	-0.20933521
42	0x3e7b0a53	0.24515657
43	0x3dff7965	0.12474326
44	0xbb805a61	-0.003917024
45	0xbc077b46	-0.008269137
46	0x3dbde06d	0.092713214
47	0xbdb8b1d8	-0.09018296
48	0x3e0d931b	0.13825648
49	0x3e2d6434	0.16932756
50	0x3df55b5e	0.119803175
51	0xbc9b149d	-0.018930728
52	0xbdad3b7f	-0.084586136
53	0x3e9352d6	0.28774136
54	0xbe413bbe	-0.18870446
55	0xbd700add	-0.05860411
56	0xbc42957e	-0.011876462
57	0xbd3e2fcf	-0.046432313
58	0x3c52cdbf	0.0128664365
59	0xbc6e1cd5	-0.014533241
60	0xbc04fff9	-0.008117669
61	0x3dca3d75	0.09875003
62	0x3c8e6d46	0.01738609
63	0xbcee41a0	-0.029084027
64	0x3db129e9	0.08650572
65	0xbd677811	-0.05651099
66	0x3da7ec5a	0.08199377
67	0x3e4f0623	0.20217185
68	0xbd13d7de	-0.03609454
69	0x3e395193	0.18097524
70	0xbd9e82d6	-0.07739799
71	0x3dec7d90	0.11547387
72	0xbd6c27d5	-0.057655174
73	0x3e007b5e	0.12547061
74	0x3e70b34a	0.23505893
75	0x3ea15658	0.31511188
76	0x3d9b4b1a	0.07582684
77	0x3e192934	0.14957124
78	0x3a834871	0.0010016096
79	0xbe219792	-0.15780476
80	0xbd0cb3e8	-0.03435126
81	0xbd85046f	-0.06494986
82	0x3e02ea52	0.12784699
83	0x3d05a176	0.032624684
84	0x3c812c55	0.01576821
85	0x3b4a9acd	0.0030915022
86	0xbe35272c	-0.17690724
87	0xbd83f26a	-0.06442721
88	0x3c0f1e71	0.008735285
89	0xbdea8935	-0.114519514
90	0xbd3fde9d	-0.04684316
91	0x3c5f393d	0.0136244865
92	0x3d810d01	0.063013084
93	0xbdc0fa5b	-0.094227515
94	0xbda716ba	-0.081586316
95	0x3db545bb	0.08851191
96	0x3c959e10	0.018263847
97	0x3d7e5acd	0.062098313
98	0xbdc5940b	-0.096473776
99	0xbb8b07d0	-0.0042428747
100	0x3daf26be	0.08552311
101	0x3d908533	0.07056656
102	0xbe16864a	-0.14699665
103	0xbdd8f50a	-0.105936125
104	0x3da75b48	0.081717074
105	0x3d871a56	0.0659682
106	0x3e744867	0.23855744
107	0x3d2d859c	0.042363748
108	0xbd1ce1ae	-0.038301162
109	0x3d65296e	0.055947714
110	0xbba168b4	-0.0049258117
111	0x3d40da24	0.047083035
112	0x3d8d8fe9	0.06912214
113	0xbe183cae	-0.14866897
114	0xbe2a13d5	-0.16609128
115	0xbcf96e2d	-0.030448044
116	0x3d7bf9bf	0.061517473
117	0xbdacd928	-0.08439857
118	0x3cdc318d	0.026879096
119	0x3ce8dabe	0.028424617
120	0x3dc08515	0.094003834
121	0xbdd0d59e	-0.10196994
122	0x3d98a6a1	0.07453657
123	0xbcf7ea4c	-0.030263089
124	0xbdcc8101	-0.09985543
125	0x3d42e2ed	0.047579695
126	0xbd8d29d8	-0.06892747
127	0x3e0f509c	0.13995594
128	0xbd5312fb	-0.051531773
129	0xbd17d2ef	-0.037066396
130	0xbe8fa157	-0.2805278
131	0xbd81981f	-0.06327843
132	0xbe32d27a	-0.17463103
133	0xbe06876e	-0.131376
134	0xbd886e60	-0.06661677
135	0xbe1c434b	-0.15260045
136	0x3ccff6ca	0.025386233
137	0xbcf0fa84	-0.02941633
138	0x3c92ca01	0.017918589
139	0x3dfc7e56	0.12328784
140	0xbdfd6841	-0.123734005
141	0x3c00a382	0.007851483
142	0xbe4600c4	-0.1933623
143	0x3e0116aa	0.12606302
144	0xbb5f1110	-0.003403727
145	0xbd532d33	-0.051556777
146	0xbe18719c	-0.14887089
147	0x3d161ba7	0.036647465
148	0x3d8105b2	0.062999144
149	0xbe0f0cb2	-0.13969687
150	0xbca2f786	-0.019893419
151	0xbd8d4cf9	-0.06899447
152	0x3c8d48eb	0.017246684
153	0xbc5ed27f	-0.013599991
154	0xbe41592e	-0.18881676
155	0xbc1b705b	-0.009487237
156	0xbcee2dbf	-0.029074548
157	0xbd1c8227	-0.03821006
158	0xbe4cffb8	-0.20019424
159	0xbd615693	-0.055014204
160	0x3dc56bbe	0.09639691
161	0x3e22d6f5	0.15902312
162	0xbdced687	-0.100995116
163	0x3e1602a9	0.14649452
164	0x3e0a9de5	0.13536794
165	0xbe437162	-0.19086221
166	0xbd50b71a	-0.05095587
167	0xbdab7eba	-0.083737805
168	0xbcebfc8b	-0.028806945
169	0xbc626d1d	-0.01381996
170	0xbd9d837d	-0.07691095
171	0xbcca9c5b	-0.02473276
172	0x3d46a96c	0.048501417
173	0x3cac3dad	0.021025503
174	0x3b937821	0.0045004045
175	0xbe02a9c2	-0.1276007
176	0xbd46fd4c	-0.048581406
177	0x3e0f0393	0.13966207
178	0x3cc91795	0.024547378
179	0x3df5400b	0.11975106
180	0x3e0353fe	0.12825009
181	0x3d4b0029	0.0495607
182	0xbced0d9b	-0.028937152
183	0x3cae5829	0.021282272
184	0x3d8c7cee	0.06859766
185	0xbb7e8982	-0.0038839285
186	0x3e5fd998	0.21860349
187	0xbd81094d	-0.06300602
188	0x3d8cc00c	0.068725675
189	0x3d8644c6	0.06556086
190	0xbb729cda	-0.003701976
191	0xbc466e31	-0.012111233
192	0xbe2611a0	-0.16217661
193	0x3d65600e	0.055999808
194	0xbd79ad25	-0.06095614
195	0xbda7c1ce	-0.08191262
196	0x3d82cf90	0.06387246
197	0xbe1b5494	-0.15168983
198	0xbd9c4a11	-0.076313145
199	0xbd309f42	-0.04312063
200	0x3d04440a	0.03229145
201	0x3d783c73	0.060604524
202	0x3e247ca1	0.16063167
203	0x3dbcd415	0.09220139
204	0xbd1c6982	-0.038186558
205	0x3d5b7716	0.053580366
206	0x3e2e3c0e	0.17015097
207	0xbdc86641	-0.097851284
208	0xbdbf3e7a	-0.09338088
209	0x3c8ecfab	0.017433008
210	0xbbb5b3d9	-0.005545121
211	0xbd3175ad	-0.043325115
212	0xbcc788ea	-0.024357278
213	0x3d7347aa	0.059394516
214	0x3e0356f0	0.12826133
215	0xbddb4b16	-0.10707681
216	0xbc32aa5d	-0.010904876
217	0xbdd91f92	-0.10601725
218	0x3b843836	0.004035021
219	0x3d8f33ce	0.06992303
220	0xbe02dd3c	-0.12779707
221	0x3d7a0fe9	0.06105033
222	0x3e0b2fc1	0.13592435
223	0xbdf47877	-0.11937039
224	0x3db84013	0.08996596
225	0xbdc8c094	-0.09802356
226	0xbd484cf5	-0.048901517
227	0xbdf56c99	-0.11983604
228	0x3e62331c	0.22089809
229	0xbdb29d45	-0.08721403
230	0x3de38f14	0.11111274
231	0xbe14653c	-0.14491743
232	0xbdeadeb2	-0.11468257
233	0x3b09d84c	0.0021033464
234	0xbe4a17b7	-0.19735609
235	0xbd6c6049	-0.057709012
236	0xbc825b6e	-0.015912738
237	0xbc8d89f8	-0.017277703
238	0x3d2e289f	0.042519208
239	0x3d68ddf0	0.05685228
240	0xbe279812	-0.16366604
241	0xbc9e7acc	-0.019345663
242	0xbe0fb056	-0.1403211
243	0x3ce8dbe6	0.028425168
244	0x3e158765	0.1460243
245	0x3ce6c85f	0.028171716
246	0x3c88d314	0.016702212
247	0x3def3e34	0.11681786
248	0xbd805449	-0.06266076
249	0xbd7b52da	-0.06135831
250	0x3dcfbf7c	0.101439446
251	0xbcf7bd10	-0.03024152
252	0x3da7626f	0.081730716
253	0xbdfac608	-0.12244803
254	0x3c155379	0.00911414
255	0xbd2b7a5b	-0.041864734

encoder_z0.GRU_update.reset_gate.2.bias f4 [20]
0	0x3d5ff976	0.054681264
1	0xbc3605d2	-0.011109786
2	0xbca81dbc	-0.020521991
3	0xbd62dc7d	-0.055386055
4	0xbb5fcb12	-0.003414814
5	0xbd000a40	-0.031259775
6	0xbd06a7b4	-0.032874778
7	0x3d2228a5	0.039589543
8	0xbd1aba32	-0.037775226
9	0x3d1ae232	0.037813373
10	0xbd47454e	-0.04865008
11	0xbd46ac8a	-0.04850439
12	0x3c3cb7fe	0.0115184765
13	0xbd8e3aae	-0.06944786
14	0xbc07a361	-0.008278699
15	0x3c7fa6c8	0.015603729
16	0x3d323411	0.043506686
17	0xbd142b40	-0.03617406
18	0xbcde3403	-0.02712441
19	0xbcffbe04	-0.031218536

encoder_z0.GRU_update.new_state_net.0.weight f4 [100, 42]
0	0x3dc591aa	0.09646924
1	0xbd6cee14	-0.057844236
2	0xbd8b5733	-0.06803741
3	0x3e44157f	0.19148825
4	0xbc6a4194	-0.014297862
5	0x3dcd75bf	0.10032224
6	0x3d440f51	0.04786617
7	0xbc98a7bf	-0.018634675
8	0x3d2ff326	0.042956494
9	0x3e119615	0.14217408
10	0xbdb112a8	-0.086461365
11	0xbcee1b9e	-0.029065903
12	0xbdf7e9ae	-0.12105118
13	0xbdbb17c0	-0.09135389
14	0xbe1ec79a	-0.1550583
15	0xbdbe5595	-0.09293667
16	0xbd64dc24	-0.055874005
17	0x3d05247b	0.032505494
18	0xbd64759a	-0.055776216
19	0xbad4e2d0	-0.0016241912
20	0x3e2d20e3	0.16907077
21	0xbd8a0202	-0.06738664
22	0xbd5540ee	-0.052063875
23	0xbe373cd3	-0.17894296
24	0xbe8fa854	-0.28058112
25	0x3de53125	0.11191014
26	0x3dd0e6d1	0.10200275
27	0x3e2afdb4	0.16698343
28	0xbd539312	-0.05165393
29	0x3c1cedfb	0.009578223
30	0xbd6b67d0	-0.05747205
31	0x3df1410e	0.11779986
32	0x3d0ba2eb	0.034090918
33	0xbe5bf756	-0.2148107
34	0x3d390617	0.045171823
35	0x3d00cb0e	0.031443648
36	0x3da0ec5f	0.07857584
37	0x3e333a87	0.17502795
38	0x3dde8a4c	0.10866222
39	0x3da544fd	0.08069799
40	0xbe87d35c	-0.26528442
41	0x3e22de8f	0.15905212
42	0x3d090193	0.033448767
43	0xbdfd602e	-0.123718604
44	0xbd551599	-0.05202255
45	0x3c05c166	0.008163786
46	0x3ddb3d0b	0.107050024
47	0xbddddb00	-0.108327866
48	0xbe1d5bd1	-0.15367056
49	0x3c7537f9	0.014966958
50	0x3daa62c8	0.08319622
51	0xbcdf290d	-0.027241254
52	0x3dabd9bd	0.0839114
53	0x3d6aea17	0.05735215
54	0xbdcb1189	-0.09915454
55	0xbe0e443d	-0.13893218
56	0x3c80de6d	0.01573106
57	0xbd117462	-0.035511382
58	0xbcfb8437	-0.030702693
59	0x3e137c91	0.14402987
60	0x3bbf3e80	0.005836308
61	0xbd3dc27d	-0.046328057
62	0xbe0c90df	-0.13727139
63	0x3cb1ace5	0.021688888
64	0xbbc4d5c2	-0.006006927
65	0x3cc8331b	0.024438431
66	0xbbf95159	-0.0076085743
67	0xbd597a38	-0.053095073
68	0x3d9824ee	0.07428919
69	0x3e6d7ebf	0.23192881
70	0xbd86ede7	-0.06588345
71	0x3d74aec2	0.059736975
72	0x3d748373	0.059695672
73	0x3db15320	0.08658433
74	0xbca20221	-0.019776406
75	0xbdc143cc	-0.09436759
76	0x3e3512b9	0.17682923
77	0x3e13c164	0.14429241
78	0x3d83e227	0.064396195
79	0xbd0508d8	-0.032479137
80	0x3dffe149	0.124941416
81	0x3d7e5a88	0.062098056
82	0x3db7a9c5	0.08967928
83	0x3d8ab006	0.06771855
84	0xbd8fb1b2	-0.070163146
85	0x3d08b059	0.033371303
86	0xbb90c4d9	-0.0044179973
87	0xbd6b2867	-0.057411578
88	0xbc7cbdbf	-0.015426098
89	0x3e05e082	0.13073924
90	0xbe266847	-0.16250716
91	0x3e2e7488	0.1703664
92	0xbd811b50	-0.063040376
93	0xbde121d2	-0.10992779
94	0x3d1954ce	0.03743439
95	0x3e4386cd	0.19094391
96	0xbd7dd3cf	-0.061969575
97	0x3d3c42c4	0.04596211
98	0xbdc14a0e	-0.09437953
99	0xbe4f825e	-0.20264575
100	0x3d2a44bb	0.041569453
101	0xbdc037a7	-0.09385615
102	0x3d5291c1	0.051408533
103	0x3dde8d19	0.10866756
104	0x3e7cb93b	0.24680035
105	0x3dfd7f96	0.12377851
106	0x3c8c2732	0.017108534
107	0xbb35a4be	-0.0027716602
108	0x3e306ae7	0.1722828
109	0xbdab2bd3	-0.08357968
110	0x3e1a2772	0.1505411
111	0x3e3f6977	0.18692575
112	0x3d980102	0.07422067
113	0x3e0af485	0.1356984
114	0x3d43ebdc	0.047832355
115	0xbacb75f7	-0.0015522827
116	0x3ddf01c0	0.10889006
117	0x3e5b55b5	0.21419413
118	0xbd709df9	-0.058744404
119	0xbc2ff1fc	-0.010738846
120	0x3cad535d	0.021157915
121	0xbc3e153c	-0.011601742
122	0xbd21bc6d	-0.039486337
123	0x3e0f32f5	0.13984282
124	0xbdb0d26c	-0.08633885
125	0xbe7f927a	-0.2495822
126	0xbde6035c	-0.112311095
127	0x3d2f8209	0.04284862
128	0xbe01eb72	-0.12687472
129	0xbdb25e46	-0.087093875
130	0xbd08b024	-0.033371106
131	0xbe199a80	-0.15000343
132	0x3d8f0304	0.06982997
133	0x3ca8e1db	0.020615509
134	0x3d322dcd	0.04350071
135	0xbb3424e4	-0.002748781
136	0xbd5e45d9	-0.05426583
137	0x3e34d234	0.17658311
138	0x3da7300a	0.081634596
139	0x3db9a05f	0.090637915
140	0xbc9c84cf	-0.019106297
141	0x3de636c8	0.112409174
142	0x3e258693	0.16164617
143	0x3ba02d22	0.0048881928
144	0x3aa8ad83	0.0012869093
145	0xbcc23c4f	-0.023710398
146	0x3a1ace85	0.00059054076
147	0xbe483427	-0.19551145
148	0xbd2c9e57	-0.042143192
149	0x3d179205	0.03700449
150	0x3d9c7741	0.076399334
151	0x3d2da529	0.042393837
152	0xbe23b0fc	-0.15985483
153	0x3d09eb48	0.033671647
154	0xbdcf1ed7	-0.10113304
155	0x3d776590	0.060399592
156	0xbd9c56db	-0.07633754
157	0x3d0a3aac	0.03374736
158	0xbe62a0b8	-0.22131622
159	0x3dab987c	0.083786935
160	0xbcccfee3	-0.025023883
161	0xbe92f100	-0.28699493
162	0x3e975c96	0.29562825
163	0x3d864127	0.065553956
164	0xbdf259bb	-0.11833521
165	0x3b853c23	0.0040660067
166	0x3d04101f	0.032241937
167	0x3def2603	0.11677172
168	0xbad969f3	-0.0016587361
169	0xbe337b2f	-0.1752746
170	0xbe110a02	-0.14163974
171	0xbe3024de	-0.17201564
172	0x3dafb4cd	0.08579407
173	0xbd55d33a	-0.052203394
174	0x3e4956e3	0.19662051
175	0xbe71538a	-0.23567024
176	0x3d8a6024	0.067566186
177	0x3df3d6e2	0.1190622
178	0xbdeb6147	-0.114931636
179	0xbdb66936	-0.08906786
180	0x3e2356bd	0.15951057
181	0xbba5cae3	-0.0050595864
182	0x3d375652	0.044760056
183	0x3d9b8388	0.07593447
184	0x3e5a6df9	0.21331014
185	0x3e337272	0.17524126
186	0xbc31d33b	-0.010853584
187	0xbca5c853	-0.020237124
188	0xbc7964ef	-0.015221818
189	0xbdbef109	-0.093233176
190	0xbe0933f9	-0.13398732
191	0x3cd81dc5	0.026381383
192	0xbd2b8337	-0.041873183
193	0xbdf6fa55	-0.12059466
194	0xbd21ef81	-0.03953505
195	0x3c88e02c	0.016708456
196	0xbb96b830	-0.0045995936
197	0xbe0b85c4	-0.13625246
198	0xbd081ae6	-0.033228777
199	0x3df23711	0.11826909
200	0x3d75611d	0.059907068
201	0x3d8c9f3e	0.068663105
202	0xbd75402c	-0.059875652
203	0xbd2af49a	-0.041737176
204	0xbde2a6c2	-0.11066963
205	0xbdb0248d	-0.086007215
206	0xbd4c5b59	-0.049891803
207	0x3c6977f7	0.014249793
208	0xbd217086	-0.03941395
209	0x3d294d9c	0.04133378
210	0xbdd27e33	-0.10277977
211	0xbd2bfef4	-0.04199119
212	0x3db29728	0.08720237
213	0xbe01ee03	-0.1268845
214	0xbddf7c39	-0.109123655
215	0x3bcfbea6	0.0063398657
216	0x3d876242	0.06610538
217	0xbe08e1a8	-0.13367331
218	0xbc6aff65	-0.014343117
219	0x3c6d824e	0.014496399
220	0xbd957b03	-0.07298853
221	0xbdffca28	-0.1248973
222	0xbe0a8a7f	-0.13529395
223	0x3e06df98	0.13171232
224	0x3aa2e397	0.0012427446
225	0xbd184617	-0.037176218
226	0xbe28b062	-0.16473535
227	0xbda4e70b	-0.080518804
228	0xbdd73517	-0.10508173
229	0xbe3fcfa4	-0.18731552
230	0xbd2f446d	-0.042789865
231	0x3dd0d789	0.1019736
232	0x3d4fff43	0.050780546
233	0x3d54e1fa	0.05197332
234	0xbe26d60f	-0.16292594
235	0xbe3527b1	-0.17690922
236	0xbd8582cb	-0.065190874
237	0xbdb82b12	-0.0899259
238	0x3e32c9c5	0.17459781
239	0x3db6d8a8	0.08928043
240	0xbe6629a3	-0.2247682
241	0x3e1b2256	0.15149817
242	0xbe698cdc	-0.2280764
243	0xbca5fc3f	-0.020261882
244	0xbd70f8de	-0.05883109
245	0xbd8b4d9d	-0.06801913
246	0x3df94c55	0.12172762
247	0x3d16fe9c	0.03686391
248	0xbd28f63d	-0.041250456
249	0xbe3b1ab3	-0.18271904
250	0xbd82e1eb	-0.06390747
251	0x3bb338c8	0.0054694153
252	0xbd3283f9	-0.04358289
253	0x3e295cb1	0.16539265
254	0x3e11c6a9	0.14235939
255	0xbda2ef9a	-0.079558566

encoder_z0.GRU_update.new_state_net.0.bias f4 [100]
0	0x3cb33606	0.021876346
1	0x3d51bfef	0.051208433
2	0x3d2885f2	0.041143365
3	0xbbf41b1e	-0.0074495217
4	0xbc983c97	-0.018583579
5	0xbc0d9c0c	-0.0086431615
6	0xbbd57265	-0.006513881
7	0xbd5402f8	-0.051760644
8	0xbc5590fa	-0.013035053
9	0xbc7f4816	-0.0155811515
10	0xbd4e16ec	-0.05031483
11	0x3c772bc4	0.015086118
12	0xbd3c171b	-0.045920473
13	0x3cfab06d	0.030601704
14	0x3cbaf15e	0.022820171
15	0x3c8791c2	0.016548995
16	0x3c054806	0.0081348475
17	0xbcba5079	-0.02274345
18	0xbc717502	-0.0147373695
19	0xbd03cd3f	-0.03217816
20	0x3d060991	0.032723967
21	0xbca983d8	-0.02069275
22	0x3d04fb5c	0.032466277
23	0xbda58684	-0.080822974
24	0xbbcf795e	-0.006331607
25	0x3c386e55	0.011256774
26	0xbcbd1849	-0.02308287
27	0xbc51dfde	-0.012809722
28	0x3b91d76a	0.004450728
29	0x3c0f3229	0.008739986
30	0x3c9f4ec6	0.019446742
31	0x3d0b58c3	0.034020197
32	0x3d176fca	0.036971845
33	0x3d5f3eb2	0.05450315
34	0x3db52d88	0.08846575
35	0xbcae0c26	-0.021246027
36	0xbc82aae7	-0.015950633
37	0x3c63b0c1	0.013897122
38	0xbb861641	-0.0040920083
39	0x3b80272e	0.0039109206
40	0xbd014831	-0.031562988
41	0xbc9864bf	-0.018602727
42	0xbaeb67ae	-0.0017959976
43	0xbc426f7d	-0.011867401
44	0x3ba6b695	0.0050876834
45	0xbc926d4c	-0.017874382
46	0x3baa9da2	0.0052067796
47	0x3c66e251	0.014092044
48	0xbbbdab07	-0.0057882103
49	0x3ccf0a3b	0.025273433
50	0xbd067ec1	-0.032835726
51	0xbcf3d33c	-0.02976381
52	0x3d4b3656	0.049612366
53	0x3c8c5845	0.017131934
54	0xbd3be80e	-0.0458756
55	0xbd79fc3d	-0.06103157
56	0x3cb58832	0.02215967
57	0xbcb6b51d	-0.022303158
58	0x3cba58d0	0.022747427
59	0x3bdd5a55	0.006755153
60	0xbc509415	-0.012730618
61	0xbce1d9d0	-0.027569681
62	0xbc19c05c	-0.009384241
63	0xbd318701	-0.04334164
64	0xbd9af9e3	-0.07567193
65	0x3d003984	0.03130485
66	0xbd13b9e8	-0.036065966
67	0x3d23ac0e	0.039959006
68	0xbc79ddc8	-0.015250631
69	0xbcf4380d	-0.029811883
70	0xbc96b6ce	-0.018397715
71	0xbc3f5c9c	-0.011679795
72	0xbd38b4cc	-0.045094296
73	0x3c82be5b	0.01595991
74	0xbbaafd52	-0.0052181864
75	0xba8a5b7f	-0.0010555832
76	0xbd1733af	-0.036914524
77	0x3aab0372	0.0013047291
78	0x3ceac374	0.028657652
79	0x3cda0dde	0.02661794
80	0xbc7250f6	-0.01478981
81	0xbc662251	-0.014046268
82	0xbc524ca7	-0.012835658
83	0x3d2d7f76	0.042357884
84	0x3cfcb560	0.030848205
85	0x3d4248ee	0.047432832
86	0x3c29d7e0	0.01036641
87	0xbcc8ce4d	-0.024512434
88	0xbcc90e89	-0.024543064
89	0x3caa5066	0.02079029
90	0x3d43bfe2	0.047790416
91	0xbcfed681	-0.031108143
92	0x3cf52431	0.029924484
93	0x3c64e533	0.013970661
94	0x3d3136e6	0.043265246
95	0x3d00bdb2	0.031430908
96	0x3d372f50	0.044722855
97	0xbd071efa	-0.032988526
98	0xbcdd8955	-0.027043024
99	0x3d7bd60e	0.061483435

encoder_z0.GRU_update.new_state_net.2.weight f4 [40, 100]
0	0xbe73273e	-0.23745438
1	0x3e38282a	0.17984071
2	0xbdbd098a	-0.09230335
3	0xbdbd4eb1	-0.09243525
4	0xbe01005c	-0.12597793
5	0xbd453156	-0.048142754
6	0xbc5baa0e	-0.013407243
7	0x3cf4a152	0.02986208
8	0x3d993350	0.0748049
9	0x3cbe5abf	0.02323663
10	0xbe2051c2	-0.15656188
11	0x3e519e11	0.20470454
12	0x3d9d52f8	0.07681841
13	0xbe29701e	-0.16546676
14	0x3e3e45a1	0.18581249
15	0x3e7ada00	0.24497223
16	0xbc565c4f	-0.0130835315
17	0x3e12fe86	0.14354905
18	0xbd9d3846	-0.07676749
19	0xbe8ae3d2	-0.27126938
20	0x3d18a4ec	0.037266657
21	0xbe036c48	-0.12834275
22	0xbc36e8e5	-0.011163925
23	0xbd27164e	-0.040792756
24	0xbd5ec80c	-0.05439
25	0x3db9dc27	0.09075194
26	0xbd978227	-0.073978715
27	0xbddd56b0	-0.1080755
28	0x3e18014d	0.14844246
29	0x3d9792fc	0.07401082
30	0x3cc212fa	0.02369069
31	0xbda3cce6	-0.07998066
32	0xbd3d3328	-0.046191365
33	0xbd6c9443	-0.05775858
34	0xbe5969e6	-0.21231803
35	0xbc5bc1f6	-0.013412943
36	0xbd095cfb	-0.03353594
37	0xbbd94a30	-0.0066311583
38	0x3df7bd5c	0.12096664
39	0x3d61d7a9	0.05513731
40	0x3bb63f36	0.0055617345
41	0x3e70a353	0.23499803
42	0xbc5ba46c	-0.0134059
43	0xbc544c7f	-0.012957691
44	0xbda9a3a1	-0.08283163
45	0x3de227bf	0.11042737
46	0x3d92bdcf	0.07165109
47	0xbe115daa	-0.14195886
48	0x3e17028e	0.14747068
49	0xbd433887	-0.04766133
50	0xbd67a96c	-0.056558058
51	0x3c4285c9	0.011872717
52	0x3d7215ad	0.059102703
53	0x3db4be06	0.088253066
54	0xbd4d1598	-0.05006942
55	0xbc9ecc8a	-0.019384641
56	0x3cb212bb	0.021737447
57	0x3cb2d79c	0.021831326
58	0x3c5218c9	0.012823292
59	0x3a0e0b2e	0.0005418536
60	0xbdaa55e0	-0.083171606
61	0x3d8f9451	0.07010711
62	0x3d999b58	0.075003326
63	0xbd0a20c1	-0.033722643
64	0x3c19c31f	0.009384899
65	0x3da59e94	0.08086887
66	0xbd98d961	-0.07463337
67	0xbd2dbf32	-0.042418666
68	0x3cb65335	0.022256473
69	0xbe2012be	-0.1563215
70	0x3deb0419	0.11475391
71	0xbe2e9bfa	-0.17051688
72	0xbd940a41	-0.07228518
73	0xbd33b330	-0.04387206
74	0x3cd701f7	0.026246054
75	0xbeb10fd8	-0.345824
76	0x3c104358	0.0088051185
77	0x3da37cec	0.07982811
78	0x3ddb08de	0.10695051
79	0x3e1d7cd6	0.15379652
80	0xbe4184a5	-0.18898256
81	0x3bd50a04	0.006501438
82	0xbda56233	-0.08075371
83	0xbb2251c9	-0.0024767986
84	0xbe0651af	-0.13117097
85	0xbd567f80	-0.052367687
86	0x3dd50709	0.104017325
87	0xbd869c58	-0.06572789
88	0x3e1fdcd2	0.1561158
89	0x3cd600a3	0.02612335
90	0xbcab108e	-0.020881917
91	0xbbf2f28e	-0.0074141687
92	0x3e226fad	0.15862913
93	0x3dbce0a8	0.09222537
94	0x3d884a16	0.06654756
95	0xbdab9a58	-0.08379048
96	0x3c752e6d	0.014964682
97	0x3de29591	0.11063684
98	0x3db82ac5	0.08992533
99	0x3db92469	0.09040148
100	0x3c2d5771	0.01057993
101	0x3da9d10f	0.08291828
102	0xbc7c82c5	-0.015412037
103	0xbd99249d	-0.074776866
104	0x3d6596b1	0.056051914
105	0x3d205f4c	0.039153382
106	0xbba7ddab	-0.0051228604
107	0x3ce44b57	0.027867956
108	0xbd06de20	-0.03292668
109	0xbda69d78	-0.081355035
110	0xbaa9a5e1	-0.0012943113
111	0xbd45b38d	-0.048266936
112	0x3cec6496	0.028856557
113	0x3aa340e7	0.0012455255
114	0xbe71fb51	-0.23631026
115	0xbe24bf4f	-0.16088603
116	0xbd0c60db	-0.034272056
117	0x3e081179	0.13287915
118	0xbdcdc558	-0.10047406
119	0x3db7cbfe	0.08974455
120	0xbd1d2fe4	-0.03837575
121	0x3d2e1c92	0.042507716
122	0x3dc094c6	0.09403376
123	0x3e027f7e	0.12743947
124	0x3cb12e43	0.021628505
125	0x3cef7cbc	0.029234283
126	0xbd29b48c	-0.04143195
127	0x3cb260c8	0.021774665
128	0xbd3d14c2	-0.046162374
129	0xbd11c0a3	-0.035584103
130	0x3b45f847	0.00302078
131	0xbd598798	-0.053107828
132	0xbcba0fb1	-0.02271256
133	0x3dfa795f	0.12230181
134	0x3c02a424	0.0079737045
135	0xbd0f8757	-0.03504118
136	0x3e1e9566	0.15486678
137	0xbcb721c3	-0.022354966
138	0xbde365a1	-0.111033686
139	0x3d6b7603	0.05748559
140	0xbc451eda	-0.012031281
141	0x3cce1c78	0.02516006
142	0x3e0b2e13	0.13591795
143	0x3c63502f	0.013874098
144	0x3daacf29	0.08340294
145	0xbb0428d0	-0.0020165928
146	0x3d35d2f5	0.044390637
147	0x3de0184a	0.10942133
148	0x3d55762a	0.052114643
149	0xbdbb92b9	-0.091588445
150	0x3e54a177	0.20764719
151	0xbe34e879	-0.17666806
152	0xbd257e30	-0.040403545
153	0x3e0fe0e3	0.14050631
154	0xbc98a088	-0.018631235
155	0x3dcc3f63	0.099730276
156	0xbdb8c94b	-0.090227686
157	0xbd96ad73	-0.073573016
158	0x3c4c4e8c	0.012469899
159	0x3d303118	0.04301557
160	0x3c908953	0.017643606
161	0x3d270a4f	0.040781315
162	0x3e6673bd	0.22505088
163	0xbd5680af	-0.052368816
164	0xbd61285b	-0.054970127
165	0xbc2818d0	-0.010259822
166	0x3d74fdef	0.059812482
167	0xbce66029	-0.028122025
168	0x3e201833	0.15634231
169	0x3d4f5e87	0.050627258
170	0xbdc440c0	-0.095826626
171	0xbe0433b6	-0.12910351
172	0xbcebdacd	-0.028790856
173	0xbe0a8eba	-0.13531008
174	0xbdbebebe	-0.09313725
175	0x3cec1873	0.028820252
176	0x3e8e4402	0.2778626
177	0xbc745836	-0.014913609
178	0xbdc55599	-0.09635467
179	0xbd4f3cca	-0.050595082
180	0x3e14dbfb	0.14537041
181	0x3ccbd421	0.024881424
182	0x3dec5b99	0.11540908
183	0x3dd2a638	0.1028561
184	0x3dff2808	0.12458807
185	0x3cc5632c	0.02409514
186	0x3d2a2b44	0.041545168
187	0x3d9cf84b	0.076645456
188	0xbd26935f	-0.040667888
189	0xbd3c5a55	-0.045984585
190	0xbdd899d7	-0.105762176
191	0x3de5d508	0.11222273
192	0x3cf9aeb9	0.030478822
193	0x3c652a5f	0.013987153
194	0xbdbf5283	-0.0934191
195	0xbdf236e0	-0.11826873
196	0x3df65c7b	0.12029358
197	0xbdebc648	-0.115124285
198	0x3d98910b	0.0744954
199	0xbda075cb	-0.07834967
200	0xb82720c0	-3.9846404e-05
201	0xbc8134b9	-0.01577221
202	0x3c2941f8	0.01033067
203	0x3d370f61	0.0446924
204	0xbdce1042	-0.10061695
205	0x3daf3c28	0.08556396
206	0x3d7e8b0c	0.062144324
207	0xbce7f823	-0.028316563
208	0x3e3b71eb	0.18305175
209	0x3d878d83	0.06618788
210	0x3cf1c7b3	0.02951417
211	0xbc068e93	-0.008212703
212	0x3d6c0933	0.05762596
213	0x3db5f2bc	0.088841885
214	0x3d1e7873	0.038689088
215	0xbe04dcde	-0.12974879
216	0xbdc8b816	-0.098007366
217	0xbcf5f3d8	-0.0300235
218	0x3c4bfc24	0.012450252
219	0x3e7cb7b8	0.24679458
220	0x3e1f7346	0.15571317
221	0xbd4cb2ea	-0.049975313
222	0xbe14fdc2	-0.14549926
223	0xbe050205	-0.12989052
224	0xbc9a7e54	-0.018859066
225	0x3ced54b2	0.02897105
226	0x3d65c7cd	0.056098748
227	0x3e16a28c	0.14710444
228	0x3e0c20cd	0.13684388
229	0xbd1934f8	-0.03740403
230	0xbe364d96	-0.17803034
231	0x3e04fea4	0.12987763
232	0xbdd104d1	-0.10205997
233	0xbe31dfa6	-0.17370471
234	0xbd966bd5	-0.07344786
235	0x3e113522	0.14180425
236	0xbd0c88fc	-0.034310326
237	0xbd42a0d7	-0.04751667
238	0x3d840736	0.06446688
239	0x3e08cb70	0.13358855
240	0xbd99fff7	-0.075195245
241	0x3c83e92f	0.016102402
242	0x3d2636c6	0.04057958
243	0xbd312e97	-0.043257322
244	0xbda4b734	-0.08042756
245	0x3e405ba4	0.18784958
246	0x3e134193	0.14380483
247	0x3d03c82c	0.03217332
248	0xbd988ad4	-0.07448354
249	0xbd3e6f41	-0.04649282
250	0x3dc76e99	0.09737892
251	0x3d8e9ada	0.06963129
252	0x3990f4cc	0.00027648208
253	0xbc9668e2	-0.018360559
254	0x3b22a546	0.002481775
255	0x3e07e974	0.13272649
