latent_ode/experiments/experiment_25803.ckpt (torch, 226283 bytes, 29 tensors)

encoder_z0.GRU_update.update_gate.0.weight f4 [100, 42]
-0.0005851685 -0.017642718 -0.11646883 0.07016983 -0.16307943 0.2974241 0.064170435 -0.07565418
0.047862332 0.045561098 -0.123421356 0.19803514 0.24640504 0.02877854 -0.0880557 -0.21377175
0.03562077 -0.06194025 -0.08335673 0.20115307 -0.08559192 -0.020886255 -0.08726238 -0.17939389
-0.090628885 0.11148304 -0.01841339 -0.15108633 0.038688254 0.0944403 0.029516941 -0.08680827
0.003168079 0.14861082 -0.09406277 -0.03858106 -0.12184868 0.043098994 0.048059024 -0.3765732
0.075070165 -0.060001653 0.2575711 0.08114276 0.016170455 -0.08477436 -0.029190132 0.17287625
-0.08037124 -0.010019106 0.05123537 -0.21211514 0.25923362 -0.053041063 -0.058237683 0.011009953
-0.009754554 -0.12443485 -0.12127342 0.13350374 0.07446036 -0.030976117 0.07424791 -0.0030646275
-0.08147479 0.10696795 0.0891255 -0.024647124 0.024668442 0.11601272 0.089749165 0.044368472
-0.08133537 -0.13591428 -0.036090303 0.009771696 0.043783467 -0.01713818 0.04034942 -0.18040729
-0.06262168 -0.02462828 0.1760496 -0.08461073 0.11686418 0.045958664 -0.06117643 -0.052532364
0.008282348 0.12185698 0.28575015 0.12830628 0.19307697 -0.059562117 0.10609735 0.011733979
0.013805452 -0.14110197 -0.03267123 -0.023479028 -0.10197182 0.061447084 -0.07471268 0.001178379
0.06844082 -0.20419604 -0.050675035 -0.054462485 -0.038667277 -0.112400055 -0.007692481 -0.13491769
0.194187 -0.10301001 0.057242576 -0.013531589 0.017081015 0.36732602 0.08181987 0.08841635
-0.017432936 0.04557176 -0.09621675 -0.010993981 -0.015098828 -0.061411176 -0.18453604 0.12500335
-0.07520052 -0.055899803 0.08176758 0.057663843 0.07146705 -0.18166119 0.09489037 -0.043931037
-0.15421425 0.09886529 0.0644061 -0.06328707 0.09503632 0.05989478 -0.03892866 0.09759542
-0.15094349 0.0063607763 -0.07638534 -0.08158171 -0.1496256 -0.008740009 -0.12381627 -0.11807432
-0.11378425 -0.018873626 0.033360995 0.07032595 0.006455208 0.09800868 0.13985357 0.04025545
-0.09429622 0.021523125 -0.03495291 0.021329425 -0.11768614 -0.08889052 0.3074614 -0.037116032
-0.13634215 0.22246738 0.043593403 0.03562555 0.071812965 -0.20188592 0.06938068 -0.19775395
-0.011463618 0.26624316 -0.23219718 0.0887586 -0.019757785 0.047631454 -0.039296854 -0.1050816
0.041109353 0.02493442 -0.1155435 -0.048752613 0.0463324 -0.009980343 0.17995489 -0.10967274
0.15071128 0.016198631 0.12887992 -0.07938543 0.042698067 -0.0022950815 0.014801529 -0.023116963
-0.12952553 0.10495121 0.0020368763 -0.18410066 0.1653858 0.06806063 0.104680456 -0.17158124
-0.014799928 0.13533269 -0.10572195 -0.14725335 0.06214944 -0.13008952 -0.0031207448 -0.09686268
0.06666459 0.12295209 0.15805818 -0.049068976 0.094248876 -0.038702745 -0.0003409317 -0.016751409
-0.076502964 0.08768059 0.08944784 -0.21278596 -0.027630242 0.036446556 -0.056403913 0.12895878
-0.014886323 -0.08118704 -0.13131699 0.06121492 -0.10128176 -0.021805815 0.049738772 -0.16748749
0.012623428 -0.15003462 -0.15453905 0.061074138 0.019830726 -0.035119038 0.009555086 -0.002802575
-0.009632643 0.085064076 0.12658797 -0.096549325 -0.041691046 -0.13567564 0.008487236 0.09975831
00000000: fe65 19ba 7687 90bc 3687 eebd 33b5 8f3d
00000010: 4bfe 26be f947 983e ca6b 833d 94f0 9abd
00000020: 4b0b 443d 469e 3a3d 56c4 fcbd b9c9 4a3e
00000030: 9a51 7c3e f9c0 eb3c 8c56 b4bd fbe6 5abe
00000040: 16e7 113d 0fb5 7dbd efb6 aabd 12fb 4d3e
00000050: d14a afbd a719 abbc 9eb6 b2bd 08b3 37be
00000060: a39b b9bd 3851 e43d add7 96bc 60b6 1abe
00000070: 9377 1e3d ea69 c13d 83cd f13c 89c8 b1bd
00000080: 8c9f 4f3b 6f2d 183e fba3 c0bd 2c07 1ebd
00000090: cd8b f9bd 9288 303d 8ad9 443d 34ce c0be
000000a0: 63be 993d 4bc4 75bd 5ce0 833e 2d2e a63d
000000b0: e777 843c 2e9e adbd 2520 efbc 7906 313e
000000c0: ad99 a4bd 2d27 24bc 2edc 513d b634 59be
000000d0: 45ba 843e 9641 59bd a38a 6ebd 1763 343c
000000e0: 91d1 1fbc b3d7 febd 335e f8bd 34b5 083e
000000f0: ac7e 983d a0c1 fdbc 4a0f 983d ebd7 48bb
00000100: 41dc a6bd 0312 db3d 6e87 b63d c4e8 c9bc
00000110: 7915 ca3c 1498 ed3d 69ce b73d b7bb 353d
00000120: 2993 a6bd 1d2d 0bbe 6dd3 13bd 7719 203c
00000130: 4b56 333d 5e65 8cbc 6f45 253d b0bc 38be
00000140: cc3f 80bd 3fc1 c9bc 5946 343e 6448 adbd
00000150: 7d56 ef3d 273f 3c3d 2394 7abd 2d2c 57bd
00000160: afb2 073c 2790 f93d d84d 923e b962 033e
00000170: f8b5 453e 68f7 73bd 9149 d93d e03f 403c
00000180: 4330 623c 097d 10be 45d2 05bd 1757 c0bc
00000190: 9ad6 d0bd f0af 7b3d f602 99bd d773 9a3a
000001a0: b32a 8c3d c418 51be a090 4fbd 0e14 5fbd
000001b0: 9461 1ebd 0032 e6bd 3511 fcbb dd27 0abe
000001c0: f5d8 463e eaf6 d2bd 3177 6a3d 99b3 5dbc
000001d0: 7ced 8b3c 2812 bc3e 2d91 a73d a213 b53d
000001e0: 84cf 8ebc 74a9 3a3d 4a0d c5bd 1920 34bc
000001f0: 1361 77bc 498a 7bbd 04f7 3cbe e100 003e
00000200: bb02 9abd 31f7 64bd c375 a73d ec30 6c3d
00000210: 515d 923d 6405 3abe e255 c23d 08f1 33bd
00000220: 57ea 1dbe e379 ca3d 58e7 833d a79c 81bd
00000230: 67a2 c23d 3b54 753d a973 1fbd 1ce0 c73d
00000240: ee90 1abe 0f6e d03b eb6f 9cbd 5014 a7bd
00000250: 7437 19be 4132 0fbc 6293 fdbd f3d0 f1bd
00000260: b807 e9bd dd9c 9abc 8aa5 083d 0d07 903d
00000270: 3686 d33b c6b8 c83d c635 0f3e e6e2 243d
00000280: 601e c1bd 4451 b03c c82a 0fbd 0cbb ae3c
00000290: 6e05 f1bd 3c0c b6bd 956b 9d3e fb06 18bd
000002a0: 479d 0bbe 7dce 633e ff8e 323d 19ec 113d
000002b0: ad12 933d 2fbb 4ebe 7517 8e3d 0380 4abe
000002c0: e6d1 3bbc 0651 883e 19c5 6dbe 12c7 b53d
000002d0: 14db a1bc 3319 433d bdf5 20bd 0635 d7bd
000002e0: 4862 283d 4543 cc3c 12a2 ecbd d2b0 47bd
000002f0: 0bc7 3d3d 9884 23bc 1846 383e 1a9c e0bd
00000300: 0f54 1a3e feb2 843c 19f9 033e d494 a2bd
00000310: 2be4 2e3d 1469 16bb 1d82 723c c95f bdbc
00000320: 57a2 04be a9f0 d63d 1d7d 053b e284 3cbe
00000330: e55a 293e 5f63 8b3d b562 d63d feb2 2fbe
00000340: 667b 72bc a794 0a3e c084 d8bd 95c9 16be
00000350: 6990 7e3d 3036 05be 6985 4cbb f15f c6bd
00000360: 7287 883d 4ece fb3d 01da 213e 8dfc 48bd
00000370: 8e05 c13d c586 1ebd 14bf b2b9 403a 89bc
00000380: 96ad 9cbd e291 b33d 6e30 b73d 90e4 59be
00000390: d158 e2bc fc48 153d ca07 67bd c50d 043e
000003a0: c4e5 73bc 6445 a6bd f677 06be 7fbc 7a3d
000003b0: d06c cfbd 1ca2 b2bc e2ba 4b3d d781 2bbe
000003c0: 7fd2 4e3c ada2 19be 7c3f 1ebe e028 7a3d
000003d0: 0c74 a23c fbd8 0fbd ef8c 1c3c 68ab 37bb
000003e0: 3cd2 1dbc 1336 ae3d 47a0 013e a7bb c5bd
000003f0: 3bc4 2abd 8eee 0abe 0c0e 0b3c 164e cc3d

encoder_z0.GRU_update.update_gate.0.bias f4 [100]
-0.00399736 -0.016178243 -0.029163972 -0.027753007 0.0011140998 -0.032725845 -0.054730475 -0.003762959
-0.028039336 0.011024359 -0.005022639 0.006555385 -0.05460158 0.00055139995 -0.05233644 0.055138092
0.02512029 -0.031527303 0.016443906 0.046123277 -0.015681561 0.078911886 -0.05355039 0.0020809
0.0029216455 -0.03807991 0.026046319 -0.05842685 0.0038281002 -0.03472971 0.03186418 0.021465886
0.009960123 0.010945245 0.021741986 -0.032939233 -0.028830035 0.0054331087 -0.0044600912 -0.03441643
0.020805672 0.02299757 -0.0034553865 0.050331626 -0.009741713 -0.012409949 -0.013718693 0.0024990945
-0.0011733306 -0.013702113 -0.018842986 0.043101802 0.041818526 0.05442014 0.017323682 -0.026358094
0.042138815 -0.028800718 -0.017989941 -0.017436445 0.0027548552 -0.021219252 0.024678856 -0.033428438
0.014390249 -0.049066745 0.0105103245 0.0050900043 -0.025514757 -0.024566002 -0.03211391 -0.015841985
0.02928316 0.013733526 -0.004991224 -0.0009113565 0.031733535 0.021879962 -0.018216293 -0.030643443
-0.0041481736 -0.05431515 -0.0024886793 -0.005478328 0.00052432524 0.008919531 -0.0035562613 0.0335328
0.034088623 -0.013077012 -0.019457601 0.015828313 -0.01867198 0.064160354 -0.02107516 0.017924497
-0.01882593 -0.027493678 0.036657136 0.039373517
00000000: 49fc 82bb 3c88 84bc 48e9 eebc 465a e3bc
00000010: fc06 923a 890b 06bd 102d 60bd fa9b 76bb
00000020: c0b2 e5bc 839f 343c f394 a4bb 8ece d63b
00000030: e8a5 5fbd d38b 103a bc5e 56bd 7bd8 613d
00000040: 11c9 cd3c c622 01bd 5fb5 863c c3eb 3c3d
00000050: 9e76 80bc 8e9c a13d a757 5bbd b55f 083b
00000060: 1479 3f3b aef9 1bbd 175f d53c fe50 6fbd
00000070: dde0 7a3b be40 0ebd 0484 023d 3ad9 af3c
00000080: c92f 233c af53 333c 401c b23c 4aeb 06bd
00000090: f72c ecbc 3808 b23b f525 92bb 3ef8 0cbd
000000a0: a870 aa3c 6665 bc3c c473 62bb 8928 4e3d
000000b0: b59b 1fbc 1953 4bbc 5ec4 60bc d9c7 233b
000000c0: 71ca 99ba d47e 60bc 9b5c 9abc 848b 303d
000000d0: e749 2b3d a7e7 5e3d 65ea 8d3c eeec d7bc
000000e0: c099 2c3d 7cef ebbc a45f 93bc e0d6 8ebc
000000f0: cd8a 343b ffd3 adbc 502b ca3c 42ec 08bd
00000100: 14c5 6b3c 36fa 48bd 7f33 2c3c 0dca a63b
00000110: 5304 d1bc a43e c9bc e089 03bd 0dc7 81bc
00000120: 3de3 ef3c 9502 613c 6c8d a3bb 19e8 6eba
00000130: 06fb 013d 9b3d b33c 563a 95bc f507 fbbc
00000140: 67ed 87bb 9079 5ebd 1c19 23bb 8c83 b3bb
00000150: df72 093a 3923 123c 2a10 69bb b059 093d
00000160: 83a0 0b3d f740 56bc 8c65 9fbc 61aa 813c
00000170: fbf5 98bc 8166 833d d0a5 acbc 65d6 923c
00000180: d638 9abc 6c3a e1bc cb25 163d 2046 213d

encoder_z0.GRU_update.update_gate.2.weight f4 [20, 100]
-0.14881855 0.014955609 0.0074927243 -0.014599354 -0.029972116 -0.21306713 -0.15855677 0.103843875
0.19946446 0.039977252 -0.16034241 0.04202331 -0.12972319 -0.12690368 -0.19492732 0.0719745
0.16953759 -0.12411975 0.031784818 0.22330438 0.048376963 0.16010629 -0.14676602 -0.05995193
-0.06571948 -0.12926471 -0.118769474 -0.13430206 -0.09531136 0.12773901 -0.03177926 0.09655309
0.11040494 0.09107492 0.19698896 -0.07903837 0.038290072 0.003319671 -0.1756953 0.09580183
-0.1099833 0.095924236 0.27634335 0.111399725 0.02105318 -0.0057445276 -0.09907596 0.054935206
0.110704355 0.010952196 -0.011671199 0.07004214 0.3140109 0.12357427 -0.020900948 -0.11709071
0.07529735 -0.15076672 -0.0009466077 0.03293419 0.04904661 0.006140723 0.15071763 -0.032786787
0.10896013 -0.19650216 0.045085058 0.047231752 0.06854487 -0.094263755 0.080390595 -0.065984845
0.0075995303 0.14696561 0.08885098 -0.038885947 0.14843741 0.10423751 0.05448728 -0.09865089
-0.073515885 -0.1736007 -0.010160092 0.07030858 -0.011349753 -0.052989084 -0.057875272 -0.025058063
-0.025233027 -0.07769661 0.005612325 0.05074147 -0.2666087 0.0479492 -0.02370318 0.025855983
-0.122751184 0.038782105 -0.054506563 0.014610881 0.057561763 0.2260808 -0.18771511 -0.15217754
0.14927067 -0.104132704 -0.017924326 0.22160368 0.16554835 0.0010294897 -0.004118585 -0.12496376
-0.11254529 0.10652099 -0.02092603 0.0043806494 -0.11261569 -0.033078462 -0.032605685 0.1327167
0.08167265 -0.18400235 -0.018169295 -0.07682105 -0.005399008 0.08856047 -0.034490425 0.06284275
-0.11567039 -0.12843847 0.115044065 0.09786959 -0.0047352626 0.12566155 -0.08844987 0.0071898075
0.009391634 -0.088429876 0.2024736 -0.030998966 0.044650782 0.07628491 0.004923925 -0.069503896
-0.09244757 0.009119333 -0.041204475 -0.13965197 -0.06043628 0.046411723 0.013912505 -0.09617976
-0.13912529 -0.16280752 0.086033456 -0.073678195 -0.21395355 -0.04422031 -0.008705751 -0.037636913
-0.16343045 -0.027932482 0.052518353 -0.06790178 -0.11388698 0.09950578 -0.037949428 0.033125833
0.002506328 -0.19128272 0.015931133 0.103589445 -0.016298234 -0.026300834 0.14169845 0.036763676
-0.19444051 -0.05868467 -0.08112508 0.036525544 -0.12605186 0.13452677 -0.1452194 0.08469234
0.12444404 -0.018816132 -0.119183846 -0.10291151 -0.023880308 0.059381012 0.02595939 -0.013674694
-0.018713798 -0.009142597 0.026308697 -0.079978466 -0.08020356 0.19187039 0.06457839 -0.11724896
0.103612185 0.12127864 0.008200072 0.027173262 -0.012621806 0.117141746 -0.13982403 0.02144877
-0.19566226 -0.06683633 -0.018458419 0.058293518 0.04471452 0.054828368 0.058754344 0.17241517
-0.027151948 -0.11495499 0.24442229 0.07457583 -0.05125573 0.020909762 -0.1697688 -0.1080918
0.12151705 -0.09307412 0.058110323 0.037740182 -0.0058279834 -0.033872947 0.11389726 0.0930915
-0.2204826 -0.015949208 -0.07487868 -0.03547839 0.048186697 -0.044306714 0.029270258 -0.15702522
0.05190465 -0.04573272 0.11856767 0.104216516 -0.09955451 -0.06541102 0.024297722 -0.11329973
0.0015571895 0.114639975 -0.22314714 0.1236381 0.044849154 0.029922798 -0.076055355 -0.07733432
00000000: e463 18be 5f08 753c 8785 f53b 2132 6fbc
00000010: 1588 f5bc 452e 5abe b55c 22be 19ac d43d
00000020: 6940 4c3e 30bf 233d cd30 24be a220 2c3d
00000030: 28d6 04be 0af3 01be 079b 47be 5e67 933d
00000040: 439b 2d3e 7f32 febd cc30 023d e7a9 643e
00000050: ec26 463d e7f2 233e d549 16be 2890 75bd
00000060: ef97 86bd f85d 04be 693d f3bd 7b86 09be
00000070: 9a32 c3bd 04ce 023e f82a 02bd a0bd c53d
00000080: fc1b e23d 7d85 ba3d 79b7 493e dede a1bd
00000090: 0dd6 1c3d d68e 593b 78e9 33be c033 c43d
000000a0: ed3e e1bd ed73 c43d e07c 8d3e 8a25 e43d
000000b0: b877 ac3c 973c bcbb 56e8 cabd bd03 613d
000000c0: f7b8 e23d d770 333c 8f38 3fbc 4172 8f3d
000000d0: 09c6 a03e 8214 fd3d 7738 abbc 41cd efbd
000000e0: 7f35 9a3d 9762 1abe c425 78ba 00e6 063d
000000f0: 19e5 483d 1e38 c93b b955 1a3e 704b 06bd
00000100: 7d26 df3d dd37 49be 1cab 383d 1576 413d
00000110: 4161 8c3d 5b0d c1bd d3a3 a43d 1023 87bd
00000120: 7b05 f93b 277e 163e 81f7 b53d df46 1fbd
00000130: faff 173e 7a7a d53d 0e2e 5f3d 7a09 cabd
00000140: 7f8f 96bd 62c4 31be 8476 26bc f2fd 8f3d
00000150: 50f4 39bc 150b 59bd 9f0e 6dbd 9146 cdbc
00000160: 7eb5 cebc 661f 9fbd 98e7 b73b 4ad6 4f3d
00000170: ef80 88be 6166 443d 2c2d c2bc edcf d33c
00000180: f964 fbbd fcd9 1e3d 4642 5fbd 7a62 6f3c
00000190: e2c5 6b3d ba81 673e 6438 40be 6ed4 1bbe
000001a0: 69da 183e 8743 d5bd 09d6 92bc 13ec 623e
000001b0: 8285 293e f1ef 863a 32f5 86bb 00ed ffbd
000001c0: 257e e6bd ad27 da3d 116d abbc 8d8b 8f3b
000001d0: 0ea3 e6bd 487d 07bd 8a8d 05bd e3e6 073e
000001e0: fe43 a73d 1d6b 3cbe c6d7 94bc 5b54 9dbd
000001f0: 29ea b0bb 315f b53d d545 0dbd b3b3 803d
00000200: 99e4 ecbd 6085 03be 399c eb3d da6f c83d
00000210: 432a 9bbb 6cad 003e 3525 b5bd 7a98 eb3b
00000220: 5edf 193c b91a b5bd 3d55 4f3e 8bf1 fdbc
00000230: bde3 363d 433b 9c3d e058 a13b 0f58 8ebd
00000240: 2755 bdbd 4169 153c 06c6 28bd ed00 0fbe
00000250: 088c 77bd 381a 3e3d 46f1 633c e5f9 c4bd
00000260: dc76 0ebe 04b7 26be 4f32 b03d 98e4 96bd
00000270: a416 5bbe 5b20 35bd 91a2 0ebc 2a29 1abd
00000280: 505a 27be a9d2 e4bc 7c1d 573d 1710 8bbd
00000290: 943d e9bd b0c9 cb3d dc70 1bbd f4ae 073d
000002a0: 3541 243b 9edf 43be 0282 823c b426 d43d
000002b0: e083 85bc d974 d7bc 6619 113e 8295 163d
000002c0: 6a1b 47be 565f 70bd e824 a6bd cf9b 153d
000002d0: bd13 01be 63c1 093e 65b4 14be 2d73 ad3d
000002e0: 84dc fe3d 4a24 9abc a916 f4bd 45c3 d2bd
000002f0: a3a0 c3bc 8139 733d c9a8 d43c d30b 60bc
00000300: ae4d 99bc d5ca 15bc 5685 d73c c0cb a3bd
00000310: c441 a4bd ac79 443e ad41 843d 3920 f0bd
00000320: a032 d43d f060 f83d 9859 063c 769a de3c
00000330: b1cb 4ebc 03e8 ef3d 082e 0fbe 55b5 af3c
00000340: b05b 48be 7ce1 88bd 1c36 97bc 2fc5 6e3d
00000350: 9326 373d b693 603d 65a8 703d 9a8d 303e
00000360: c36d debc 866d ebbd d649 7a3e 36bb 983d
00000370: 87f1 51bd f34a ab3c dfd7 2dbe 3c5f ddbd
00000380: eedd f83d a59d bebd 1705 6e3d 7395 1a3d
00000390: abf8 bebb 5cbe 0abd f742 e93d c2a6 be3d
000003a0: 31c6 61be eaa7 82bc fe59 99bd ca51 11bd
000003b0: 6a5f 453d f57a 35bd 2ec8 ef3c 38cb 20be
000003c0: f899 543d 3c52 3bbd 9bd3 f23d 786f d53d
000003d0: 3ce3 cbbd 36f6 85bd 040c c73c b009 e8bd
000003e0: 9c1a cc3a 5dc8 ea3d af80 64be f935 fd3d
000003f0: bfb3 373d a820 f53c e9c2 9bbd 7561 9ebd

encoder_z0.GRU_update.update_gate.2.bias f4 [20]
0.058217067 0.0019434724 0.08117805 -0.012201864 0.019651905 0.02325841 0.023004666 0.021139825
0.030113928 -0.033096507 0.00066449714 0.010675434 0.012665236 -0.015126904 -0.007868012 0.016028266
-0.029331349 0.015403386 -0.0063756593 -0.067675926
00000000: 0575 6e3d 1dbc fe3a ad40 a63d 54ea 47bc
00000010: 08fd a03c 6c88 be3c 4874 bc3c 6d2d ad3c
00000020: 7cb1 f63c 3490 07bd a631 2e3a 04e8 2e3c
00000030: da81 4f3c d5d6 77bc d6e8 00bc b64d 833c
00000040: 4c48 f0bc 7c5e 7c3c e8ea d0bb ad99 8abd

encoder_z0.GRU_update.reset_gate.0.weight f4 [100, 42]
0.07344878 0.0816783 -0.07996453 -0.14767496 -0.03474008 -0.04216518 0.072995685 0.058687914
-0.027332189 -0.014296175 0.14210252 -0.15866575 0.045489233 -0.05358383 0.14083356 -0.07845634
0.00085835025 0.026007723 0.102704816 -0.064561486 0.20578857 -0.04874687 0.033418838 -0.255288
0.039113123 0.045348585 0.08192783 -0.030261733 -0.07415005 0.09889761 -0.10009236 -0.09505157
0.15671112 -0.15479632 0.07690099 -0.002324453 0.037239682 0.062166955 -0.029560108 -0.033847142
0.012183603 0.061397374 -0.036868647 -0.008326801 -0.040458586 -0.17618266 -0.10149474 -0.19780512
-0.21225007 -0.021203661 -0.057442047 0.07448578 -0.008879 -0.11471313 -0.1882441 0.17827004
0.26951984 0.006899127 -0.0119501 -0.027695814 0.110793464 0.08877975 -0.05574327 -0.1999722
0.114882305 -0.059818663 -0.0610902 -0.019771751 -0.07605584 0.0063947956 0.06605714 -0.050926577
-0.07118129 -0.09710122 -0.17564784 0.0185623 -0.11137737 0.009063401 -0.04840937 -0.24263006
0.11470578 -0.12481286 0.059346844 0.06276183 -0.042731255 0.1466003 0.08439288 -0.061371867
-0.10116891 -0.03932548 0.036063872 -0.079816625 0.02962535 -0.02508933 0.11060093 0.045999862
0.053058855 0.015187703 -0.19922136 -0.052562248 -0.082735345 -0.13176738 -0.18964484 -0.008071944
0.047278505 -0.069557264 0.07727044 -0.14398302 0.039123327 0.06900017 0.10586178 0.113727495
-0.047543723 0.03788034 -0.0669849 0.18383652 -0.10004598 0.13156407 -0.10607961 0.0921082
0.050790578 0.04590603 -0.022452893 0.042869512 0.025236044 -0.16471408 -0.18993749 -0.03550989
0.122272246 -0.083767734 0.20033884 -0.10912503 0.033780538 -0.08019616 -0.05414223 0.01825224
-0.028178483 0.050774306 -0.032414164 -0.16085964 -0.010384683 -0.14481719 0.07952884 0.09898904
-0.051929083 -0.15556765 -0.050136086 0.0067545264 0.19400647 0.19433436 -0.097306445 0.008223283
0.102312796 0.018819433 0.05178277 0.29755038 0.124430396 0.07995865 -0.03298457 0.043646634
-0.03798337 -0.18208064 0.17418274 -0.05871949 -0.047271874 -0.07311009 0.037855607 0.024102762
-0.12363954 0.16065899 -0.19345666 0.052703157 -0.007835325 -0.045855734 0.011653989 -0.03393634
0.15413399 0.10231501 0.034261007 0.024237575 0.10552502 -0.050481502 0.15676616 0.027888095
0.24750909 -0.14677982 -0.106856465 0.059916507 -0.02110966 -0.09497528 0.05818551 -0.29619905
-0.0784234 -0.042245734 0.00081207755 -0.039081864 0.06470283 0.04404276 -0.13526478 0.037177432
0.012439227 -0.15087102 0.15730163 -0.11861016 0.16695689 0.049645178 -0.018183552 0.16725166
0.11974309 -0.07056725 0.06368258 0.12580515 -0.09857919 0.09421678 -0.064937785 0.10329939
0.10400724 0.035426173 -0.006227295 0.08874456 0.045634687 -0.008206887 0.05185682 -0.07438007
-0.101558894 -0.026062341 -0.05342007 0.08305735 0.08821562 -0.005941275 -0.02999549 0.05484002
0.056976646 -0.1325792 0.08468914 -0.14116554 0.09915807 -0.14627272 0.04457589 0.07918749
0.011142978 -0.08148087 -0.0066878106 -0.27059034 0.2384309 0.039042257 -0.0698443 0.17654721
-0.08414114 -0.059833895 -0.054416575 0.02621264 -0.11334196 -0.10190076 0.07460328 -0.013636099
00000000: 506c 963d f446 a73d 72c4 a3bd 1b38 17be
00000010: 9d4b 0ebd 65b5 2cbd c37e 953d bd62 703d
00000020: c1e7 dfbc 813a 6abc 5383 113e 4679 22be
00000030: eb52 3a3d b87a 5bbd ac36 103e b8ad a0bd
00000040: e902 613a 260e d53c e756 d23d d038 84bd
00000050: 3dba 523e ccaa 47bd 31e2 083d 1cb5 82be
00000060: 1535 203d 70bf 393d c7c9 a73d 74e7 f7bc
00000070: fbdb 97bd d58a ca3d 39fd ccbd 66aa c2bd
00000080: e178 203e ed82 1ebe 447e 9d3d da55 18bb
00000090: a388 183d c7a2 7e3d 0a28 f2bc 4da3 0abd
000000a0: bc9d 473c d07b 7b3d 9403 17bd 226d 08bc
000000b0: e7b7 25bd 3a69 34be 79dc cfbd 6d8d 4abe
000000c0: 1558 59be 4db3 adbc 5a48 6bbd 008c 983d
000000d0: 3a79 11bc b8ee eabd 10c3 40be 6c8c 363e
000000e0: 81fe 893e 1212 e23b 5aca 43bc 55e2 e2bc
000000f0: afe7 e23d 28d2 b53d 0e53 64bd 83c5 4cbe
00000100: 6a47 eb3d 6a04 75bd b839 7abd 5ef8 a1bc
00000110: 2ac3 9bbd 6f8b d13b f748 873d 6398 50bd
00000120: 7fc7 91bd 01dd c6bd 07dd 33be f70f 983c
00000130: d219 e4bd a97e 143c e748 46bd 0474 78be
00000140: ddea ea3d e29d ffbd ad15 733d 4689 803d
00000150: f806 2fbd 641e 163e 2dd6 ac3d 1161 7bbd
00000160: a531 cfbd c113 21bd b6b7 133d e676 a3bd
00000170: ddb0 f23c 2388 cdbc be82 e23d 5a6a 3c3d
00000180: 3e54 593d d8d5 783c af00 4cbe 834b 57bd
00000190: 2671 a9bd 07ee 06be 4232 42be 3040 04bc
000001a0: 1ba7 413d 0a74 8ebd f73f 9e3d 4970 13be
000001b0: c83f 203d f64f 8d3d 10ce d83d f6e9 e83d
000001c0: 35bd 42bd 6a28 1b3d 612f 89bd a43f 3c3e
000001d0: e8e4 ccbd bbb8 063e 4440 d9bd 39a3 bc3d
000001e0: c809 503d f607 3c3d 21ef b7bc f197 2f3d
000001f0: d2bb ce3c cfaa 28be f97e 42be d272 11bd
00000200: df69 fa3d 6b8e abbd a025 4d3e f27c dfbd
00000210: 765d 0a3d e23d a4bd 3ec4 5dbd b985 953c
00000220: 90d6 e6bc b8f8 4f3d b7c4 04bd 64b8 24be
00000230: 8424 2abc f54a 14be 04e0 a23d c4ba ca3d
00000240: 97b3 54bd 204d 1fbe 7f5b 4dbd 1355 dd3b
00000250: a2a9 463e 96ff 463e 9a48 c7bd f3ba 063c
00000260: 5f89 d13d 362b 9a3c 2b1a 543d 8658 983e
00000270: 5dd5 fe3d 5cc1 a33d d41a 07bd d0c6 323d
00000280: 7394 1bbd 5973 3abe f65c 323e d983 70bd
00000290: 27a0 41bd beba 95bd 7b0e 1b3d 2873 c53c
000002a0: ba36 fdbd ca83 243e 8119 46be 44df 573d
000002b0: bc5f 00bc 39d3 3bbd 5ff0 3e3c d500 0bbd
000002c0: 4dd5 1d3e 888a d13d 4555 0c3d e18d c63c
000002d0: 801d d83d b1c5 4ebd 4f87 203e 9375 e43c
000002e0: 0673 7d3e 734d 16be 90d7 dabd 036b 753d
000002f0: 2aee acbc 6682 c2bd ee53 6e3d 67a7 97be
00000300: 739c a0bd dd09 2dbd 9ae1 543a 4e14 20bd
00000310: eb82 843d 2e66 343d da82 0abe 5d47 183d
00000320: e6cd 4b3c ef7d 1abe ae13 213e e2e9 f2bd
00000330: bff6 2a3e be58 4b3d acf5 94bc 0544 2b3e
00000340: dd3b f53d 9085 90bd 036c 823d 11d3 003e
00000350: e3e3 c9bd baf4 c03d 1afe 84bd a18e d33d
00000360: bf01 d53d 091b 113d 560e ccbb b5bf b53d
00000370: 70eb 3a3d 2e76 06bc d167 543d 9454 98bd
00000380: 1cfe cfbd b180 d5bc 01cf 5abd f919 aa3d
00000390: 64aa b43d 07af c2bb 1ab9 f5bc ee9f 603d
000003a0: 5860 693d d8c2 07be 8071 ad3d b38d 10be
000003b0: 6313 cb3d 84c8 15be 3595 363d 0d2d a23d
000003c0: 0a91 363c 71df a6bd 6c25 dbbb d18a 8abe
000003d0: 3b27 743e c6ea 1f3d 870a 8fbd cbc8 343e
000003e0: 3152 acbd 6314 75bd eae3 5ebd e4bb d63c
000003f0: d41f e8bd 58b1 d0bd 9bc9 983d f269 5fbc

encoder_z0.GRU_update.reset_gate.0.bias f4 [100]
-0.020672722 -0.04854858 0.02159461 0.021014862 -0.002956703 0.004303181 -0.042445347 -0.031492088
0.05369074 -0.02188638 0.011191626 0.052530017 -0.024890194 0.060825713 -0.04540307 0.020896055
0.0016016784 0.039276965 0.038991775 0.022509461 -0.011238982 0.019306958 -0.048076957 0.0024251763
0.012962091 0.025679873 0.015541635 0.005502432 -0.046239115 0.0027088413 -0.007793058 0.06260645
0.04600916 -0.010361488 0.054705244 -0.041039485 -0.02310212 -0.0061248085 0.017779868 -0.013494463
-0.027374791 -0.015458385 0.021970674 0.046413075 0.032032084 0.046355873 0.029476117 -0.0057448726
0.050544165 0.03526255 0.0067130025 0.011594262 -0.003950015 0.045420952 -0.018809708 0.045094006
-0.03467957 -0.034466267 0.01634614 -0.017231377 -0.017661268 0.016368628 -0.0076614916 0.023420878
0.0017517917 0.038296815 0.029292047 0.0116922865 0.02497195 -0.017626008 -0.022516223 0.09201259
0.057265285 -0.027741827 0.05775152 0.022959014 0.018785639 0.004303657 -0.0027172314 -0.03058301
-0.0510066 -0.0020815912 0.005079703 0.02206195 -0.023476886 0.02844427 -0.020793933 -0.02172126
0.04015189 -0.055707768 -0.029677698 0.008270206 0.03713337 0.018633137 0.0052955537 -0.016820623
0.039855927 -0.01442107 -0.016215848 0.0021017748
00000000: d759 a9bc e0da 46bd 2ee7 b03c 5c27 ac3c
00000010: 3fc5 41bb b301 8d3b 2cdb 2dbd d9fd 00bd
00000020: d2ea 5b3d 114b b3bc 155d 373c b729 573d
00000030: 85e6 cbbc 6224 793d 92f8 39bd 342e ab3c
00000040: 69ef d13a e2e0 203d d7b5 1f3d c365 b83c
00000050: b523 38bc a029 9e3c 58ec 44bd b5ef 1e3b
00000060: f35e 543c 995e d23c 58a2 7e3c bf4d b43b
00000070: 3a65 3dbd d186 313b e95c ffbb cf37 803d
00000080: 1a74 3c3d 3bc3 29bc 9b12 603d 0519 28bd
00000090: a840 bdbc 9eb2 c8bb 16a7 913c e117 5dbc
000000a0: 1941 e0bc 2b45 7dbc d8fb b33c a31b 3e3d
000000b0: 1334 033d a8df 3d3d e677 f13c 7c3f bcbb
000000c0: 6607 4f3d 776f 103d bff8 db3b dcf5 3d3c
000000d0: 216f 81bb 520b 3a3d d116 9abc 7eb4 383d
000000e0: 2a0c 0ebd 802c 0dbd 57e8 853c d128 8dbc
000000f0: 5dae 90bc 8017 863c 400d fbbb 24dd bf3c
00000100: 609c e53a 1fdd 1c3d e0f5 ef3c 0191 3f3c
00000110: fa91 cc3c 6b64 90bc f173 b8bc 1971 bc3d
00000120: 018f 6a3d d442 e3bc dc8c 6c3d 8b14 bc3c
00000130: 57e4 993c b105 8d3b 9413 32bb 3889 fabc
00000140: 4cec 50bd 4e6b 08bb a373 a63b 43bb b43c
00000150: 9952 c0bc f503 e93c 0a58 aabc c9f0 b1bc
00000160: 4f76 243d d42d 64bd a51e f3bc c27f 073c
00000170: 2919 183d 85a4 983c 5386 ad3b 67cb 89bc
00000180: f83f 233d 5a46 6cbc 19d7 84bc eebd 093b

encoder_z0.GRU_update.reset_gate.2.weight f4 [20, 100]
0.1321562 -0.13360058 0.04520171 -0.019849835 0.080340214 -0.24941504 -0.10851223 0.007042967
0.024001291 -0.032259695 0.03330613 0.03939153 0.00685828 0.21042538 -0.14311484 -0.0867133
-0.04748131 0.06308291 -0.17616628 0.15456682 0.02040648 0.03802688 0.050319985 -0.020569265
0.11214038 0.063554116 0.10488303 -0.01838949 -0.1399984 0.1258482 -0.028062265 0.011807646
0.1303041 -0.06727623 -0.007192634 0.02252412 0.07397447 -0.19486348 0.053374913 0.08662332
0.069711246 -0.17795701 0.2544987 0.09543653 -0.022202177 0.042854592 0.056425456 -0.07746741
0.104770064 0.15995663 0.11550577 -0.022501143 -0.13349886 0.26804355 -0.20828076 -0.13243572
0.020093061 -0.020218352 -0.020999657 -0.020566791 0.005663725 0.07501013 -0.0670462 -0.039045464
0.0912135 -0.061839428 0.067735136 0.19764292 -0.052852456 0.17642075 -0.06678583 0.1062338
-0.08356011 0.12362274 0.21601833 0.30086344 0.08466887 0.11767637 0.0018893018 -0.12046899
-0.03356087 -0.061651304 0.10493183 -0.0055797445 0.019998671 -0.0033807217 -0.17253307 -0.055389237
-0.015491297 -0.09378212 -0.08397178 0.0024959105 0.053760592 -0.063825026 -0.09486314 0.07961449
0.00484392 0.05150028 -0.11030687 0.03269128 0.083691105 0.07808783 -0.13122275 -0.108209416
0.07660743 0.06028613 0.24073741 0.045971382 -0.040963184 0.05623157 -0.015851356 0.041659553
0.06298393 -0.14494589 -0.16358078 -0.02648662 0.06603037 -0.0875548 0.008532062 0.031955987
0.099323906 -0.099795766 0.07159578 -0.023861904 -0.10994547 0.036938127 -0.05970941 0.12523589
-0.051673144 -0.041337293 -0.28433335 -0.058114797 -0.1462398 -0.1295384 -0.056555454 -0.1689709
0.03505991 -0.03641389 0.018313214 0.11105024 -0.11238711 0.0058843372 -0.19565217 0.12770309
-0.0045466097 -0.03936632 -0.16450225 0.03555072 0.05678385 -0.13814913 -0.031756904 -0.07158927
0.021558346 -0.0160911 -0.19136009 -0.043647688 -0.03463385 -0.031704772 -0.20185287 -0.064493924
0.0963796 0.124156445 -0.09729669 0.15119861 0.13180104 -0.19260877 -0.06952347 -0.08426882
-0.021585524 -0.009326972 -0.07714793 -0.02928536 0.05228899 0.017445246 0.0017889849 -0.13038819
-0.047879882 0.14399683 0.029472413 0.11362412 0.13219541 0.05835438 -0.019807894 0.034972537
0.055691883 -0.010729048 0.21537356 -0.074327305 0.07198286 0.06607885 -0.027502585 -0.02897456
-0.14617242 0.059684195 -0.039111804 -0.048819892 0.056493428 -0.1545528 -0.07792617 -0.04579103
0.0064442325 0.07488206 0.11663937 0.09147913 -0.064236134 0.06056326 0.19465666 -0.10139475
-0.10625339 0.058004875 -0.009073184 -0.0488782 0.029419512 0.043898452 0.13156943 -0.122787386
-0.010551936 -0.12367289 -0.019501353 0.024153758 -0.13213506 0.048121028 0.14734541 -0.14363973
0.06006824 -0.13731574 -0.10617114 -0.03935092 0.22931293 -0.104423694 0.109078325 -0.17621656
-0.15608644 0.013410219 -0.20160991 -0.03516497 -0.0024847954 -0.026819685 0.07261017 0.05137436
-0.18726085 0.011266572 -0.18237853 0.0126720965 0.15504208 -0.012160226 0.0059456765 0.12625504
-0.086492054 -0.092860274 0.0843086 -0.042982873 0.045424048 -0.15263474 -0.038249157 0.010587115
00000000: f453 073e 97ce 08be 6e25 393d 1f9c a2bc
00000010: 6989 a43d a866 7fbe a93b debd b0c8 e63b
00000020: 5b9e c43c be22 04bd 026c 083d 0359 213d
00000030: 6cbb e03b c079 573e b28c 12be be96 b1bd
00000040: c37b 42bd 9d31 813d ef64 34be c446 1e3e
00000050: 7e2b a73c 13c2 1b3d 541c 4e3d e080 a8bc
00000060: dba9 e53d a928 823d eacc d63d 8ea5 96bc
00000070: be5b 0fbe 5ade 003e d6e2 e5bc db74 413c
00000080: 706e 053e 1fc8 89bd 30b0 ebbb 8184 b83c
00000090: ed7f 973d 4b8a 47be a79f 5a3d 9167 b13d
000000a0: c5c4 8e3d 5d3a 36be a74d 823e 3a74 c33d
000000b0: 57e1 b5bc 4c88 2f3d 611e 673d 3ca7 9ebd
000000c0: b091 d63d accb 233e 4a8e ec3d 5154 b8bc
000000d0: edb3 08be 013d 893e 8d47 55be 3b9d 07be
000000e0: 349a a43c f5a0 a5bc 7907 acbc b07b a8bc
000000f0: c596 b93b e99e 993d 854f 89bd 23ee 1fbd
00000100: 25ce ba3d 574b 7dbd b8b8 8a3d e862 4a3e
00000110: d17b 58bd a4a7 343e 02c7 88bd 1b91 d93d
00000120: 9021 abbd eb2d fd3d e933 5d3e c60a 9a3e
00000130: df66 ad3d 4f00 f13d 73a2 f73a 72b8 f6bd
00000140: 1f77 09bd 1486 7cbd 80e6 d63d 4ad6 b6bb
00000150: 41d4 a33c 198f 5dbb 82ac 30be d3df 62bd
00000160: 35cf 7dbc d710 c0bd 66f9 abbd 6e92 233b
00000170: 1134 5c3d b2b6 82bd 9b47 c2bd ec0c a33d
00000180: bfb9 9e3b f5f1 523d 91e8 e1bd 4be7 053d
00000190: 3e66 ab3d 83ec 9f3d 425f 06be e69c ddbd
000001a0: 5be4 9c3d 97ee 763d de83 763e 7d4c 3c3d
000001b0: 03c9 27bd 1353 663d b4da 81bc 35a3 2a3d
000001c0: b8fd 803d b26c 14be b881 27be 78fa d8bc
000001d0: ee3a 873d ee4f b3bd 10ca 0b3c 48e4 023d
000001e0: 556a cb3d b961 ccbd cfa0 923d 0a7a c3bc
000001f0: 172b e1bd 6f4c 173d db91 74bd d63d 003e
00000200: 38a7 53bd 4b51 29bd 2494 91be c809 6ebd
00000210: e3bf 15be b7a5 04be b1a6 67bd b506 2dbe
00000220: fb9a 0f3d bb26 15bd 9805 963c 4f6e e33d
00000230: 372b e6bd 66d1 c03b 0b59 48be 99c4 023e
00000240: bafb 94bb 943e 21bd 4773 28be a29d 113d
00000250: 2f96 683d f776 0dbe 8713 02bd 659d 92bd
00000260: 219b b03c 7cd1 83bc e6f3 43be ebc7 32bd
00000270: 39dc 0dbd dddc 01bd 85b2 4ebe 6415 84bd
00000280: ab62 c53d bc45 fe3d 7d43 c7bd cfd3 1a3e
00000290: daf6 063e 3c3b 45be 5262 8ebd 2295 acbd
000002a0: 20d4 b0bc 28d0 18bc bcff 9dbd dae7 efbc
000002b0: fb2c 563d 55e9 8e3c 5f7c ea3a 7b84 05be
000002c0: b21d 44bd e873 133e 2170 f13c c3b3 e83d
000002d0: 3c5e 073e 0105 6f3d 2a44 a2bc 5d3f 0f3d
000002e0: 2c1d 643d e4c8 2fbc e38a 5c3e ea38 98bd
000002f0: c06b 933d 5954 873d 1a4d e1bc 0e5c edbc
00000300: 39ae 15be 6a77 743d b333 20bd 5ef7 47bd
00000310: a765 673d 1743 1ebe c197 9fbd 608f 3bbd
00000320: 242a d33b c45b 993d 9fe0 ee3d 6959 bb3d
00000330: 3c8e 83bd 2e11 783d 1354 473e 0da8 cfbd
00000340: 619b d9bd 8596 6d3d b1a7 14bc 8234 48bd
00000350: 3001 f13c ddce 333d 23ba 063e f477 fbbd
00000360: 07e2 2cbc 3648 fdbd 4dc1 9fbc 1ade c53c
00000370: 6a4e 07be 8e1a 453d b7e1 163e 4b16 13be
00000380: 1d0a 763d 7f9c 0cbe 4170 d9bd 6e2e 21bd
00000390: 02d1 6a3e 17dc d5bd 7564 df3d 1d72 34be
000003a0: 20d5 1fbe 89b6 5b3c d472 4ebe 2509 10bd
000003b0: f3d7 22bb f5b4 dbbc a4b4 943d ec6d 523d
000003c0: 4fc1 3fbe 6e97 383c 70c1 3abe a09e 4f3c
000003d0: 5ac3 1e3e af3b 47bc f3d3 c23b 0049 013e
000003e0: bf22 b1bd 872d bebd fda9 ac3d cf0e 30bd
000003f0: 910e 3a3d 484c 1cbe 26ab 1cbd 9475 2d3c

encoder_z0.GRU_update.reset_gate.2.bias f4 [20]
0.036037732 -0.016193006 -0.033988968 -0.026367147 -0.002683902 -0.036617488 -0.045969564 0.034446705
0.020377107 0.04891208 -0.051737808 -0.03310787 0.016143532 -0.0653976 -0.011074569 0.03860831
0.047903035 -0.022254866 -0.0021208257 -0.0203224
00000000: 4d9c 133d 32a7 84bc 0438 0bbd eaff d7bc
00000010: 67e4 2fbb 38fc 15bd 954a 3cbd fd17 0d3d
00000020: e4ed a63c 0858 483d 06eb 53bd 1e9c 07bd
00000030: 713f 843c 2def 85bd 1c72 35bc bf23 1e3d
00000040: f935 443d d64f b6bc 8dfd 0abb 297b a6bc

encoder_z0.GRU_update.new_state_net.0.weight f4 [100, 42]
0.10656441 -0.029426742 -0.05892677 0.19148192 -0.027884865 0.1066879 0.04989489 -0.017872294
0.05741781 0.13304025 -0.07940777 -0.045012087 -0.11762832 -0.10111232 -0.1398373 -0.09507619
-0.043329354 0.019716447 -0.06847567 -0.0065958123 0.15356265 -0.07092619 -0.044543423 -0.19019377
-0.28957134 0.1078929 0.10750178 0.15256098 -0.033978514 0.023266148 -0.059194364 0.11112968
0.027855875 -0.23418956 0.042751443 0.031302202 0.099403106 0.17581658 0.102100514 0.13328137
-0.2628661 0.14836216 0.057156537 -0.11872122 -0.06953241 0.0032647327 0.1439295 -0.14827552
-0.15855618 0.017691651 0.08171058 -0.007130594 0.052382935 0.06706253 -0.08664483 -0.10015198
0.004880638 -0.044405576 -0.047434576 0.15466948 0.0060917623 -0.049175784 -0.10632373 0.034879394
-0.008786182 0.039649755 0.0074786996 -0.039728224 0.10290639 0.2596775 -0.06298003 0.06221703
0.06563503 0.10627728 0.009150419 -0.08178475 0.169672 0.15979818 0.072723046 -0.020985628
0.14052531 0.083248004 0.10818568 0.085897475 -0.08401788 0.028318066 -0.0018504828 -0.047744036
-0.019776594 0.12658119 -0.13812757 0.17067999 -0.08036755 -0.12699804 0.043145124 0.18384622
-0.0800634 0.029706154 -0.10040494 -0.18669975 0.05503745 -0.09786386 0.057221174 0.11903606
0.23352413 0.1202252 0.020619806 -0.007693123 0.16282985 -0.094824955 0.14558658 0.1770672
0.054817345 0.12839624 0.048964776 -0.008178129 0.09540825 0.21422426 -0.066575564 -0.030191228
0.0057848757 -0.015092197 -0.04165437 0.13231204 -0.10924325 -0.2576256 -0.11847555 0.04145005
-0.13499598 -0.061791513 -0.024789087 -0.15146433 0.0892952 0.014795521 0.043578126 0.0005665113
-0.051851112 0.16894823 0.06346445 0.0803409 -0.022010494 0.11892049 0.16239311 0.004737738
-0.0027471848 -0.02362831 0.006092436 -0.19787094 -0.05126661 0.03541345 0.06875562 0.045700286
-0.15766306 0.031537037 -0.12711933 0.031142013 -0.08395425 0.031394765 -0.23479138 0.084928244
-0.027195612 -0.3037971 0.268404 0.060139924 -0.119127385 -0.005430438 0.021151586 0.11206949
-0.0016301936 -0.1576616 -0.12775038 -0.15986787 0.080575794 -0.05174101 0.16500226 -0.25508144
0.11332416 0.103377186 -0.10861541 -0.10029861 0.1629869 -0.004923309 0.08321693 0.056214355
0.2279635 0.16533832 -0.021733709 -0.04485429 -0.031698562 -0.10955408 -0.13662988 0.014426046
-0.041974556 -0.10852214 -0.04674714 -0.0062211202 0.011220181 -0.12529498 -0.06290162 0.10994871
0.048044097 0.044996593 -0.061417405 -0.03316207 -0.09982268 -0.08424059 -0.060565423 0.034912553
-0.04438108 0.028645767 -0.091106005 -0.019221557 0.05890667 -0.13782944 -0.11867648 0.05594127
0.07112118 -0.14244667 -0.016680446 0.025566427 -0.067250654 -0.12847741 -0.12769207 0.10777813
-0.0055018505 -0.0340184 -0.15659292 -0.08043328 -0.10094285 -0.23975077 -0.04102016 0.098288454
0.04089228 0.042221397 -0.17828861 -0.17810011 -0.063196816 -0.09021491 0.13577798 0.07142421
-0.20384404 0.1486536 -0.24573147 -0.02013179 -0.06116149 -0.070436366 0.10552696 0.023401996
-0.043954022 -0.20312536 -0.08441225 0.00047252118 -0.039745122 0.16093184 0.1428224 -0.08147084
00000000: 713e da3d 5a10 f1bc 325d 71bd d613 443e
00000010: cd6e e4bc 307f da3d 965e 4c3d eb68 92bc
00000020: f02e 6b3d b43b 083e 8aa0 a2bd 985e 38bd
00000030: 1ee7 f0bd fa13 cfbd 8231 0fbe 4eb7 c2bd
00000040: 1f7a 31bd 6384 a13c f93c 8cbd af21 d8bb
00000050: 873f 1d3e c041 91bd 2a73 36bd 28c2 42be
00000060: b242 94be f4f6 dc3d e529 dc3d f238 1c3e
00000070: 0e2d 0bbd a698 be3c ca75 72bd f597 e33d
00000080: 0132 e43c 63cf 6fbe 231c 2f3d bd36 003d
00000090: db93 cb3d 4309 343e 131a d13d e97a 083e
000000a0: 6396 86be 40ec 173e f91c 6a3d 1c24 f3bd
000000b0: 0267 8ebd 20f5 553b 4162 133e 8ad5 17be
000000c0: 8d5c 22be 15ee 903c e057 a73d c2a7 e9bb
000000d0: 7d8f 563d 1458 893d d872 b1bd 7b1c cdbd
000000e0: c2ed 9f3b 9fe2 35bd c24a 42bd ad61 1e3e
000000f0: 689d c73b 8c6c 49bd 41c0 d9bd b2dd 0e3d
00000100: ebf3 0fbc c867 223d e10f f53b 10ba 22bd
00000110: 96c0 d23d 73f4 843e adfb 80bd 49d7 7e3d
00000120: a96b 863d e7a7 d93d a4eb 153c c37e a7bd
00000130: 7fbe 2d3e 22a2 233e d2ef 943d 0dea abbc
00000140: dee5 0f3e ee7d aa3d 7490 dd3d 04eb af3d
00000150: 9111 acbd 4afb e73c e68b f2ba 408f 43bd
00000160: 8602 a2bc 809e 013e 5071 0dbe bcc6 2e3e
00000170: be97 a4bd c60b 02be f1b8 303d 2f42 3c3e
00000180: 48f8 a3bd 525a f33c 1ba1 cdbd 382e 3fbe
00000190: f36e 613d d96c c8bd c060 6a3d 2ec9 f33d
000001a0: f320 6f3e a138 f63d deea a83c 9816 fcbb
000001b0: debc 263e 9633 c2bd a614 153e 1b51 353e
000001c0: 2788 603d 4e7a 033e 4a8f 483d 8ffd 05bc
000001d0: 6765 c33d 9b5d 5b3e c558 88bd 9853 f7bc
000001e0: 0e8f bd3b 4345 77bc c69d 2abd cf7c 073e
000001f0: edba dfbd 81e7 83be 4fa3 f2bd 87c7 293d
00000200: 633c 0abe 1919 7dbd 7c12 cbbc 7719 1bbe
00000210: 67e0 b63d ea68 723c fa7e 323d ee81 143a
00000220: d561 54bd c400 2d3e a6f9 813d c589 a43d
00000230: 5a4f b4bc 968c f33d 614a 263e 073f 9b3b
00000240: 1d0a 34bb 2890 c1bc 0fa3 c73b ae9e 4abe
00000250: f0fc 51bd b20d 113d bfcf 8c3d 3930 3b3d
00000260: 6d72 21be fb2c 013d 922b 02be 891d ff3c
00000270: 35f0 abbd cc97 003d 276d 70be dcee ad3d
00000280: 55c9 debc 4b8b 9bbe 406c 893e 4855 763d
00000290: 0ff9 f3bd d1f1 b1bb 1746 ad3c b084 e53d
000002a0: 38ac d5ba 0b72 21be ffd0 02be 67b4 23be
000002b0: ec04 a53d 62ee 53bd 5af6 283e 099a 82be
000002c0: 7f16 e83d 6bb7 d33d c271 debd 5c69 cdbd
000002d0: 0ae6 263e b653 a1bb a36d aa3d 0641 663d
000002e0: 446f 693e 734e 293e e40a b2bc 22b9 37bd
000002f0: 5ad6 01bd e45d e0bd b4e8 0bbe 395b 6c3c
00000300: 83ed 2bbd db40 debd ee79 3fbd 8ada cbbb
00000310: dad4 373c 544d 00be 91d2 80bd ca2c e13d
00000320: e3c9 443d 594e 383d d190 7bbd f3d4 07bd
00000330: d56f ccbd 5586 acbd 7313 78bd 7700 0f3d
00000340: efc8 35bd 87aa ea3c c995 babd 8776 9dbc
00000350: 1f48 713d 2923 0dbe a80c f3bd ac22 653d
00000360: fba7 913d 8add 11be 6ea5 88bc af70 d13c
00000370: b6ba 89bd 958f 03be b6c1 02be c8ba dc3d
00000380: de48 b4bb e156 0bbd e559 20be 34ba a4bd
00000390: 20bb cebd 3a81 75be c104 28bd 754b c93d
000003a0: aa7e 273d 58f0 2c3d 4a91 36be e05f 36be
000003b0: 556d 81bd 98c2 b8bd 6209 0b3e db46 923d
000003c0: 7ebc 50be a638 183e 08a1 7bbe 6ceb a4bc
000003d0: 7884 7abd f140 90bd 851e d83d 8bb5 bf3c
000003e0: 2209 34bd 1800 50be 54e0 acbd b8bc f739
000003f0: c8cb 22bd 51cb 243e 0940 123e 2fda a6bd

encoder_z0.GRU_update.new_state_net.0.bias f4 [100]
0.011186741 0.06938727 0.03309999 -0.012151901 -0.031271774 -0.013640086 -0.016038163 -0.045870785
-0.017908294 -0.015239159 -0.054963432 0.036115993 -0.051283047 0.012155012 0.037709884 0.02736066
0.0049025677 -0.016555982 -0.016706651 -0.040127367 0.022046855 -0.053134114 0.04377357 -0.06843361
-0.00600872 -0.0076533845 -0.032884978 -0.016030785 0.02665171 0.0074339784 0.018803861 0.022238458
0.0021020996 0.056394976 0.08134566 -0.0052122064 -0.017288074 0.0061758286 -0.0030318103 0.027384724
-0.020498397 -0.01200854 -0.004744812 0.00788166 0.016885284 0.007184535 -0.023653818 -0.024206793
0.00095426344 0.029078677 -0.030604701 -0.018446127 0.043232165 0.030418983 -0.051590864 -0.04898673
0.019854328 -0.02014472 0.016061194 0.0050188457 -0.017660296 -0.008603001 -0.019128062 -0.04183779
-0.054149445 0.02951658 -0.0593329 0.02431838 -0.012167553 -0.03318259 -0.026400004 -0.02030005
-0.034864888 0.026771339 0.0046818582 -0.015936173 -0.024194755 0.0071817194 0.02908791 0.043206394
-0.049302112 -0.005274451 -0.003454731 0.05989964 0.01711285 0.05861102 0.0064948485 -0.015180076
-0.021629214 0.011576683 0.057902385 -0.026230767 0.05207068 0.024174388 0.040115874 0.024485447
0.052305445 -0.02688544 -0.01241024 0.0480091
00000000: 9848 373c ea1a 8e3d db93 073d c418 47bc
00000010: d516 00bd ab7a 5fbc 7762 83bc 01e3 3bbd
00000020: 6ab4 92bc aaad 79bc 5621 61bd 5dee 133d
00000030: 2c0e 52bd d125 473c ae75 1a3d 7623 e03c
00000040: b8a5 a03b 69a0 87bc 63dc 88bc 985c 24bd
00000050: 9b9b b43c 28a3 59bd ea4b 333d ec26 8cbd
00000060: cce4 c4bb 3ec9 fabb 66b2 06bd fe52 83bc
00000070: b054 da3c bb98 f33b 8e0a 9a3c 6d2d b63c
00000080: 61c3 093b 6bfe 663d 8e98 a63d 28cb aabb
00000090: b89f 8dbc 9b5e ca3b 56b1 46bb ee55 e03c
000000a0: 41ec a7bc 78bf 44bc 5e7a 9bbb 1422 013c
000000b0: 0253 8a3c 3f6c eb3b a7c5 c1bc 534d c6bc
000000c0: 8927 7a3a 6836 ee3c b6b6 fabc 551c 97bc
000000d0: 3614 313d 3b31 f93c f150 53bd 4fa6 48bd
000000e0: 8ba5 a23c 8a06 a5bc c492 833c 2175 a43b
000000f0: 53ac 90bc 9af3 0cbc 74b2 9cbc 1a5e 2bbd
00000100: cfcb 5dbd c1cc f13c 0e07 73bd 5737 c73c
00000110: 6b5a 47bc 78ea 07bd d244 d8bc 4a4c a6bc
00000120: 7cce 0ebd 914f db3c 466a 993b 948c 82bc
00000130: 1434 c6bc a154 eb3b c549 ee3c 30f9 303d
00000140: 03f1 49bd 4dd5 acbb c568 62bb 5359 753d
00000150: 3f30 8c3c 1c12 703d bdd2 d43b dab5 78bc
00000160: c02f b1bc 21ac 3d3c 0d2b 6d3d e8e1 d6bc
00000170: 1148 553d 5e09 c63c 8b50 243d b495 c83c
00000180: 3c3e 563d db3e dcbc 5254 4bbc 31a5 443d

encoder_z0.GRU_update.new_state_net.2.weight f4 [40, 100]
-0.23403357 0.18666476 -0.08133956 -0.038588952 -0.113022916 -0.05562359 -0.02531111 0.01777699
0.11686214 0.018809613 -0.16376632 0.17214379 0.04187421 -0.19129534 0.17167617 0.24934612
-0.019027643 0.13699035 -0.049106266 -0.23773359 0.031746022 -0.1360635 -0.019454915 0.0033153736
-0.036604527 0.117486656 -0.03471486 -0.11728721 0.12284981 0.043926306 0.0057796296 -0.06873803
-0.017425362 -0.072816655 -0.20487365 0.03404906 -0.047197297 -0.045931414 0.13744032 0.038766813
-0.006389692 0.22634071 0.0009321494 0.009862388 -0.06412973 0.11213573 0.0646409 -0.12543528
0.13916884 -0.06420581 -0.05005354 0.0055397213 0.04240455 0.0857076 -0.03335686 0.00072264916
0.024371628 -0.009036911 -0.04195887 0.023716321 -0.08114056 0.04559374 0.09056747 -0.02659716
0.0316445 0.088464916 -0.06702245 0.0044809333 0.031078054 -0.13424195 0.09815865 -0.15711951
0.0049547683 -0.0054775556 0.0174763 -0.3533774 -0.0017786213 0.098716974 0.07925039 0.11539288
-0.1498494 0.010309686 -0.07905051 0.004905124 -0.12527 -0.06994508 0.10540041 -0.07223306
0.15234028 0.011029044 -0.023500465 0.010660663 0.07833771 0.089182205 0.06308611 -0.09546509
0.0037716539 0.1326365 0.08427809 0.11833152 0.028892398 0.070666626 0.00059072755 -0.07583271
0.06658804 0.041307658 -0.016742054 0.008076139 -0.033355564 -0.07802831 0.0028409003 -0.0538194
0.04270623 0.014723283 -0.24997576 -0.16643013 -0.038477425 0.11709638 -0.1127605 0.09937508
-0.029818414 0.0624727 0.06003309 0.12799464 0.016080711 0.03727675 -0.052658133 0.012686481
-0.067385726 -0.025883676 -0.0066955853 -0.023538591 0.04978897 0.12796862 0.006273126 -0.035965305
0.14549151 -0.0116025 -0.095822655 0.041870326 -0.032568842 -0.009234383 0.15179504 -0.018830374
0.076105304 -0.027789716 0.03613613 0.13510257 0.03687425 -0.047957845 0.19416456 -0.19481607
-0.0466096 0.12643282 -0.010748528 0.094515145 -0.102298036 -0.08490876 0.012049979 0.032722298
0.030948773 0.017467055 0.1983527 -0.06900042 -0.08932322 -0.00012250947 0.049183615 -0.031251576
0.15721707 0.042724915 -0.08785101 -0.12323043 -0.047762733 -0.107643135 -0.09678315 0.039783902
0.24689999 -0.025668466 -0.08898818 -0.060741402 0.14271729 0.030155057 0.11804944 0.097672805
0.12910472 0.055200286 0.025602492 0.027171224 -0.04090501 -0.03737026 -0.07597363 0.09167469
0.019631749 -0.0014565176 -0.10164421 -0.11112289 0.10639145 -0.11564354 0.053179275 -0.04698342
0.018300688 -0.015083216 -2.5186417e-05 0.033049114 -0.08436624 0.079156905 0.05894887 -0.050341338
0.16982596 0.054135293 0.039554827 -0.004493164 0.07667191 0.08766107 0.041179933 -0.12380933
-0.102519475 -0.005581187 -0.0014021192 0.23219429 0.14317442 -0.035295308 -0.15047468 -0.13078883
0.022649083 0.037431188 0.050579626 0.12342679 0.13618693 -0.028266074 -0.16624926 0.13471295
-0.08302007 -0.1708808 -0.06847531 0.12646998 -0.023955677 -0.039540857 0.06515167 0.13594674
-0.07973404 0.036111105 0.070173904 -0.052752502 -0.084641084 0.15604903 0.13122894 0.035123087
-0.08546725 -0.027728144 0.07227134 0.056479447 -0.0049910033 -0.01774581 0.0067233066 0.12155298
00000000: 7fa6 6fbe 0c25 3f3e 5b95 a6bd 730f 1ebd
00000010: 8f78 e7bd 90d5 63bd 3f59 cfbc 0da1 913c
00000020: 6b55 ef3d 9e16 9a3c 5cb2 27be 7646 303e
00000030: 4b84 2b3d ede2 43be e1cb 2f3e 9754 7f3e
00000040: dcdf 9bbc 3347 0c3e a723 49bd 6f70 73be
00000050: 1e08 023d 3b54 0bbe ea5f 9fbc bd46 593b
00000060: a1ee 15bd d89c f03d 2b31 0ebd 4734 f0bd
00000070: ae98 fb3d 12ec 333d 0c63 bd3b 86c6 8cbd
00000080: a2bf 8ebc e620 95bd 66ca 51be 0777 0b3d
00000090: f451 41bd 9422 3cbd 28bd 0c3e f3c9 1e3d
000000a0: 9f60 d1bb dcc5 673e 7d5b 743a da95 213c
000000b0: 7356 83bd 6ba7 e53d 7362 843d 1b72 00be
000000c0: 4782 0e3e 567e 83bd f104 4dbd 8d86 b53b
000000d0: 65b0 2d3d 7787 af3d 34a1 08bd 2a70 3d3a
000000e0: 02a7 c73c 8d0f 14bc 10dd 2bbd bb48 c23c
000000f0: 062d a6bd 80c0 3a3d 707b b93d 4ae2 d9bc
00000100: aa9d 013d 182d b53d 1143 89bd cbd4 923b
00000110: 6797 fe3c b976 09be 6707 c93d f0e3 20be
00000120: 9c5b a23b 117d b3bb 752a 8f3c e2ed b4be
00000130: a120 e9ba 202c ca3d 074e a23d 1a53 ec3d
00000140: 1f72 19be f5e9 283c 3ce5 a1bd 2abb a03b
00000150: c746 00be 5e3f 8fbd 2cdc d73d edee 93bd
00000160: 17ff 1b3e 2ab3 343c 0c84 c0bc 10aa 2e3c
00000170: 856f a03d 29a5 b63d 4a33 813d 3383 c3bd
00000180: da2d 773b ddd1 073e fe99 ac3d cc57 f23d
00000190: c0af ec3c aab9 903d 0edb 1a3a 2e4e 9bbd
000001a0: 4f5f 883d 3832 293d a226 89bc c851 043c
000001b0: d89f 08bd 4ecd 9fbd 662e 3a3b bb71 5cbd
000001c0: baec 2e3d ed39 713c a5f9 7fbe a96c 2abe
000001d0: 819a 1dbd 3ad0 ef3d faee e6bd 2985 cb3d
000001e0: bf45 f4bc 60e3 7f3d 42e5 753d 0711 033e
000001f0: b2bb 833c 81af 183d 0eb0 57bd f5da 4f3c
00000200: 8701 8abd 010a d4bc a466 dbbb 01d4 c0bc
00000210: 85ef 4b3d 350a 033e cc8e cd3b 5b50 13bd
00000220: bafb 143e 6a18 3ebc ab3e c4bd 3880 2b3d
00000230: e866 05bd cf4b 17bc 2970 1b3e 2842 9abc
00000240: 19dd 9b3d 42a7 e3bc 7b03 143d 5458 0a3e
00000250: 7409 173d 726f 44bd 13d3 463e dd7d 47be
00000260: b5e9 3ebd 9b77 013e 981a 30bc 2891 c13d
00000270: a281 d1bd a5e4 adbd 466d 453c d107 063d
00000280: 4888 fd3c 1217 8f3c f81c 4b3e 1850 8dbd
00000290: 18ef b6bd e375 00b9 c274 493d a701 00bd
000002a0: 83fd 203e 5200 2f3d 3beb b3bd 3c60 fcbd
000002b0: dba2 43bd 0174 dcbd 3f36 c6bd 72f4 223d
000002c0: 5ad3 7c3e ad46 d2bc 6f3f b6bd facb 78bd
000002d0: 7b24 123e bd07 f73c e8c3 f13d ae08 c83d
000002e0: 0734 043e b219 623d 51bc d13c 3096 de3c
000002f0: 038c 27bd 8f11 19bd 1098 9bbd f1bf bb3d
00000300: c3d2 a03c 9fe8 beba d72a d0bd 6694 e3bd
00000310: c3e3 d93d 85d6 ecbd 83d2 593d b071 40bd
00000320: 53eb 953c 981f 77bc 6b47 d3b7 825e 073d
00000330: 35c8 acbd 041d a23d 5f74 713d b832 4ebd
00000340: dbe6 2d3e f8bc 5d3d 3e04 223d 643b 93bb
00000350: 2a06 9d3d a687 b33d 4aac 283d bf8f fdbd
00000360: bbf5 d1bd 64e2 b6bb 50c7 b7ba 57c4 6d3e
00000370: 519c 123e d091 10bd 0916 1abe 82ed 05be
00000380: 928a b93c 7251 193d 952c 4f3d 2fc7 fc3d
00000390: 9674 0b3e 418e e7bc 3f3d 2abe 31f2 093e
000003a0: 6d06 aabd 60fb 2ebe c93c 8cbd 5981 013e
000003b0: b23e c4bc 98f5 21bd 3d6e 853d 9f35 0b3e
000003c0: 9a4b a3bd 3de9 133d 56b7 8f3d 0213 58bd
000003d0: 4e58 adbd 51cb 1f3e e160 063e 3add 0f3d
000003e0: 7409 afbd 2226 e3bc ff02 943d fe56 673d
000003f0: 928b a3bb a95f 91bc 2f4f dc3b c5f0 f83d

encoder_z0.GRU_update.new_state_net.2.bias f4 [40]
0.0722042 -0.0071267043 -0.0400881 -0.011668599 0.047419894 0.019572085 0.006333755 0.029626247
0.010290287 -0.010869395 0.017106809 0.008213136 -0.023274995 -0.03110693 0.020178862 -0.040804055
-0.0673037 0.019147562 0.022821948 0.0034701421 -0.061209995 -0.0005607934 -0.0010165044 -0.006940878
0.0012314231 0.013565935 -0.028177468 0.032305006 0.015041802 0.0023286387 0.004386786 0.023516078
0.054854646 -0.030891893 0.0010574114 0.038681123 -0.011163329 0.028949128 -0.028478928 0.017386606
00000000: ccdf 933d 2187 e9bb 6b33 24bd a72d 3fbc
00000010: 5d3b 423d a355 a03c 638b cf3b beb2 f23c
00000020: 9898 283c 8c15 32bc 9423 8c3c 6490 063c
00000030: 34ab bebc f6d3 febc 244e a53c 2722 27bd
00000040: 86d6 89bd 59db 9c3c 18f5 ba3c 536b 633b
00000050: 55b7 7abd 3502 13ba 3a3c 85ba 4e70 e3bb
00000060: b467 a13a a843 5e3c 6fd4 e6bc 4152 043d
00000070: e471 763c 139c 183b 07bf 8f3b caa4 c03c
00000080: 44af 603d ff10 fdbc d798 8a3a 1970 1e3d
00000090: 65e6 36bc b926 ed3c a44c e9bc 5b6e 8e3c
