latent_ode/experiments/experiment_97.ckpt (torch, 125055 bytes, 31 tensors)

ode_gru.GRU_update.update_gate.0.weight f4 [100, 22]
0	0x3e0adcc6	0.13560781
1	0xbd7138e2	-0.05889214
2	0xbe16154a	-0.14656559
3	0xbd139e9a	-0.036039926
4	0xbc9669ee	-0.018361058
5	0xbdcd4a2e	-0.10023914
6	0x3d7a2743	0.0610726
7	0x3e5f0b55	0.21781667
8	0x3ba3a4b4	0.0049939994
9	0x3da7f67b	0.08201309
10	0x3cdda20d	0.02705481
11	0x3dcadf43	0.09905865
12	0x3df01e86	0.11724572
13	0xbda46035	-0.080261625
14	0xbd27e916	-0.040993772
15	0xbd280ea5	-0.04102959
16	0x3d8ae934	0.06782761
17	0x3cff59c9	0.031170743
18	0x3cfd9ad9	0.030957626
19	0xbd20ec92	-0.03928811
20	0xbdf4bf58	-0.119505584
21	0xbd622c21	-0.055217866
22	0xbd442b11	-0.047892634
23	0x3c08ee1e	0.008357553
24	0xbd17b623	-0.037038933
25	0xbe433dac	-0.19066495
26	0xbce03260	-0.02736777
27	0x3d4287b6	0.047492705
28	0x3e3eccb2	0.18632773
29	0x3ce01541	0.027353885
30	0xbe12c687	-0.14333545
31	0xbb8c7480	-0.004286349
32	0x3df61e6d	0.12017522
33	0xbddf0af5	-0.10890762
34	0xbd96cb4c	-0.073629946
35	0xbd29c649	-0.041448865
36	0xbd240dfc	-0.0400524
37	0xbde33f92	-0.110961094
38	0xbe111504	-0.14168173
39	0x3c0e39e3	0.008680793
40	0xbc8ef679	-0.017451512
41	0x3d8740c1	0.06604148
42	0x3d37ccbc	0.044872984
43	0x3d80071e	0.062513575
44	0x3acc4afa	0.001558631
45	0x3ca292fa	0.019845475
46	0x3cc69fe3	0.024246162
47	0x3c5026d4	0.01270457
48	0xbd499a4b	-0.04921941
49	0xbe23bb2e	-0.15989372
50	0xbe5ec4f0	-0.21754813
51	0xbc4f2a87	-0.012644417
52	0xbb959aa0	-0.004565552
53	0xbe3099d3	-0.1724618
54	0xbc916107	-0.017746462
55	0x3da30a4b	0.079609476
56	0x3db1dd4c	0.08684787
57	0xbd387acb	-0.04503898
58	0x3d412060	0.047150016
59	0xbda56698	-0.08076209
60	0xbd31b636	-0.04338666
61	0x3da0e4da	0.0785615
62	0xbd462e86	-0.048384212
63	0xbcd8198e	-0.026379373
64	0xbb255cc1	-0.0025232288
65	0xbe0a6aae	-0.13517258
66	0x3e55be49	0.2087337
67	0x3d15ac97	0.036541548
68	0xbe26d563	-0.16292338
69	0xbda4e7de	-0.08052038
70	0x3d89470e	0.06703006
71	0x3d016a2b	0.03159539
72	0xbdd4288b	-0.103592955
73	0xbd85cf62	-0.06533696
74	0x3dcd7d24	0.10033634
75	0xbe7c2922	-0.24625066
76	0xbe13cc99	-0.14433517
77	0x3dd7c043	0.10534718
78	0xbe07df00	-0.13268661
79	0xbd559aa9	-0.05214945
80	0x3c9d5c89	0.019209163
81	0xbd0c7101	-0.034287456
82	0x3d9cdeab	0.07659658
83	0xbe0417a8	-0.12899649
84	0x3e103780	0.14083672
85	0x3d7e7092	0.062119074
86	0xbe135964	-0.14389569
87	0xbe1f3ddf	-0.15550946
88	0xbe06df8e	-0.13171217
89	0xbe38145c	-0.17976516
90	0x3d9585d1	0.07300914
91	0x3d31b685	0.043386955
92	0x3c856ef0	0.01628825
93	0x3db22263	0.08697965
94	0x3e5b76ff	0.21432112
95	0x3e967b49	0.29390934
96	0x3da363c0	0.0797801
97	0x3e04e100	0.12976456
98	0x3e0042a6	0.12525424
99	0xbdaf04de	-0.0854585
100	0x3d820e3b	0.063503705
101	0x3d75b3c8	0.059985906
102	0x3d9e83ff	0.0774002
103	0xbd981414	-0.074257046
104	0x3d49703c	0.0491793
105	0x3e019827	0.12655698
106	0x3d667c68	0.056270987
107	0xbd6e771c	-0.05821906
108	0x3e1c4e97	0.15264355
109	0xbce1cce9	-0.02756353
110	0x3d0d86c1	0.03455234
111	0xbdf9b309	-0.12192351
112	0xbe3231f4	-0.17401868
113	0xbdeede0d	-0.116634466
114	0xbd8b47dc	-0.068008155
115	0x3b9f97f9	0.0048704115
116	0x3e41ed8b	0.18938272
117	0x3e0cc2f8	0.1374625
118	0x3e389b6c	0.18028039
119	0x3e190e8d	0.14946957
120	0x3e4c6241	0.19959356
121	0xbdc3d381	-0.095618255
122	0xbca7eddd	-0.020499164
123	0x3db78b7f	0.08962154
124	0x3e4dbd4f	0.20091747
125	0x3db91e61	0.090389974
126	0x3e2a020b	0.16602342
127	0xbdb8b63c	-0.090191334
128	0xb9f63904	-0.00046963256
129	0xbc771e19	-0.015082859
130	0x3d57ff94	0.052733973
131	0x3d5c9c32	0.053859897
132	0x3e2b159e	0.16707465
133	0xbd60ff0e	-0.05493074
134	0x3d90ea29	0.070759125
135	0xbdfa4600	-0.12220383
136	0x3e63a15f	0.22229527
137	0xbe11bc91	-0.14232089
138	0xbe5fd7c9	-0.21859659
139	0xbdafa172	-0.08575715
140	0xbde50938	-0.11183399
141	0x3d95ac7d	0.0730829
142	0x3d0202df	0.03174102
143	0xbd476565	-0.04868068
144	0x3b95d329	0.0045722914
145	0x3d2ebaf4	0.04265876
146	0x3e159f7f	0.14611624
147	0xbe4195d4	-0.18904811
148	0x3e084b1e	0.13309905
149	0xbd0719b8	-0.03298351
150	0xbe15baef	-0.14622091
151	0xbe905d85	-0.2819635
152	0xbe811ffc	-0.25219715
153	0xbe04994a	-0.129491
154	0xbd8d539f	-0.06900715
155	0xbdc42a8c	-0.09578428
156	0xbdee175c	-0.11625549
157	0xbc89d311	-0.016824277
158	0xbd3b63a9	-0.04574934
159	0x3c24ff56	0.010070642
160	0x3db4dd18	0.08831233
161	0x3e2f8cfd	0.17143627
162	0x3dbb185f	0.09135508
163	0xbd96a219	-0.073551364
164	0x3d416331	0.047213737
165	0xbc9b5e83	-0.018965965
166	0xbb64d084	-0.0034914324
167	0xbcf3d540	-0.029764771
168	0x3dbf9a37	0.09355586
169	0xbae2a6cb	-0.001729214
170	0xbe338ca9	-0.17534126
171	0xbc4fae2f	-0.012675806
172	0xbc7635b6	-0.015027454
173	0xbc0ce6dc	-0.008599963
174	0x3dc1d387	0.09464174
175	0x3dc1ed08	0.09469038
176	0xbe2be1a6	-0.16785297
177	0x3e297eee	0.16552326
178	0xbd0b4df3	-0.034009885
179	0x3de6b478	0.112648904
180	0xbd689f02	-0.056792267
181	0x3cbddeeb	0.023177585
182	0x3e201e00	0.15636444
183	0x3dace400	0.08441925
184	0x3e496bd5	0.19670041
185	0xbe2c0b3d	-0.16801162
186	0x3e0f9fbd	0.14025779
187	0x3d2c2b9a	0.04203377
188	0x3e4d2aa7	0.20035802
189	0x3dfc5dc7	0.12322574
190	0xbdfe5cb2	-0.12420024
191	0x3d8d67ab	0.06904539
192	0x3cec1363	0.028817838
193	0xbccc9fdc	-0.02497857
194	0x3c3b7410	0.011441246
195	0xbcd6aa0e	-0.026204135
196	0x3d0f8534	0.03503914
197	0x3d906a42	0.07051517
198	0xbd4890a2	-0.048966058
199	0x3d525b19	0.05135641
200	0xbe02edf7	-0.12786089
201	0x3e6df6ae	0.23238632
202	0xbd9d559a	-0.07682343
203	0x3cefb3ae	0.029260483
204	0xbdd14775	-0.102187075
205	0x3be2c160	0.0069200248
206	0x3e0b84f9	0.13624944
207	0x3d06d0b3	0.032913875
208	0x3e21e327	0.15809308
209	0x3d48ae6f	0.048994478
210	0x3dbb043f	0.09131669
211	0x3d429c2b	0.047512215
212	0xbd0ad825	-0.033897538
213	0xbcce8034	-0.025207616
214	0xbd41f8e9	-0.04735652
215	0x3dad0f86	0.084502265
216	0xbca61c3c	-0.020277135
217	0x3d19142d	0.037372757
218	0x3e72553c	0.23665327
219	0x3db05779	0.08610434
220	0x3e4efff3	0.20214824
221	0x3d507bf9	0.05089948
222	0x3d9d444a	0.07679041
223	0xbd5db966	-0.054131888
224	0x3cb0a703	0.021564012
225	0xbe28b48a	-0.1647512
226	0x3cfa3251	0.03054157
227	0x3d5d8827	0.054084923
228	0x3d6f60d4	0.058441952
229	0x3cf8815e	0.030335125
230	0xba97ea3a	-0.0011590191
231	0xbd19f607	-0.037588146
232	0xbddaae05	-0.10677723
233	0xbcbf392c	-0.023342691
234	0x3c3451ba	0.011005813
235	0x3dbbcfd6	0.09170501
236	0x3dce0ac9	0.10060651
237	0x3ce61d7b	0.02809023
238	0xbe11e5a6	-0.1424776
239	0x3d858a4c	0.06520519
240	0xbe0154c7	-0.12629996
241	0xbe5d4c50	-0.21611142
242	0x3e23d22a	0.1599814
243	0xbe1e2325	-0.15443094
244	0xbca5bffa	-0.020233143
245	0xbd0a7f89	-0.033813033
246	0x3e18ca68	0.14920962
247	0x3e02bd7a	0.12767592
248	0xbde4a5e8	-0.111644566
249	0x3e2baf45	0.16766079
250	0xbdc910ca	-0.098176554
251	0x3dcfb1e8	0.10141355
252	0xbd98eef8	-0.07467455
253	0xbd2d84fd	-0.042363156
254	0xbd752473	-0.059849214
255	0xbdc7c1df	-0.09753775

ode_gru.GRU_update.update_gate.0.bias f4 [100]
0	0x3d758d1b	0.05994902
1	0xbd298ae8	-0.041392237
2	0xbc415934	-0.011801053
3	0xbd7fcb29	-0.062449608
4	0x3d9fb8ca	0.077989176
5	0x3d9e54aa	0.07730992
6	0xbdcbe86e	-0.09956442
7	0x3d6d1d6f	0.0578894
8	0x3d9dc13a	0.07702871
9	0x3d9f2df9	0.077724405
10	0xbc95fade	-0.0183081
11	0xbe58de9b	-0.21178667
12	0x3d968835	0.07350198
13	0xbdc06493	-0.09394183
14	0xbd665f18	-0.056243032
15	0x3d6d6576	0.05795809
16	0xbcd4f460	-0.025995433
17	0xbe0223db	-0.1270899
18	0xbda345be	-0.07972287
19	0x3dd14265	0.10217742
20	0xbceaa9fc	-0.028645508
21	0x3d95591d	0.07292388
22	0xbdb50768	-0.08839303
23	0x3d938d9a	0.07204743
24	0x3d83e9a8	0.06441051
25	0x3d8ced6e	0.068812236
26	0x3d8ecdb6	0.0697283
27	0x3dac6495	0.08417622
28	0x3d7bf513	0.061513018
29	0x3d9ee525	0.077585496
30	0x3d592296	0.0530115
31	0x3d5563b1	0.052097026
32	0xbdfc428d	-0.12317381
33	0x3d114b31	0.0354721
34	0xbd797c12	-0.06090934
35	0xbd294187	-0.041322257
36	0xbd91f41d	-0.07126639
37	0x3d842fdb	0.0645444
38	0x3d8871b4	0.06662312
39	0x3c48dfb7	0.012260369
40	0xbdacabfa	-0.084312394
41	0xbb56991c	-0.003274507
42	0xbd898383	-0.06714537
43	0xba9bf15f	-0.0011897496
44	0xbda50ef9	-0.080594964
45	0xbb8c9de5	-0.0042912834
46	0xbe190afa	-0.14945593
47	0xbe8b060b	-0.27153048
48	0x3e527e9d	0.20556112
49	0xbd890c4f	-0.06691801
50	0xbd56b5b3	-0.052419376
51	0xbd7eda1b	-0.06221972
52	0xbd394d54	-0.04523976
53	0xbdadfd56	-0.084955856
54	0xbdd345d4	-0.10316053
55	0xbd830f43	-0.06399395
56	0x3d84cb9a	0.064841464
57	0xbbabf3a0	-0.005247548
58	0xbd8b77a6	-0.068099305
59	0xbd8cc08b	-0.06872662
60	0x3d90da18	0.07072848
61	0x3db6c8ee	0.08925043
62	0xbd0b9205	-0.034074802
63	0xbd929c66	-0.07158737
64	0xbd941e2d	-0.07232318
65	0x3daf93cd	0.08573113
66	0x3d8ef0f9	0.06979556
67	0xbda91257	-0.08255451
68	0xbca694b1	-0.020334573
69	0x3cee55c6	0.029093634
70	0xbd4f5390	-0.0506168
71	0xbd1ac85c	-0.037788734
72	0xbdda9c94	-0.10674396
73	0xbd83b498	-0.0643093
74	0xbdc1bb99	-0.094596095
75	0x3c8abe0d	0.016936326
76	0x3e3f5891	0.18686129
77	0x3d6b5884	0.057457462
78	0xbd7a30eb	-0.061081808
79	0xbd633d4d	-0.055478383
80	0x3dbfffe5	0.0937498
81	0x3d9accec	0.07558617
82	0xbd6db5ed	-0.058034826
83	0xbd84af22	-0.064787164
84	0x3c210c9f	0.009829669
85	0x3ce700d6	0.02819864
86	0x3d15c310	0.03656298
87	0xbe3b9817	-0.18319736
88	0x3e020867	0.12698518
89	0x3d959b3f	0.073050015
90	0x3d922d42	0.071375385
91	0xbde21647	-0.11039405
92	0x3e103d4f	0.14085887
93	0xbc89f702	-0.016841415
94	0x3d6efb88	0.058345348
95	0x3d72ac43	0.059246313
96	0xbd7e1869	-0.062034998
97	0x3d7c463f	0.06159043
98	0xbda7502b	-0.08169588
99	0x3d9de0f7	0.07708924

ode_gru.GRU_update.update_gate.2.weight f4 [10, 100]
0	0xbc8a2b69	-0.016866403
1	0x3cc31f9c	0.023818783
2	0xbe83bdbc	-0.25730693
3	0x3e0b046b	0.13575904
4	0xbddc3e3a	-0.10754056
5	0xbcc91d5b	-0.02455013
6	0x3da4756a	0.080302075
7	0xbda627c5	-0.08113054
8	0xbdf46536	-0.11933367
9	0xbe5f2842	-0.21792701
10	0xbd18ed90	-0.037335932
11	0x3e083603	0.13301854
12	0xbdbbb5ce	-0.09165536
13	0x3d4bb80d	0.04973607
14	0x3d0eca42	0.034860857
15	0xbe182775	-0.14858802
16	0xbd20d36c	-0.039264128
17	0x3d810486	0.06299691
18	0x3e29100f	0.16510032
19	0xbec3b3dc	-0.3822316
20	0x3e25756b	0.16158073
21	0xbe8fa34e	-0.2805428
22	0x3e6133ad	0.21992369
23	0xbda21bc5	-0.07915453
24	0xbe02990a	-0.12753692
25	0xbd87bdbc	-0.06627986
26	0xbc56641a	-0.0130853895
27	0xbd79e69b	-0.06101094
28	0xbeaabc28	-0.33346677
29	0xbdf09392	-0.11746897
30	0x3dfc1745	0.12309126
31	0xbd2acf71	-0.041701738
32	0x3dd10895	0.10206715
33	0xbd0a0bf0	-0.03370279
34	0x3e2f3a33	0.17112045
35	0xbb96d00f	-0.0046024392
36	0x3d868b39	0.06569523
37	0xbe2503ac	-0.16114682
38	0xbea4e85d	-0.3220853
39	0xbdb6bd50	-0.08922827
40	0x3e9168a9	0.28400162
41	0x3e1101de	0.14160869
42	0x3e67850e	0.2260935
43	0xbcc64e8f	-0.024207382
44	0x3e7d41cd	0.24732132
45	0xbc24edc6	-0.010066455
46	0x3da07202	0.07834245
47	0x3e131284	0.14362532
48	0xbe62fa5a	-0.22165814
49	0x3c3ee483	0.011651161
50	0x3e55445f	0.20826863
51	0x3e1a7460	0.15083456
52	0x3e41bc58	0.18919504
53	0x3dc41a49	0.09575326
54	0x3e57109d	0.21002431
55	0x3d833d6c	0.064082
56	0xbe6d725c	-0.23188156
57	0xbd1d83b2	-0.038455673
58	0x3dd038e7	0.10167103
59	0x3da311e2	0.07962395
60	0xbe22ff07	-0.15917598
61	0xbcce72c3	-0.025201207
62	0xbcd9efa2	-0.026603524
63	0x3d8a6b74	0.06758776
64	0x3d5f87ed	0.05457299
65	0xbea1f0e7	-0.31629106
66	0xbd2f2404	-0.042758957
67	0x3e86755d	0.26261416
68	0x3d5037bf	0.050834414
69	0x3c8b0720	0.01697117
70	0x3db234f7	0.087015085
71	0xbca434a8	-0.02004464
72	0x3e0e86a4	0.13918549
73	0x3bb52c2d	0.005528948
74	0x3e478ec4	0.19488055
75	0xbc7de280	-0.015495896
76	0xbe7871b3	-0.24262123
77	0xbe974623	-0.29545698
78	0x3e44b2c0	0.19208813
79	0x3db76d00	0.08956337
80	0xbcddd7b1	-0.027080389
81	0xbe7daedb	-0.24773733
82	0x3e02cb5f	0.12772892
83	0x3e057a2e	0.13034889
84	0x3dcc87bd	0.099868275
85	0x3d21092b	0.039315384
86	0x3c88373c	0.0166279
87	0x3d094426	0.033512257
88	0xbd5fcf61	-0.05464113
89	0xbe34209f	-0.17590569
90	0xbe2b9b60	-0.1675849
91	0x3b1713ec	0.0023052646
92	0xbd551839	-0.052025054
93	0xbbed5f36	-0.007244016
94	0xbd59f54b	-0.053212445
95	0xbd77466c	-0.060369894
96	0x3c5c9d79	0.013465279
97	0xbe9d978f	-0.30779693
98	0x3d6030a5	0.05473389
99	0xbcfea3fc	-0.031084053
100	0xbd61325d	-0.05497967
101	0xbdfad387	-0.12247377
102	0x3d946044	0.07244924
103	0x3d8c99ee	0.06865297
104	0x3d1c11be	0.038102858
105	0xbd1e4f8b	-0.038650077
106	0x3e5237ba	0.2052907
107	0x3de0b7a3	0.10972526
108	0x3cfb6b0c	0.030690692
109	0xbe483ed6	-0.1955522
110	0x3dabc931	0.083879836
111	0x3e075fd4	0.1322015
112	0xbe0421cf	-0.12903522
113	0x3ea28f99	0.3175018
114	0x3e867c11	0.2626653
115	0x3aca6ac7	0.0015443199
116	0x3e6343d8	0.22193849
117	0x3d8a4c8f	0.06752884
118	0xbdf8ace0	-0.12142348
119	0xbe2fe92e	-0.17178795
120	0xbd8d5b80	-0.06902218
121	0xbd9b8e42	-0.07595493
122	0x3e144690	0.14480042
123	0xbe7186fe	-0.23586652
124	0xbdb141ca	-0.086551264
125	0xbe8c09c0	-0.2735119
126	0xbd9c4237	-0.07629817
127	0xbd62647a	-0.055271603
128	0xbde87898	-0.113511264
129	0xbe7ba033	-0.2457283
130	0xbe123150	-0.14276624
131	0xbe3bc8da	-0.18338338
132	0x3e03904d	0.12848015
133	0x3d8e9a9a	0.06963082
134	0x3d7435e4	0.059621707
135	0xbde0d273	-0.1097764
136	0x3b793898	0.0038028117
137	0xbdc60199	-0.096682735
138	0xbe92ab3f	-0.28646275
139	0xbdb580c7	-0.08862453
140	0x3ccce2d7	0.02501051
141	0xbd5b1e2d	-0.053495575
142	0x3e7251c6	0.23664007
143	0x3e29ef36	0.16595158
144	0x3e3bd30c	0.18342227
145	0xbb9f19db	-0.004855377
146	0x3dde8d25	0.10866765
147	0x3e10fc52	0.14158753
148	0xbdd466e7	-0.103711896
149	0x3ec07e52	0.37596375
150	0xbdfc89a4	-0.1233094
151	0x3d1376db	0.03600202
152	0x3e41872b	0.18899219
153	0x3df1cc7a	0.11806579
154	0xbd0da422	-0.034580357
155	0x3d1572be	0.03648638
156	0xbe18f084	-0.149355
157	0xbdbf80ef	-0.09350764
158	0xbe884c8f	-0.2662091
159	0x3bb0c0dd	0.005394085
160	0x3d35ba6e	0.044367246
161	0xbc69bb9f	-0.014265924
162	0x3c648795	0.013948341
163	0xbc21eb65	-0.009882783
164	0x3e71e39d	0.23621984
165	0xbd8cf0cd	-0.068818666
166	0xbc451e73	-0.012031185
167	0x3dc5f4d0	0.09665835
168	0x3dd27d97	0.102778606
169	0xbd606580	-0.054784298
170	0x3e0d554a	0.13802066
171	0x3d181664	0.03713073
172	0x3e318125	0.17334421
173	0x3e31112f	0.17291711
174	0x3de8c4bb	0.11365648
175	0xbdc434c7	-0.09580379
176	0xbe820252	-0.25392395
177	0xbd7c7a2e	-0.061639957
178	0x3e653e6d	0.22387095
179	0x39c3fe54	0.00037382788
180	0xbcda149b	-0.026621154
181	0xbe0706dc	-0.1318621
182	0x3e283ea6	0.16430148
183	0x3e1eaf31	0.15496518
184	0xbb80288f	-0.003911085
185	0xbe22749a	-0.15864792
186	0x3d962f9f	0.07333302
187	0x3d36c617	0.044622507
188	0xbdbfd930	-0.09367597
189	0xbe55de7c	-0.20885652
190	0xbd91a0e6	-0.07110767
191	0x3eccf969	0.40034035
192	0xbe026182	-0.12732509
193	0x3e0bba1e	0.13645217
194	0x3cc4decd	0.024032021
195	0xbd9fa2f2	-0.07794751
196	0x3db6bb6a	0.08922465
197	0xbe82c00b	-0.25537142
198	0xbcdf80c2	-0.027283076
199	0xbe48f448	-0.19624436
200	0xbc0f4aa3	-0.008745822
201	0xbdd1c9d5	-0.102435745
202	0xbc5cb898	-0.013471745
203	0x3e2f3313	0.17109327
204	0xbe10efaa	-0.14153925
205	0xbe1b8314	-0.15186721
206	0x3ddc6040	0.10760546
207	0xbe919ec9	-0.28441456
208	0xba1006d2	-0.00054941804
209	0xbda0c6f9	-0.07850451
210	0x3d947729	0.072492905
211	0xb8b04ae8	-8.406286e-05
212	0xbecaf42b	-0.3963941
213	0x39ba4219	0.0003552593
214	0x3de22cf1	0.11043728
215	0x3df34d23	0.11879947
216	0x3d814fe9	0.0631407
217	0x3d23897b	0.039926033
218	0x3deb3de0	0.11486411
219	0xbe87b058	-0.26501727
220	0xbe11a4d8	-0.14223039
221	0xbd459305	-0.048235912
222	0x3e7f51a4	0.24933487
223	0xbe0c6dfd	-0.13713832
224	0xbd40e125	-0.047089715
225	0xbdea7650	-0.114483476
226	0xbe0a7414	-0.13520843
227	0x3e162d0b	0.1466562
228	0xbdf69d36	-0.12041704
229	0xbe8c3190	-0.27381563
230	0xbe0909ec	-0.13382691
231	0xbc3dcf8b	-0.011585127
232	0x3d098696	0.033575617
233	0x3dad74cf	0.08469545
234	0x3e0e2671	0.13881852
235	0x3e9fdd7e	0.31223673
236	0x3d1e9401	0.038715366
237	0xbca3ee3a	-0.020011056
238	0xbd506f74	-0.05088754
239	0xbd5f17c6	-0.05446603
240	0x3e59d3e4	0.21272236
241	0xbe1b2ae5	-0.15153082
242	0x3e26b74b	0.16280858
243	0xbdbebba2	-0.09313132
244	0x3e47c393	0.195082
245	0x3b18335a	0.0023223967
246	0x3db5b190	0.08871758
247	0x3e4051f5	0.18781264
248	0xbe4041bb	-0.18775074
249	0x3e277fea	0.16357389
250	0xbe2258e0	-0.15854216
251	0x3cc75ad0	0.024335295
252	0x3e953081	0.29138568
253	0x3bf7bca0	0.0075603276
254	0xbdea513c	-0.114412755
255	0x3df2631b	0.11835309

ode_gru.GRU_update.update_gate.2.bias f4 [10]
0	0xbd920855	-0.071304955
1	0xbd8e9feb	-0.06964096
2	0xbd91314c	-0.07089481
3	0xbd939af3	-0.072072886
4	0xbd515e93	-0.051115584
5	0xbd30459b	-0.04303513
6	0xbd98bbeb	-0.074577175
7	0xbd8e7cbe	-0.069573864
8	0xbd7e5441	-0.06209207
9	0x3c0470b0	0.008083507

ode_gru.GRU_update.reset_gate.0.weight f4 [100, 22]
0	0x3c40682c	0.0117435865
1	0x3d04ebcb	0.032451432
2	0x3b7abe7e	0.0038260515
3	0x3e41fe82	0.18944743
4	0x3d10ec42	0.035381563
5	0xbced8439	-0.028993713
6	0x3e7a4345	0.24439724
7	0xbe695b7c	-0.22788805
8	0xbe1ef500	-0.15523148
9	0xbcd4bcf4	-0.025969006
10	0x3da41e94	0.08013645
11	0xbe019f79	-0.1265849
12	0xbe49eb74	-0.19718724
13	0x3ce5bb83	0.028043514
14	0xbd583c9a	-0.05279217
15	0x3e5dc493	0.21657018
16	0x3e6676dd	0.2250628
17	0x3d9b782f	0.075912826
18	0x3df6b4f9	0.120462365
19	0xbcfb154a	-0.0306498
20	0xbd5b0dd9	-0.053480003
21	0xbdc10de6	-0.09426479
22	0x3e00e7d6	0.12588438
23	0xbd35068d	-0.0441957
24	0x3d576663	0.052587878
25	0xbe8490b9	-0.25891665
26	0xbc34027e	-0.010986922
27	0xbda4e0c4	-0.08050683
28	0xbda7d944	-0.08195737
29	0x3dd9d832	0.10636939
30	0x3d43686c	0.047707006
31	0x3d844ccb	0.064599596
32	0xbde8525e	-0.11343835
33	0x3de50563	0.11182668
34	0xbcd19751	-0.025584849
35	0xbd11e640	-0.035619974
36	0x3b4b4323	0.0031015358
37	0x3e06c014	0.1315921
38	0x3b99d59f	0.004694655
39	0x3e0b0d22	0.13579229
40	0x3e34e08d	0.17663784
41	0x3d05facb	0.032709878
42	0xbcc6a9ee	-0.02425095
43	0x3d17ddc8	0.03707674
44	0xbd6a0e2a	-0.057142414
45	0xbd1316fb	-0.035910588
46	0xbe09d0d5	-0.1345857
47	0x3bfdff37	0.0077513712
48	0x3db70d08	0.089380324
49	0xbd515a09	-0.051111255
50	0x3db8dc2e	0.09026371
51	0x3e32c09a	0.17456284
52	0xbba4ea65	-0.005032825
53	0x3c419e9c	0.011817601
54	0xbd426529	-0.047459755
55	0xbda6d2b3	-0.081456564
56	0xbd2cd81d	-0.04219829
57	0xbdfa375b	-0.122175895
58	0x3d655fa5	0.055999417
59	0xbdcffc0f	-0.10155498
60	0x3b779210	0.003777627
61	0x3db70dbe	0.08938168
62	0xbd7e445e	-0.06207692
63	0xbd6e773e	-0.058219187
64	0xbe30161a	-0.17195931
65	0xbdfe6d0f	-0.12423145
66	0xbd6ddead	-0.05807369
67	0x3db55d04	0.08855632
68	0xbcaf0a58	-0.021367237
69	0x3d23013b	0.039796095
70	0xbdf78b73	-0.12087145
71	0x3d053534	0.03252144
72	0xbd9fd562	-0.078043714
73	0x3d94a4ab	0.072579704
74	0xbd97b246	-0.0740705
75	0x3d4001af	0.046876606
76	0xbe114765	-0.14187391
77	0x3d6564b4	0.05600424
78	0x3d6694bb	0.056294184
79	0xbda964b8	-0.08271164
80	0xbd50bf15	-0.05096348
81	0x3df27b51	0.11839927
82	0xbd2949b3	-0.04133005
83	0xbda76801	-0.08174134
84	0xbc668578	-0.014069907
85	0xbd3f70ca	-0.046738423
86	0xbdc6c0fe	-0.09704779
87	0x3e4c05e0	0.19924116
88	0x3e3348cb	0.17508237
89	0x3d6c24e7	0.05765238
90	0x3df5be65	0.119992055
91	0xbe417b47	-0.18894683
92	0x3d4b8692	0.049688883
93	0xbcb6b452	-0.02230278
94	0xbc222218	-0.009895824
95	0xbd9cce1c	-0.076565
96	0x3d092a1b	0.03348742
97	0xbd91cdac	-0.07119307
98	0x3ccc8f87	0.024970783
99	0xbda31978	-0.07963842
100	0xbd3b647c	-0.045750126
101	0x3d561482	0.05226565
102	0xbbb1e026	-0.005428332
103	0xbc8d8672	-0.017276023
104	0xbb6cf53b	-0.003615691
105	0xbcf8d581	-0.030375244
106	0xbcce1764	-0.025157638
107	0xbe1a9b87	-0.15098391
108	0xbdaae134	-0.08343735
109	0xbdd793f9	-0.105262704
110	0x3d919272	0.0710801
111	0xbca6358f	-0.02028921
112	0x3d94a362	0.07257725
113	0xbe33d939	-0.17563333
114	0x3c5efb03	0.013609651
115	0xbd57da66	-0.052698515
116	0xbde78723	-0.11305072
117	0xbe71937c	-0.23591417
118	0x3b035907	0.0020042078
119	0xbe1ef40c	-0.15522784
120	0xbd517a4c	-0.051142022
121	0xbe0f24b7	-0.1397885
122	0x3b97122b	0.00461032
123	0x3e0a5854	0.13510257
124	0x3c3e1125	0.011600767
125	0xbb6357d0	-0.0034689792
126	0xbcd6ac79	-0.026205288
127	0x3d045f29	0.032317314
128	0xbe36be24	-0.1784597
129	0x3dfc4464	0.12317732
130	0x3d8ba1a0	0.06817937
131	0xbdbe665f	-0.092968695
132	0xbd85764f	-0.06516706
133	0xbd187a62	-0.03722609
134	0xbd01b6ed	-0.031668592
135	0x3e251dfc	0.1612472
136	0xbd4a46a5	-0.049383778
137	0xbd9463dd	-0.0724561
138	0xbcfce28f	-0.03086975
139	0x3cc072fd	0.02349233
140	0xbca568f9	-0.020191656
141	0x3dca2c45	0.09871725
142	0x3db47c7c	0.08812806
143	0xbc84f4a4	-0.016229935
144	0xbe468a7e	-0.19388768
145	0x3d344e90	0.044020236
146	0xbd9d4488	-0.07679087
147	0x3cd239e7	0.025662376
148	0x3d13094b	0.035897534
149	0x3db3b6fd	0.087751366
150	0x3d8ccd5e	0.06875108
151	0xbd9359c7	-0.07194858
152	0x3cc21522	0.023691718
153	0xbe2b6d91	-0.16741015
154	0xbc2ada75	-0.010428061
155	0xbe3aacd4	-0.18229991
156	0xbd8044f1	-0.062631495
157	0xbd41b80f	-0.047294673
158	0xbd84c0b9	-0.064820714
159	0x3de415d4	0.11136976
160	0xbdaf7188	-0.08566576
161	0xbdcfcd28	-0.10146552
162	0xbd8061d4	-0.06268659
163	0x3e02227b	0.12708466
164	0x3dcad723	0.09904315
165	0x3e1bce8d	0.15215512
166	0x3d1c5187	0.038163688
167	0xbd12b115	-0.03581341
168	0xbdd289eb	-0.10280212
169	0xbd8d96e8	-0.06913549
170	0xbd2d4944	-0.0423062
171	0xbd5cc973	-0.053903054
172	0x3d2aecbc	0.041729674
173	0xbe551862	-0.20810083
174	0x3e0591af	0.13043855
175	0x3e33105b	0.17486708
176	0xbc467084	-0.012111787
177	0xbe313187	-0.1730405
178	0xbd5c70b5	-0.053818423
179	0x3ba31b98	0.0049776547
180	0x3e35f08b	0.17767541
181	0x3cdd7a43	0.027035838
182	0xbd22615b	-0.039643627
183	0xbc5faa03	-0.013651374
184	0x3d1857d5	0.03719314
185	0xbe04ae27	-0.12957059
186	0x3da9f2fc	0.08298299
187	0x3d21f41d	0.039539445
188	0xbe1b1da7	-0.1514803
189	0xbd732f3b	-0.059371214
190	0xbb8669e9	-0.004101981
191	0x3e7f610c	0.24939364
192	0xbda608c5	-0.081071414
193	0x3db91e80	0.090390205
194	0xbde5acd3	-0.11214604
195	0x3d7de462	0.06198538
196	0x3d9ba624	0.07600048
197	0x3e30c279	0.17261685
198	0xbda23f54	-0.07922235
199	0xbc91bd2f	-0.017790405
200	0xbe330ba3	-0.17484908
201	0x3d4fb78b	0.05071215
202	0x3d0b351a	0.03398619
203	0xbd90c8fb	-0.07069584
204	0x3a128bae	0.0005590272
205	0x3c8f4437	0.017488582
206	0x3c888bb5	0.01666818
207	0xbe29b6ce	-0.1657364
208	0xbd371de3	-0.044706237
209	0xbe04b87d	-0.12961002
210	0x3d2796a3	0.040915143
211	0xbce2caee	-0.027684655
212	0xbd57594e	-0.052575402
213	0xbd647f82	-0.055785663
214	0xbc3a9cf8	-0.011389963
215	0x3d88a050	0.06671202
216	0x3d964e3f	0.07339143
217	0xbde0ea39	-0.109821744
218	0xbd7df1ba	-0.061998107
219	0x3c45b59f	0.012067228
220	0xbdb5121f	-0.08841347
221	0xbdfd5c7f	-0.12371158
222	0x3d464a17	0.0484105
223	0x3dccc544	0.09998563
224	0xbe3fa3bf	-0.18714808
225	0x3de399f3	0.11113348
226	0xbc8a5155	-0.016884485
227	0xba776d63	-0.0009438602
228	0x3d291890	0.04128319
229	0x3e82d347	0.25551817
230	0xbc259f50	-0.010108784
231	0x3d4665a6	0.048436783
232	0xbd2f5f98	-0.042815775
233	0x3da80154	0.08203378
234	0x3da6604f	0.08123838
235	0x3ba66eab	0.0050791106
236	0xbca18685	-0.019717464
237	0x3d559c06	0.05215075
238	0x3e1cf3a0	0.1532731
239	0x3d81bcf8	0.06334871
240	0x3e5e63b6	0.21717724
241	0xbdc7241a	-0.09723683
242	0xbe14ee9e	-0.1454415
243	0x3e48460a	0.19557968
244	0xbc5845b9	-0.013200217
245	0xbced2791	-0.02894953
246	0xbe1d6e6b	-0.15374152
247	0x3e307046	0.17230329
248	0x3e29e6c7	0.16591941
249	0xbe1b62d6	-0.15174422
250	0x3df2238e	0.11823188
251	0x3d87d77c	0.06632897
252	0xbde30745	-0.11085371
253	0x3cb015ec	0.021494828
254	0xbde11136	-0.10989611
255	0xbe070686	-0.13186082

ode_gru.GRU_update.reset_gate.0.bias f4 [100]
0	0xbb34431d	-0.0027505823
1	0x3c44a996	0.012003323
2	0xbbb3a0d4	-0.0054818187
3	0x3b622883	0.003450901
4	0xbd02342e	-0.031788044
5	0xbb26f2c5	-0.0025474292
6	0xbbaaf94b	-0.0052177063
7	0xbc5ba8f9	-0.013406985
8	0x3cd19bc8	0.025586978
9	0xba7495dc	-0.0009330192
10	0x3cf90cb2	0.030401561
11	0xbb59fc49	-0.0033261946
12	0x39bb4b8b	0.00035723703
13	0x3bbc06b7	0.005738105
14	0xbc0024af	-0.007821246
15	0xba166235	-0.000573668
16	0x3ba450a1	0.0050144945
17	0xba88e74a	-0.0010444906
18	0xbaae281a	-0.0013287098
19	0xbbd09921	-0.0063659106
20	0xbb6609a8	-0.003510097
21	0xbcef6557	-0.029223127
22	0xbccb484b	-0.024814745
23	0xbd1e94e7	-0.038716223
24	0x3b553eba	0.0032538609
25	0xbb201a51	-0.0024429748
26	0xbb1db0d7	-0.0024061704
27	0xbb2da1e0	-0.002649419
28	0xbb09d642	-0.0021032249
29	0x3bb808c6	0.0056162803
30	0xbbb205d6	-0.0054328246
31	0xbb969549	-0.004595433
32	0x3b33c722	0.0027431925
33	0x3bd19171	0.006395512
34	0xbbd50060	-0.006500289
35	0x3aefb90d	0.0018289402
36	0xbb79a34e	-0.0038091722
37	0xbcff8a2a	-0.031193811
38	0xbcb2f3c2	-0.021844748
39	0x3a76ab69	0.00094096974
40	0x3c96f5cd	0.018427754
41	0x3c2766aa	0.010217348
42	0xbce3668b	-0.027758857
43	0x3c4a967e	0.012364982
44	0x3c0fda3b	0.008780058
45	0xbc18b364	-0.009320114
46	0xbc075de9	-0.008262136
47	0xbcade677	-0.021228058
48	0x3cff21cf	0.03114405
49	0xbbf8903e	-0.0075855544
50	0x3a614f5c	0.00085948943
51	0x3d0969c9	0.03354815
52	0x3ae87258	0.0017734272
53	0xb84c1a0a	-4.866164e-05
54	0x3d138c29	0.03602234
55	0xbc386f46	-0.011256998
56	0xbc11ad33	-0.008891392
57	0xbcf1fa17	-0.029538197
58	0x3ac05c5b	0.0014675962
59	0xbd0dd802	-0.03462983
60	0xbcc5ed9d	-0.024161154
61	0xbc1208bc	-0.008913215
62	0x3bc30859	0.005951923
63	0xbcf9079a	-0.030399133
64	0xbccbbb40	-0.024869561
65	0xbd01a746	-0.031653665
66	0x3cc3b62d	0.02389058
67	0x3b9f5f3e	0.0048636487
68	0xbcb835a2	-0.022486512
69	0xbd072a4f	-0.032999333
70	0x39c49ad0	0.00037499378
71	0xbcfce220	-0.030869544
72	0xbb0e9693	-0.002175723
73	0xbca7239a	-0.020402718
74	0xbb6715b6	-0.0035260743
75	0x3b89888f	0.0041971873
76	0xbbeb2393	-0.0071758716
77	0x3c84040c	0.016115211
78	0x3d5925ea	0.053014673
79	0xbb32ba23	-0.002727159
80	0xbba5fabc	-0.0050652903
81	0xbbb00284	-0.0053713936
82	0xbbc4d3d2	-0.0060066963
83	0xbb180dc0	-0.0023201555
84	0xbb29a739	-0.0025887026
85	0x3b96810a	0.0045930194
86	0x3ad36f5f	0.0016131214
87	0xbcd45f30	-0.025924295
88	0xbc34da7f	-0.011038422
89	0xbbb7497f	-0.005593478
90	0xbcfa9bc2	-0.03059185
91	0xbca8e5b2	-0.02061734
92	0x3cc23abb	0.023709645
93	0x3ce81b6e	0.028333392
94	0xbca4aa3a	-0.020100702
95	0xbd024dc9	-0.031812463
96	0x3b0fd863	0.0021949045
97	0xbcca19ec	-0.024670564
98	0xbcc98156	-0.024597805
99	0xbce58093	-0.02801541

ode_gru.GRU_update.reset_gate.2.weight f4 [10, 100]
0	0x3deab0c1	0.114594944
1	0xbd4e45ca	-0.050359525
2	0x3ddec918	0.10878199
3	0xbe8e959a	-0.27848512
4	0xbb7877af	-0.0037913134
5	0x3da326c8	0.07966381
6	0x3d86e306	0.0658627
7	0x3d9988e3	0.07496812
8	0x3ca58394	0.020204343
9	0xbd63353b	-0.055470686
10	0x3af85c08	0.0018948326
11	0xbc774331	-0.015091703
12	0x3d62a992	0.055337496
13	0xbe3e3d89	-0.18578161
14	0x3e2da214	0.16956359
15	0x3dd318e5	0.10307483
16	0xbe15beed	-0.14623614
17	0x3c599c36	0.0132818725
18	0xbd90ee9d	-0.07076762
19	0x3dbd697e	0.09248637
20	0x3d925ea4	0.071469575
21	0x3c5da487	0.013527996
22	0xbe0b3ffd	-0.13598628
23	0xbc3e04d4	-0.011597831
24	0x3c22efd0	0.009944871
25	0xbe06478f	-0.13113235
26	0x3d5bf2d5	0.05369838
27	0x3c36d009	0.011157998
28	0xbcecaa46	-0.028889786
29	0x3c5849ea	0.013201216
30	0x3d982a3a	0.07429929
31	0x3c8fe7fa	0.01756667
32	0x3de2fdad	0.11083541
33	0xbbf8e5e9	-0.007595767
34	0x3e271ff8	0.16320789
35	0xbcb302aa	-0.021851856
36	0x3e6793af	0.2261493
37	0x3d93b42d	0.072121
38	0x3e3b76b0	0.18306994
39	0x3d208085	0.039185066
40	0xbcdfdf71	-0.027328225
41	0xbe4b1bdd	-0.19834848
42	0xbd0dd160	-0.034623504
43	0xbd754dab	-0.059888523
44	0xbc257e40	-0.010100901
45	0x3dd5c1b1	0.10437334
46	0x3dafe7db	0.08589145
47	0xbde2bb8b	-0.11070927
48	0xbcb609cd	-0.02222147
49	0x3e8d9035	0.27649084
50	0x3cb38717	0.021915002
51	0xbd96baf1	-0.07359875
52	0x3b7f5b35	0.0038964276
53	0x3c8af8b8	0.016964301
54	0xbd88cbda	-0.066795066
55	0x3d5c3c71	0.05376858
56	0x3d28275d	0.041053165
57	0x3c990db7	0.018683298
58	0xbbac1fa8	-0.005252797
59	0xbc37955b	-0.011205043
60	0x3cc08e4a	0.023505349
61	0xbd4ab628	-0.049490124
62	0xbe1a0605	-0.15041359
63	0x3cf6d11d	0.03012901
64	0x3d4c3666	0.049856566
65	0x3de061c5	0.10956148
66	0x3dcb3468	0.09922105
67	0xbd68605d	-0.056732524
68	0x3c456f31	0.012050436
69	0xbc2b973b	-0.010473068
70	0x3bef726f	0.0073073427
71	0x3d813f63	0.06310918
72	0x3dd545a0	0.104136705
73	0xbd453c16	-0.048153006
74	0x3d357a31	0.044305984
75	0xbe132b34	-0.1437195
76	0x3d64407f	0.05572557
77	0xbddeeebc	-0.10885379
78	0xbc0b044b	-0.00848491
79	0x3ca02531	0.019548984
80	0x3de7386e	0.1129006
81	0x3e1f7e04	0.15575415
82	0x3dd52a91	0.104085095
83	0x3c9dcf8b	0.019264003
84	0x3d59e316	0.05319508
85	0xbe33e785	-0.17568786
86	0xbb597058	-0.0033178534
87	0x3e0e948f	0.13923858
88	0xbc77e07e	-0.015129207
89	0x3e827bff	0.25485227
90	0x3dda760f	0.10667049
91	0xbd83be68	-0.064328015
92	0xbd56fbca	-0.05248622
93	0xbd9683fd	-0.073493935
94	0xbdc45b8e	-0.09587775
95	0x3d9ed50a	0.07755478
96	0x3d0bc9d9	0.034128044
97	0x3d79916e	0.06092971
98	0x3b02efa0	0.0019979253
99	0xbdd24c9f	-0.102685206
100	0xbdc31016	-0.095245525
101	0x3d28b298	0.041185945
102	0x3d61556c	0.055013105
103	0xbd2deb19	-0.042460535
104	0x3d570db4	0.052503303
105	0x3d1a866d	0.037725855
106	0xbd9ba86e	-0.07600485
107	0x3d9ead13	0.07747855
108	0xbdea5b16	-0.114431545
109	0xbc7da5cd	-0.0154814245
110	0xbd9a76b9	-0.07542176
111	0xbe24931b	-0.16071741
112	0xbcb53f04	-0.022124775
113	0x3c6223f4	0.013802517
114	0x3b0f2319	0.0021840988
115	0xbd94c5ea	-0.072643116
116	0xbe3605e6	-0.17775688
117	0x3e1f3245	0.1554652
118	0xbd082b26	-0.033244275
119	0xbe8bcc05	-0.27304092
120	0x3e099998	0.13437498
121	0xbe3893f6	-0.18025193
122	0x3bf55e5f	0.0074880566
123	0xbe15c609	-0.14626326
124	0xbde2b1db	-0.110690795
125	0x3df41be5	0.11919383
126	0x3dff86e1	0.12476898
127	0x3d75de9d	0.060026754
128	0x3d9feb0c	0.078085035
129	0x3c68cf6c	0.0142096095
130	0xbdba075c	-0.09083435
131	0x3cb3aad1	0.021932038
132	0xbd9cae2c	-0.07650408
133	0x3e02607a	0.12732115
134	0x3c6750ed	0.014118415
135	0xbcef8199	-0.029236602
136	0x3cdd42f4	0.027009465
137	0xbdc86ae4	-0.09786013
138	0xbe019f7d	-0.12658496
139	0xbe002c7b	-0.12516968
140	0x3c0e310a	0.008678684
141	0xbd57863e	-0.052618258
142	0xbd91f541	-0.071268566
143	0xbc5f5713	-0.0136316
144	0x3d1b5d2a	0.037930645
145	0xbdf34c8a	-0.11879833
146	0xbd2b4992	-0.04181821
147	0xbc843f19	-0.016143369
148	0x3b7d0ce6	0.0038612424
149	0xbe097138	-0.13422096
150	0x3d8631e0	0.06552482
151	0xbe17b8a1	-0.14816524
152	0xbcee06f8	-0.029056057
153	0x3e2bd04f	0.16778682
154	0x3bd3b1c4	0.0064604003
155	0x3d9d1604	0.07670215
156	0x3d33ad8f	0.04386669
157	0x3e32cdbc	0.17461294
158	0x3b0a7049	0.0021124056
159	0xbdcee8fc	-0.10103032
160	0x3d592fcd	0.053024102
161	0xbdfcf35f	-0.12351107
162	0xbd8d8203	-0.069095634
163	0xbe633693	-0.22188787
164	0xbdbceae7	-0.092244916
165	0xbc32dd9d	-0.010917095
166	0x3ded1b21	0.1157744
167	0xb949c78a	-0.00019243188
168	0x3d758b95	0.05994757
169	0x3d1ea424	0.038730755
170	0xbc6ec53b	-0.014573391
171	0xbde877a7	-0.11350947
172	0xbd8ba39f	-0.068183176
173	0xbda538fb	-0.08067509
174	0x3e22c05e	0.15893695
175	0x3d30e957	0.04319128
176	0xbdf750bf	-0.12075948
177	0xbe303571	-0.17207886
178	0xbdc159c6	-0.09440951
179	0xbd495469	-0.049152765
180	0xbdc5ba35	-0.09654657
181	0xbd16c434	-0.036808208
182	0x3d66aa7a	0.056314923
183	0x3c025f35	0.007957269
184	0x3d9ca7a7	0.07649165
185	0x3d977566	0.07395439
186	0xbd88eab9	-0.06685395
187	0x3d048d95	0.032361586
188	0x3d9de30c	0.077093214
189	0xbc60d00b	-0.013721476
190	0x3c10027b	0.008789654
191	0x3d9dee91	0.077115186
192	0x3ba85257	0.005136769
193	0x3e66da53	0.22544222
194	0xbe22a013	-0.15881376
195	0xbdaebec4	-0.085324794
196	0x3d2664c9	0.04062346
197	0xbda73a19	-0.08165378
198	0x3d4176e3	0.04723252
199	0xbdd680d2	-0.10473789
200	0x3c8d34b6	0.017237049
201	0xbda18286	-0.078862235
202	0x3dae2c4b	0.08504542
203	0x3b8abb06	0.0042337207
204	0x3e3427d5	0.1759332
205	0x3d3c25cb	0.04593448
206	0x3d589510	0.052876532
207	0xbc934711	-0.017978223
208	0xbe557d4d	-0.2084858
209	0x3dbeef26	0.09322958
210	0xbe59aa1c	-0.21256298
211	0x3d817023	0.063202165
212	0xbd774ffa	-0.060379006
213	0xbbf6d9c3	-0.0075332834
214	0xbabb15f5	-0.0014273511
215	0xbdd62b33	-0.10457458
216	0x3d21dc3a	0.039516665
217	0xbc93ee5c	-0.018057995
218	0x3d467703	0.048453342
219	0xbd1e7c33	-0.038692664
220	0xbd5b6591	-0.05356366
221	0x3d5361ab	0.051606815
222	0x3d83cd45	0.064356364
223	0xbe0e1f7c	-0.13879198
224	0xbdd1c157	-0.10241955
225	0x3d8b0d0a	0.067895964
226	0x3dcf7dd4	0.10131422
227	0xbd070679	-0.032965157
228	0x3db9d36c	0.09073529
229	0xbe6cd76b	-0.2312905
230	0x3bbdc6d1	0.005791523
231	0x3d34df08	0.04415801
232	0xbe0f1f40	-0.13976765
233	0xbe8afed6	-0.2714755
234	0x3dee2c82	0.11629583
235	0xbc97332e	-0.018457022
236	0xbc3b8a82	-0.011446597
237	0x3d824f8b	0.06362828
238	0xbbc3f7c0	-0.005980462
239	0xbe21050c	-0.15724581
240	0xbd595739	-0.053061698
241	0xbd6ded32	-0.058087535
242	0x3d1f5330	0.038897693
243	0xbde960f5	-0.11395446
244	0xbd1c4eba	-0.038161017
245	0x3d5b1d1b	0.053494554
246	0x3e34701b	0.1762089
247	0x3d8f497c	0.06996438
248	0xbe0a2004	-0.13488775
249	0xbd6bd19f	-0.057572957
250	0xbbc26968	-0.0059329756
251	0xbd201632	-0.039083667
252	0xbe118b6b	-0.1421334
253	0x3cf600a3	0.0300296
254	0xbdc15e22	-0.094417825
255	0xbd859894	-0.065232426

ode_gru.GRU_update.reset_gate.2.bias f4 [10]
0	0xbbb6280d	-0.0055589736
1	0x3adb29bf	0.0016720815
2	0xbccfb033	-0.025352573
3	0xbc13c91a	-0.009020114
4	0xbb2d3c9f	-0.0026433838
5	0xbb18957a	-0.0023282454
6	0x3bdfc20f	0.0068285535
7	0x39d3a1d0	0.00040365616
8	0xbcf5d3a2	-0.030008141
9	0xbce2e68e	-0.027697828

ode_gru.GRU_update.new_state_net.0.weight f4 [100, 22]
0	0x3dfcb853	0.123398446
1	0xbd107806	-0.035270713
2	0xbe2243b3	-0.15846138
3	0x3e0a31ba	0.13495532
4	0xbd70ebae	-0.05881851
5	0x3e48231c	0.19544643
6	0x3e14acfb	0.14519112
7	0xbe19f14e	-0.15033457
8	0x3d82c164	0.063845426
9	0x3d89ccb4	0.06728497
10	0x3d22bd67	0.03973141
11	0x3cb44a8c	0.022008203
12	0x3cb9c449	0.022676604
13	0xbd86a354	-0.06574121
14	0x3d5f3d12	0.0545016
15	0xbd57d689	-0.05269483
16	0xbcc6297f	-0.024189709
17	0x3d7d54f7	0.061848607
18	0x3dfd1791	0.123580106
19	0xbdde20a2	-0.10846068
20	0xbbb37cc5	-0.00547752
21	0xbde7a8a4	-0.113114625
22	0xbd3cdf46	-0.046111368
23	0xbe10bc84	-0.14134413
24	0x3db01839	0.0859837
25	0x3de0d478	0.10978025
26	0x3e6dcc60	0.23222494
27	0x3e2ca9af	0.16861604
28	0x3e23be29	0.15990509
29	0xbd4c1d84	-0.049832836
30	0xbe2e70f7	-0.1703528
31	0xbe033333	-0.128125
32	0xbde21499	-0.11039085
33	0x3d86163a	0.06547208
34	0xbcc99fff	-0.024612425
35	0xbbed1bdf	-0.0072359885
36	0xbc9f41e8	-0.019440606
37	0xbd3010cb	-0.042984765
38	0xbe1b42a2	-0.15162137
39	0xbd44bc8d	-0.04803138
40	0xbcc3e771	-0.02391407
41	0xbe1949b5	-0.14969523
42	0xbd7b4c0a	-0.061351813
43	0xbd575ba9	-0.05257765
44	0x3c5c9e06	0.01346541
45	0xbdd24314	-0.102667004
46	0xbc86fc18	-0.01647763
47	0x3e0c026d	0.136728
48	0x3d56f81f	0.05248272
49	0x3da25432	0.07926215
50	0x3d8c10f4	0.06839171
51	0xbd8b3404	-0.067970306
52	0x3dadfe8c	0.084958166
53	0xbe22a409	-0.15882887
54	0x3be9c738	0.0071343444
55	0x3d221842	0.039573915
56	0x3d0112ec	0.031512186
57	0xbda93f6c	-0.0826405
58	0xbdadc882	-0.084855095
59	0xbd6176f0	-0.05504507
60	0xbe2f3133	-0.17108612
61	0xbbf762c2	-0.0075496146
62	0xbc9c66fa	-0.019092072
63	0x3dcb77e5	0.099349774
64	0x3c8657ae	0.01639923
65	0x3c89c86f	0.016819207
66	0x3d0cfb84	0.03441955
67	0x3daf3c8a	0.08556469
68	0xbd906bfd	-0.07051847
69	0x3e153eaa	0.14574686
70	0x3d9fc422	0.07801081
71	0xbccdf79d	-0.025142485
72	0xbc1344c4	-0.008988563
73	0x3cea547e	0.028604742
74	0xbd716336	-0.058932506
75	0x3e0f3d7c	0.13988298
76	0xbd09b55a	-0.033620216
77	0x3de1b172	0.11020173
78	0x3b21d154	0.002469142
79	0xbdb9181d	-0.09037802
80	0xbd50e56e	-0.05100005
81	0x3d93b072	0.07211389
82	0xbd450515	-0.04810055
83	0x3da02407	0.07819372
84	0x3d079480	0.033100605
85	0xbd683489	-0.056690726
86	0x3e311bba	0.17295733
87	0x3d9dee34	0.07711449
88	0xbe8108b2	-0.25201946
89	0xbd004078	-0.031311482
90	0x3e24abf2	0.16081217
91	0xbba51940	-0.0050384104
92	0x3ac03fa6	0.0014667406
93	0x3d10327f	0.035204407
94	0x3e1f4721	0.15554477
95	0x3d797017	0.060897913
96	0x3df69e9d	0.12041972
97	0xbd89b2b4	-0.06723538
98	0x3dd44057	0.10363834
99	0x3dbb64a8	0.09150058
100	0xbcba1bdc	-0.022718363
101	0xbd94b12b	-0.072603546
102	0xbdc1f046	-0.09469657
103	0xbde38e11	-0.111110814
104	0xbe017847	-0.12643538
105	0xbd2dc507	-0.042424228
106	0x3e451c53	0.19249086
107	0x3dabe252	0.083927765
108	0xbe0905c8	-0.13381112
109	0x3e0cb22e	0.13739845
110	0xbe3aac5c	-0.18229812
111	0xbe22041c	-0.1582188
112	0xbd75543a	-0.059894778
113	0xbdb091ed	-0.08621583
114	0xbe5a4a87	-0.21317492
115	0x3dec20ea	0.11529715
116	0x3d332452	0.04373581
117	0x3d7176c7	0.058951166
118	0x3cc1d889	0.023662822
119	0xbe35c91d	-0.177525
120	0xbda1611f	-0.078798525
121	0xbd73101c	-0.059341535
122	0x3db9f1b7	0.090793066
123	0x3d7e2b21	0.06205285
124	0xbe3760ab	-0.1790797
125	0x3c9af737	0.01891671
126	0xbe6f5395	-0.23371728
127	0x3e02618c	0.12732524
128	0x3d37055e	0.044682853
129	0xbd672d82	-0.056439884
130	0xbd81bd78	-0.063349664
131	0x3d855acc	0.06511459
132	0x3d97e8c1	0.07417441
133	0xbd5f87eb	-0.05457298
134	0xbd936f07	-0.07198911
135	0xba42cb41	-0.00074308
136	0x3dd6bcd2	0.10485233
137	0x3d9c9173	0.0764493
138	0x3d775f7f	0.060393807
139	0xbdf9c96d	-0.12196622
140	0x3ca56b52	0.020192776
141	0xbd67d540	-0.056599855
142	0xbcdeff1e	-0.027221259
143	0x3e271e20	0.16320086
144	0xbd663089	-0.05619863
145	0x3d00d6db	0.031454902
146	0x3de96469	0.11396105
147	0x3c9e7448	0.019342557
148	0xbcceb8c9	-0.025234597
149	0xbe0b2894	-0.13589698
150	0xbd921fda	-0.071349815
151	0x3d6c9c57	0.057766285
152	0x3d9ebfe7	0.07751446
153	0x3e13a82e	0.14419624
154	0x3e0f070a	0.13967529
155	0xbd51a96a	-0.051186956
156	0xbcd59601	-0.026072504
157	0xbba4f702	-0.0050343284
158	0x3e67d4fd	0.22639842
159	0xbe069c58	-0.13145578
160	0x3ddefb14	0.10887733
161	0x3e0e5a47	0.13901626
162	0x3d36fc7f	0.044674393
163	0xbd42d096	-0.047562204
164	0x3c0789a5	0.008272563
165	0xbdee2a3e	-0.11629151
166	0xbd5a997c	-0.05336903
167	0x3cf0235a	0.029313732
168	0x3cf7a6aa	0.030230839
169	0xbdf76745	-0.12080244
170	0xbd4fe20b	-0.05075268
171	0xbe419412	-0.1890414
172	0xbd85e356	-0.065375015
173	0x3d097f50	0.03356868
174	0x3e027621	0.12740375
175	0xbd9e25c7	-0.07722049
176	0x3e0ca61d	0.13735242
177	0x3de3ed78	0.11129278
178	0xbd3357a0	-0.043784738
179	0x3e18510c	0.14874667
180	0xbd7d3030	-0.061813533
181	0xbd6ec840	-0.058296442
182	0x3c729196	0.014805218
183	0xbd86ab0b	-0.065755926
184	0x3dbf87ff	0.09352111
185	0xbd8e50bf	-0.06948995
186	0xbbbb01b6	-0.005706991
187	0xbe59add3	-0.21257715
188	0x3da3e758	0.0800311
189	0x3e866f0f	0.26256606
190	0xbe1911cc	-0.14948195
191	0x3dcb553f	0.09928369
192	0x3d2986f7	0.041388478
193	0xbd0dfad8	-0.03466305
194	0x3d0accbb	0.033886652
195	0xbdeaa5fa	-0.11457439
196	0xbe08dd39	-0.1336564
197	0x3d999de6	0.0750082
198	0xbb223559	-0.0024751036
199	0xbe33aafb	-0.17545693
200	0x3d58c865	0.052925486
201	0x3e595a6e	0.21225902
202	0xbd9126e8	-0.07087499
203	0x3e2fa537	0.17152868
204	0x3d3b9c7d	0.045803536
205	0x3e316f52	0.17327622
206	0x3dd0ab86	0.101889655
207	0x3e1238f8	0.14279544
208	0xbe094f4b	-0.13409154
209	0xbd2b86cc	-0.0418766
210	0xbe1927f2	-0.14956644
211	0xbbdfcada	-0.0068296017
212	0x3deb9de6	0.11504726
213	0x3e338045	0.175294
214	0xbc77bb53	-0.015120345
215	0x3d1fa50a	0.038975753
216	0x3c030751	0.00799735
217	0xbe471f44	-0.1944552
218	0x39f6eb58	0.0004709612
219	0xbe4e9340	-0.20173359
220	0x3dd9cfa6	0.10635309
221	0x3d33d7b2	0.043906875
222	0xbd4a4d1c	-0.049389943
223	0xbdf00867	-0.117203526
224	0xbda22a6b	-0.07918247
225	0xbdd30629	-0.10303909
226	0x3cbd96f8	0.023143277
227	0x3d65f707	0.056143787
228	0xbdf2207e	-0.11822604
229	0xbe0d34b2	-0.13789633
230	0x3e576517	0.21034656
231	0x3d203e13	0.0391217
232	0x3e27c602	0.16384128
233	0xbd9ad4fa	-0.07560153
234	0x3dfe3ad8	0.12413567
235	0x3da8f46e	0.08249746
236	0x3dd310b4	0.1030592
237	0x3d21c914	0.039498404
238	0xbd2d2c44	-0.042278543
239	0xbbb9f955	-0.0056754746
240	0x3d66cf97	0.056350317
241	0xbd687517	-0.05675229
242	0x3d7b0f01	0.061293606
243	0x3d18b494	0.037281588
244	0x3d6ee6fa	0.058325745
245	0x3d8794c7	0.06620174
246	0x3d04ff86	0.03247025
247	0xbd8884cd	-0.06665955
248	0x3e2e1dba	0.17003527
249	0x3d5d059f	0.05396044
250	0x3c0f1c94	0.008734841
251	0xbe2498dd	-0.16073938
252	0xbe1836b6	-0.1486462
253	0x3c9a66b8	0.018847808
254	0xbdcb480b	-0.099258505
255	0x3e22231c	0.15833706

ode_gru.GRU_update.new_state_net.0.bias f4 [100]
0	0x3cae41e5	0.021271655
1	0xbc9a776d	-0.018855775
2	0x3beac4ba	0.007164565
3	0x3b0e6a3a	0.0021730796
4	0x3c59be12	0.013289945
5	0x3c883c16	0.016630214
6	0x3d10ae1f	0.035322305
7	0xbd18e0f2	-0.0373239
8	0xbaaf73d1	-0.0013385956
9	0x3d540d35	0.051770408
10	0x3cfb3e23	0.030669278
11	0xba32e52e	-0.00068243116
12	0x39da68d6	0.0004165831
13	0x3d446668	0.047949225
14	0x3cd2ed2f	0.025747864
15	0xbd838fe2	-0.06423928
16	0xbd28d8b8	-0.041222304
17	0xbb2c74fa	-0.002631484
18	0xb9fb3ff8	-0.0004792211
19	0xbcf6f288	-0.030144945
20	0xbd582af2	-0.05277533
21	0xbcb04e8a	-0.021521825
22	0x3d430496	0.047611795
23	0xbd55e2a3	-0.05221809
24	0x39d7828e	0.00041105266
25	0xbb0a2dfe	-0.0021084542
26	0xbb9956b6	-0.004679526
27	0xbac63b1a	-0.0015123815
28	0xbb0ac0db	-0.002117208
29	0xba757f09	-0.0009364938
30	0xbcf813d9	-0.030282902
31	0xbcdce308	-0.026963726
32	0xbc3fa656	-0.011697372
33	0xbd225423	-0.03963102
34	0xbc1c59ae	-0.009542866
35	0xbc7ab9b5	-0.015303065
36	0x3b2202ea	0.0024720975
37	0xbcdaebd4	-0.02672378
38	0x3ad39899	0.00161435
39	0xbcdf9b29	-0.027295666
40	0xbaef0651	-0.0018236135
41	0xbd24974d	-0.040183354
42	0x3c79d86c	0.015249353
43	0x3c5bbdd9	0.013411962
44	0xbd1e635b	-0.03866897
45	0xbc5a4753	-0.013322669
46	0xbac42225	-0.0014963789
47	0xbcf6399e	-0.03005677
48	0xbaa6a6f1	-0.0012714547
49	0x3bf220a2	0.007389144
50	0xbb810bb6	-0.0039381636
51	0x3b875f45	0.00413123
52	0xbcd5b9b9	-0.026089536
53	0x3d044f5e	0.032302253
54	0xbc747fac	-0.0149230175
55	0x3a844320	0.0010090806
56	0x3b144ee0	0.002263002
57	0xbb9b8df2	-0.004747146
58	0xbbe246ca	-0.0069054114
59	0x3c338424	0.010956798
60	0xbd0e0765	-0.03467502
61	0xba43e312	-0.0007472496
62	0x3ae49a0c	0.0017440929
63	0x3b0f9470	0.0021908544
64	0x3ca992c2	0.020699862
65	0xba3237a8	-0.00067984546
66	0xbb72be22	-0.0037039598
67	0xbb0313d0	-0.0020000823
68	0x3bc5227e	0.0060160747
69	0xbcdf74b0	-0.02727732
70	0x39e7724d	0.00044144914
71	0x3c61c259	0.013779246
72	0xbc5dd299	-0.01353898
73	0x3bd41623	0.0064723655
74	0xbae2fe55	-0.0017318228
75	0xbd4b0b66	-0.049571417
76	0xbcea58e2	-0.028606836
77	0xbd048532	-0.032353587
78	0x3a25a2ba	0.00063184986
79	0xbcace136	-0.021103483
80	0x3b024e08	0.0019882936
81	0xbc4e2789	-0.012582668
82	0xba90129e	-0.0010991876
83	0xbce24059	-0.027618574
84	0xbbded64c	-0.0068004485
85	0x3bf21500	0.0073877573
86	0xbb12ac76	-0.0022380627
87	0x3b7172fa	0.0036842213
88	0x3c1d51e3	0.009602043
89	0x3bb6deb6	0.0055807484
90	0x3b4a86c1	0.0030903073
91	0x3b373dec	0.0027960492
92	0xbcf2dbc1	-0.029645802
93	0xbb259454	-0.0025265412
94	0x390814b8	0.00012977689
95	0xbb8ff85c	-0.0043936204
96	0xbcca8c43	-0.024725085
97	0x3c220e03	0.009891036
98	0x3cf562c7	0.029954327
99	0x3a70e0b1	0.0009188755

ode_gru.GRU_update.new_state_net.2.weight f4 [20, 100]
0	0x3d262799	0.040565107
1	0xbdffb30b	-0.124853216
2	0xbdde9cce	-0.10869752
3	0xbdcd6052	-0.10028137
4	0xbd890894	-0.06691089
5	0xbe0dc124	-0.13843209
6	0xbe05d6ca	-0.13070217
7	0xbd21de53	-0.039518666
8	0x3e4b1619	0.19832648
9	0x3d46e75e	0.048560493
10	0xbccf82d4	-0.025330938
11	0x3e11625a	0.14197674
12	0x3dd12ae5	0.102132596
13	0x3d7e769d	0.062124837
14	0x3d4761a5	0.048677105
15	0xbccf74df	-0.025324283
16	0x3d5709c9	0.052499566
17	0x3cb190cc	0.02167549
18	0x3d00162f	0.031271156
19	0x3dffb17b	0.124850236
20	0xbd820eb9	-0.063504644
21	0x3c7f1948	0.015569992
22	0xbb9bb5f2	-0.004751914
23	0xbdc9d19b	-0.09854432
24	0x3c349732	0.011022376
25	0x3db30554	0.08741251
26	0x3db68de3	0.089137815
27	0xbe08d203	-0.13361363
28	0x3dceadc4	0.10091737
29	0xbd44f1d7	-0.0480822
30	0xbbe31653	-0.0069301515
31	0x3cd09ba1	0.025464835
32	0xbdf0b8f4	-0.11754027
33	0x3d0c4a8d	0.034250785
34	0xbdae5474	-0.08512202
35	0x3e3ddbef	0.1854093
36	0xbe065913	-0.13119917
37	0xbdee2422	-0.116279855
38	0xbd6f7fdc	-0.058471546
39	0xbe47c265	-0.1950775
40	0xbde27a6f	-0.110585086
41	0xbd99769c	-0.07493326
42	0xbc89c8ed	-0.016819442
43	0x3d3f00e3	0.046631705
44	0x3a9d92a0	0.0012021847
45	0x3da88a2e	0.08229481
46	0x3e1536e4	0.1457172
47	0xbdb459b9	-0.08806176
48	0x3e2a23a3	0.16615157
49	0x3d497aff	0.049189564
50	0xbd125b95	-0.03573187
51	0x3b86d409	0.004114632
52	0x3d837209	0.06418235
53	0xbdb1e685	-0.08686546
54	0x3995326f	0.0002845707
55	0xbdfe075b	-0.12403747
56	0xbe0a9879	-0.13534726
57	0xbcb1e4da	-0.02171557
58	0xbcae42f0	-0.021272153
59	0x3d2f73fb	0.042835217
60	0x3c8b866b	0.017031869
61	0x3d7b6430	0.061374843
62	0xbe4057ec	-0.1878354
63	0xbc1e2f80	-0.00965488
64	0xbde77ab3	-0.113027
65	0xbcb59316	-0.022164863
66	0xbd97e6cb	-0.07417067
67	0xbd63fe39	-0.055662367
68	0xbdf81e26	-0.12115125
69	0x3c9b412d	0.018951977
70	0xbe16ba22	-0.14719442
71	0x3a0ebffe	0.0005445479
72	0xbe227455	-0.1586469
73	0xbd59559e	-0.053060167
74	0xbc94c20f	-0.01815894
75	0x3ce18701	0.027530195
76	0x3d20f4fa	0.039296128
77	0x3e344d2a	0.17607561
78	0x3e68792b	0.22702472
79	0x3ea196cd	0.31560364
80	0x3d28fc70	0.04125637
81	0x3d7c6e16	0.061628424
82	0xbe1c4356	-0.15260062
83	0x3dfe439c	0.12415239
84	0xbd0cb9ed	-0.034357
85	0xbcd9b4f8	-0.02657555
86	0xbc4b260f	-0.012399211
87	0xbdf601f0	-0.12012088
88	0x3e4df860	0.20114279
89	0xbd67ce90	-0.056593478
90	0xbe4683af	-0.19386171
91	0x3dd3338b	0.103125654
92	0x3d5a4448	0.053287774
93	0x3d912b99	0.07088394
94	0xbdb89b47	-0.09013992
95	0xbb9d34d0	-0.0047975555
96	0xbcf39a6a	-0.029736716
97	0xbdd21fe1	-0.10259987
98	0xbe143593	-0.14473562
99	0xbdaf5cb5	-0.08562604
100	0xbe34578e	-0.17611524
101	0xbd80ac32	-0.06282844
102	0x3c90fada	0.01769774
103	0xbc164905	-0.009172683
104	0x3cf29d1d	0.029615933
105	0xbb7a27c8	-0.0038170684
106	0x3d89e82b	0.06733736
107	0x3cdbfc7f	0.026853798
108	0x3cd7a409	0.026323335
109	0xbcbf9219	-0.023385094
110	0xbe0af945	-0.13571651
111	0x3d8fa629	0.070141144
112	0x3cbc15a5	0.02295954
113	0xbdbc180f	-0.09184276
114	0x3e1d32d7	0.15351425
115	0xbdff4115	-0.12463585
116	0xbe15680b	-0.1459047
117	0xbde8c288	-0.11365229
118	0x3c4d2b7b	0.012522574
119	0xbdcdd5c9	-0.10050542
120	0xbe080c32	-0.13285902
121	0x3dda4f06	0.10659604
122	0x3d78a315	0.060702402
123	0x3d96b3af	0.07358491
124	0x3e7ad66f	0.24495862
125	0x3de597d0	0.112105966
126	0x3d82c158	0.06384534
127	0xbe3f63ef	-0.18690465
128	0x3d58e1a5	0.052949566
129	0x3dc09c38	0.09404796
130	0xbb2bfd4e	-0.002624351
131	0xbe054fed	-0.1301877
132	0x3e2654b1	0.16243245
133	0xbd5e9e19	-0.054349992
134	0xbe3816ba	-0.1797742
135	0xbda75bb6	-0.08171789
136	0x3d48f2d7	0.049059715
137	0xbe2a674b	-0.16640966
138	0x3e7684fa	0.24074164
139	0xbdc27c6d	-0.094963886
140	0xbdf880c6	-0.121339366
141	0xbd1921ec	-0.037385866
142	0xbdaa1161	-0.08304096
143	0x3dbb60e0	0.09149337
144	0x3d93ca12	0.07216276
145	0x3dcafde5	0.09911708
146	0xbd89b07c	-0.06723115
147	0xbdd36186	-0.103213355
148	0x3d18c1fb	0.03729437
149	0x3d8ae3c1	0.06781722
150	0xbd4d6847	-0.050148275
151	0x3dd6bc2e	0.10485111
152	0xbda029a0	-0.07820439
153	0x3e0f7aeb	0.14011733
154	0xbb2406c5	-0.002502845
155	0xbd78c5e4	-0.0607356
156	0x3e13cec8	0.1443435
157	0xbdf77c2d	-0.120842315
158	0x3ca1dae8	0.019757703
159	0x3d0aca43	0.033884298
160	0xbd714f72	-0.058913656
161	0x3c6c1ebe	0.014411626
162	0x3d3b3111	0.04570109
163	0x3d41b1eb	0.047288816
164	0x3e1e471c	0.15456814
165	0x3e569eef	0.20959066
166	0xbdd7207d	-0.105042435
167	0x3e0ce319	0.13758506
168	0xbdee0874	-0.11622706
169	0xbd7f840f	-0.0623818
170	0x3d608aa2	0.05481971
171	0xbe11caa9	-0.14237465
172	0xbd621bf0	-0.055202425
173	0x3d177ae0	0.036982417
174	0x3d394d82	0.045239933
175	0xbd514632	-0.051092334
176	0xbdd2e985	-0.102984466
177	0x3df64471	0.12024773
178	0x3cba72d1	0.022759827
179	0xbdc279e7	-0.09495907
180	0x3de3038c	0.11084661
181	0xbe886467	-0.266391
182	0xbd86d53c	-0.0658364
183	0xbd810a98	-0.06300849
184	0xbbcc7067	-0.0062389853
185	0x3c80932e	0.01569518
186	0x3d36e4dd	0.044651855
187	0x3c75c0f6	0.014999619
188	0xbde144c9	-0.10999448
189	0xbdf84d71	-0.12124146
190	0x3e056952	0.13028458
191	0x3e1fbc59	0.15599193
192	0x3d858765	0.06519965
193	0x3d719433	0.058979224
194	0x3dcc88c6	0.09987025
195	0x3d8c1abe	0.06841038
196	0x3cf8e307	0.030381693
197	0x3d4e8edd	0.050429214
198	0xbd5d1816	-0.05397805
199	0x3b431831	0.0029769058
200	0xbe181d81	-0.14855005
201	0x3e07b113	0.13251142
202	0x3dad1e43	0.084530376
203	0xbe100edc	-0.14068168
204	0xbc002ec3	-0.007823649
205	0x3d24264f	0.040075596
206	0x3e21f4a7	0.15815984
207	0x3c45d6b0	0.012075111
208	0x3e244927	0.1604353
209	0xbe18cc34	-0.14921647
210	0x3e112f47	0.14178191
211	0xbd532c37	-0.05155584
212	0x3de90dfc	0.113796204
213	0x3d751494	0.059834078
214	0x3e8a0798	0.2695892
215	0xbd8d41c5	-0.0689731
216	0xbd13e29e	-0.03610479
217	0x3d34fd9d	0.044187177
218	0x3db8a73f	0.09016275
219	0xbe1d1edd	-0.15343805
220	0x3bf43d17	0.0074535715
221	0x3daa5d5f	0.083185904
222	0xbd590d37	-0.05299112
223	0x3d90d0dd	0.070710875
224	0x3e8ec406	0.2788393
225	0x3e302541	0.17201711
226	0x3e21b895	0.15793069
227	0x3ddd2c93	0.107995175
228	0xbc166b5d	-0.009180871
229	0xbd951059	-0.07278509
230	0xbe4f2877	-0.2023028
231	0x3cad41f2	0.02114961
232	0xbe0b4d16	-0.13603625
233	0x3d4c8cdd	0.049939025
234	0xbd820efe	-0.06350516
235	0xbc2380ef	-0.009979471
236	0xbda5b937	-0.080919676
237	0xbd863475	-0.06552974
238	0x3c785f40	0.015159428
239	0xbd46bf7d	-0.04852246
240	0xbc4f1ce4	-0.012641165
241	0xbbd71adb	-0.0065644807
242	0xbda20e39	-0.07912869
243	0xbd82f027	-0.06393462
244	0x3dd16b78	0.10225576
245	0xbc27e43a	-0.010247285
246	0x3d8a77b0	0.0676111
247	0x3d28a0b7	0.041168895
248	0x3e24d970	0.16098571
249	0xbe32f9ff	-0.17478178
250	0xbba7a597	-0.0051161754
251	0x3d4b7494	0.049671724
252	0xbdd2bed1	-0.102903016
253	0xbe63e15f	-0.22253941
254	0x3dacd8b7	0.084397726
255	0xbe480e0a	-0.19536605

ode_gru.GRU_update.new_state_net.2.bias f4 [20]
0	0xbc21dd7d	-0.009879467
1	0x3a54d9b2	0.00081195973
2	0xbbb4cbbb	-0.0055174506
3	0x3cd7f8cd	0.026363755
4	0xb760a39e	-1.33895355e-05
5	0xbb834c92	-0.0040069306
6	0x3b4114e3	0.0029461912
7	0x397884da	0.00023700614
8	0x3c05307e	0.008129237
9	0x3c5a44be	0.0133220535
10	0x3be2d2c8	0.0069220997
11	0xbb9b763f	-0.0047443206
12	0xbb2594be	-0.002526566
13	0xbd098305	-0.033572216
14	0xbc6d5147	-0.01448471
15	0x3b4ba8e3	0.0031076006
16	0x3cbc9a93	0.023022925
17	0xbb17dcaa	-0.0023172298
18	0xbcb39660	-0.02192229
19	0xbd089b02	-0.033350952
